project/output/dqn_pokemon_policy.pth (torch, 243062 bytes, 6 tensors)

layer1.weight f4 [256, 90]
0	0x3d8a2cae	0.06746803
1	0xbd6a9735	-0.05727311
2	0x3da1a6d2	0.078931466
3	0xbd926920	-0.07148957
4	0x3d00609a	0.031342126
5	0x3d22288f	0.03958946
6	0xbda3e17f	-0.08001994
7	0x3d2b0285	0.04175045
8	0x3dcac829	0.09901459
9	0x3b439f06	0.0029849424
10	0x3d95f2ea	0.07321723
11	0xbdb2d9d7	-0.08732956
12	0x3d26d866	0.040733717
13	0x3ddd18df	0.107957594
14	0x3dd6c1bf	0.10486173
15	0x3c9eb2d9	0.01937239
16	0xbdae4327	-0.08508902
17	0xbcf3c96c	-0.029759131
18	0xbd6a93cf	-0.057269868
19	0xbd8ab8d6	-0.06773536
20	0xbca557dd	-0.020183498
21	0x3b4cdf5b	0.003126106
22	0xbb488bc0	-0.0030600876
23	0x3d466e26	0.04844489
24	0xbddb18a2	-0.10698058
25	0xbd3e0544	-0.04639174
26	0xbd9310f1	-0.07180966
27	0xbda6937f	-0.081336014
28	0x3d9930af	0.07479989
29	0x3d73f8ed	0.059563566
30	0xbd2504a9	-0.040287647
31	0x3dbfe221	0.093693025
32	0x3cca3ece	0.02468815
33	0x3b3e7c14	0.0029065656
34	0x3d893a71	0.067006
35	0xbd680224	-0.056642666
36	0xba2a84b5	-0.000650476
37	0xbcd2fcb4	-0.025755264
38	0x3d7497c2	0.05971504
39	0xbc0b3630	-0.008496806
40	0x3d27124a	0.040788926
41	0xbde97ccf	-0.114007585
42	0x3dae672d	0.08515773
43	0x3da0f0bd	0.07858417
44	0x3dabe4a6	0.083932206
45	0xbd445a46	-0.047937654
46	0x3da77b83	0.08177855
47	0x3d229756	0.039695106
48	0x3dbe76b1	0.09299982
49	0x3d90baad	0.070668556
50	0xbd5eb714	-0.054373816
51	0x3d823d07	0.06359296
52	0x3d8acf45	0.06777815
53	0x3d5358c6	0.051598333
54	0x3c803982	0.015652422
55	0x3d80b850	0.06285155
56	0x3da2dccc	0.0795227
57	0x3d57fe10	0.052732527
58	0x3da919bd	0.08256862
59	0x3d9906ab	0.07471975
60	0x39fedb8b	0.00048610228
61	0x3db2df01	0.08733941
62	0xbd11a3d6	-0.035556637
63	0x3d6fb399	0.058520887
64	0x3dac7513	0.08420768
65	0x3d6254c1	0.05525661
66	0x3d3dfa7c	0.04638146
67	0x3cb3ea5d	0.021962339
68	0x3d0389bf	0.032113787
69	0x3d803fd4	0.06262174
70	0xbcb38e7f	-0.021918533
71	0x3b34ab81	0.0027568045
72	0x3dd0194a	0.101610735
73	0xbbc21f74	-0.0059241597
74	0x3bfdc5c2	0.007744522
75	0x3d04ef9d	0.032455076
76	0x3dde63a2	0.10858847
77	0xbd3c3f06	-0.04595854
78	0x3d927305	0.071508445
79	0xbb1f9b60	-0.0024354085
80	0x3d99f0a6	0.07516603
81	0xbc3952c0	-0.011311233
82	0x3e006f2a	0.12542406
83	0x3de1727f	0.110081665
84	0x3be14251	0.0068743606
85	0xbd83d2c4	-0.06436685
86	0x3db63914	0.088976055
87	0xbd41318e	-0.0471664
88	0x3ce2241f	0.027605115
89	0x3de477e3	0.11155679
90	0x3d6d99c9	0.05800799
91	0xbd0ffe2b	-0.035154503
92	0xbd336980	-0.043801785
93	0x3bf02e9f	0.0073297764
94	0xbd9fe2a1	-0.07806898
95	0xbd60c618	-0.054876417
96	0x3d49c654	0.049261406
97	0xbdc8d8d9	-0.098069854
98	0x3c6963bb	0.014244969
99	0x3e068fcb	0.1314079
100	0xbd0c8088	-0.034302264
101	0xbd9114ab	-0.0708402
102	0xbce54798	-0.02798824
103	0x3c82fbdc	0.015989237
104	0xbd9bf276	-0.07614605
105	0xbdb7f7ab	-0.08982786
106	0xbd12f633	-0.035879325
107	0xbdad3465	-0.08457259
108	0x3db2815b	0.08716079
109	0xbdbcf07b	-0.092255555
110	0x3d5fc293	0.05462892
111	0xbdb8e5ef	-0.09028231
112	0xbd646615	-0.055761416
113	0xbd76809d	-0.06018125
114	0x3d95d487	0.07315927
115	0x3dc68c35	0.09694711
116	0x3da2c9cf	0.07948648
117	0xbd1d761a	-0.03844271
118	0x3ccb8840	0.024845243
119	0x3d2e8f83	0.042617332
120	0xbc7fe5a0	-0.015618712
121	0xbdc5e936	-0.09663622
122	0xbd3cba4b	-0.0460761
123	0x3d2c58ca	0.042076863
124	0x3d7e9fea	0.062164225
125	0xbda05be7	-0.07830029
126	0x3c7b83f9	0.015351289
127	0xbd89a117	-0.067201786
128	0x3b94e84d	0.004544294
129	0xbd9fda09	-0.07805259
130	0xbd8e91ae	-0.0696138
131	0xbd9af5ad	-0.0756639
132	0xbd76791d	-0.060174096
133	0xbdc838cc	-0.09776458
134	0xbd828ba1	-0.06374288
135	0x3da07833	0.07835426
136	0x3df8aff8	0.121429384
137	0xbdbc211f	-0.09186005
138	0xbdc8bfbf	-0.09802198
139	0xb8797827	-5.9478127e-05
140	0xbdad3501	-0.08457375
141	0xbdbb873a	-0.09156652
142	0x3d6d3aaa	0.057917275
143	0xbc6a3249	-0.0142942155
144	0x3d7119b0	0.058862388
145	0x3df70d25	0.12063054
146	0x3d22577b	0.03963421
147	0x3ca32d80	0.019919157
148	0x3dbd5ea1	0.09246565
149	0x3de9c036	0.114136145
150	0x3dab7eb1	0.08373774
151	0x3d8cad05	0.06868938
152	0x3d82f0d2	0.06393589
153	0x3e01da22	0.12680867
154	0x3d08e5fd	0.03342246
155	0x3c6327e6	0.013864493
156	0x3c6de31b	0.014519478
157	0x3c93f843	0.018062716
158	0xbbfbb2e4	-0.0076812375
159	0xbd91d0c8	-0.071199
160	0x3c7d642e	0.015465779
161	0x3c069125	0.008213316
162	0x3bb38dac	0.005479535
163	0xbd1ce0e5	-0.038300414
164	0x3b56e7ff	0.003279209
165	0x3bb4125a	0.0054953517
166	0x3d579cca	0.05263976
167	0xbdbec56c	-0.09314999
168	0x3d1fcfd6	0.039016567
169	0x3cb7c08c	0.02243068
170	0xbd23d20f	-0.03999525
171	0xbd498455	-0.049198467
172	0xbcc4aefd	-0.024009222
173	0xbd367ccf	-0.04455262
174	0x3db114be	0.086465344
175	0x3d9a0a20	0.075214624
176	0x3da9a8a1	0.082841165
177	0x3d856ed9	0.06515283
178	0x3d74e8e2	0.059792407
179	0xbdf7eea7	-0.12106066
180	0xba99491e	-0.0011694764
181	0x3d40c260	0.04706037
182	0x3ce6eac1	0.028188111
183	0xbd63f98c	-0.05565791
184	0x3d3cb0d4	0.046067074
185	0x3dab3ee4	0.08361605
186	0xbd69f0d5	-0.05711444
187	0xbcd35155	-0.025795618
188	0xbd240a09	-0.040048633
189	0xba153048	-0.00056910934
190	0xbdb7702e	-0.089569435
191	0xbc7c5253	-0.015400487
192	0xbd5b475d	-0.053534854
193	0x3daa0de4	0.08303431
194	0xbdc712b6	-0.09720366
195	0x3da81439	0.08206982
196	0x3daad082	0.08340551
197	0x3d9697b0	0.07353151
198	0xbda06be8	-0.078330815
199	0x3dbf205c	0.09332344
200	0x3ca0471f	0.019565163
201	0x3d270335	0.040774543
202	0x3ce01a04	0.027356155
203	0x3dc6fcb1	0.09716166
204	0x3d15f52d	0.03661077
205	0x3dd4b9a9	0.10386974
206	0xbc74cae9	-0.014940956
207	0xbca3aa2a	-0.019978601
208	0xbafc888e	-0.0019266771
209	0xbdd4c0bf	-0.10388326
210	0x3cae17cb	0.02125158
211	0xbda9f1a8	-0.082980454
212	0xbda7b129	-0.081880875
213	0xbd8f598e	-0.06999503
214	0xbbdf37b0	-0.0068120584
215	0xbd9dfc2c	-0.077141136
216	0xbdac7953	-0.08421578
217	0xbdccfde0	-0.1000936
218	0xbcb614ef	-0.022226779
219	0x3cac781c	0.021053366
220	0x3d675e6e	0.05648654
221	0xbd1609b5	-0.03663035
222	0xbcf25d41	-0.029585483
223	0x3c70afa3	0.014690313
224	0xbd03273c	-0.03201984
225	0xbbd165fb	-0.006390331
226	0x3ddeb4f8	0.10874361
227	0xbda7dadc	-0.08196041
228	0x3d877ca1	0.06615568
229	0xbdb3969b	-0.0876896
230	0xbdc1f67d	-0.09470842
231	0x3d5fe988	0.054666072
232	0x3d33528c	0.043779895
233	0xbdaf776e	-0.08567701
234	0x3c9b291e	0.018940505
235	0x3d9488cc	0.072526544
236	0xbd4bc829	-0.049751434
237	0xbd9a18e0	-0.07524276
238	0xbd98d1e2	-0.07461907
239	0x3df828ac	0.121171325
240	0x3da10e5b	0.07864066
241	0xbc5faec8	-0.013652511
242	0x3dafe076	0.085877344
243	0xbda104db	-0.07862254
244	0x3db917d0	0.09037745
245	0x3d02ba40	0.031915903
246	0xbd78c62b	-0.060735863
247	0x3d478386	0.048709415
248	0x3d187baa	0.03722731
249	0x3d649d5c	0.055814132
250	0x3d91400b	0.07092293
251	0x3d2c185a	0.04201541
252	0x3d911d4f	0.07085668
253	0xbce0f4f5	-0.027460555
254	0xbd35853f	-0.044316527
255	0xbd0713ee	-0.03297799

layer1.bias f4 [256]
0	0x3cb051c6	0.021523368
1	0x3d9f45e0	0.077769995
2	0xbdbba5ed	-0.09162507
3	0x3d020c61	0.031750087
4	0x3d534cf8	0.051587075
5	0x3d82fca7	0.06395846
6	0xbd76a751	-0.06021816
7	0x3de5ea1a	0.11226292
8	0x3d1fba74	0.038996175
9	0xbcb93cc4	-0.022611983
10	0x3cb7619b	0.02238541
11	0x3d989a13	0.07451262
12	0x3dea56bd	0.11442325
13	0x3ddd7602	0.10813524
14	0xbd8ecda6	-0.06972818
15	0x3cd50142	0.026001576
16	0x3da513b5	0.080603994
17	0x3bee70d7	0.007276635
18	0xbc92e6bb	-0.017932286
19	0x3cc4e465	0.024034688
20	0xbd3ee9e8	-0.04660979
21	0x3bfbc3c4	0.007683249
22	0x3dd3676a	0.10322459
23	0x3cd4b82b	0.025966724
24	0x3d955e64	0.07293394
25	0xbd9cd036	-0.076569006
26	0xbd8e50a4	-0.06948975
27	0x3dbd1bff	0.092338555
28	0xbcdfbb12	-0.027310882
29	0x3bd392c9	0.006456707
30	0xbd744518	-0.059636205
31	0xbbc0cacc	-0.0058835503
32	0xbd50f313	-0.051013064
33	0x3dd95064	0.106110364
34	0xbd973cf7	-0.07384675
35	0x3d738d03	0.05946065
36	0x3dc329e0	0.095294714
37	0xbd58c010	-0.05291754
38	0xbca6a4e1	-0.020342292
39	0x3df7e43f	0.12104081
40	0x3d028fb4	0.031875327
41	0x3d1b166b	0.037863176
42	0x3c98438a	0.018586893
43	0x3d4793ee	0.04872506
44	0xbd3fbc29	-0.046810303
45	0x3e06c8ff	0.13162611
46	0xb7935e6b	-1.7567732e-05
47	0x3d29b132	0.041428752
48	0x3dfd5ae0	0.12370849
49	0x3d53160c	0.051534697
50	0x3cff5b07	0.031171335
51	0x3de9bb09	0.11412627
52	0x3dd42657	0.10358875
53	0x3db7181f	0.089401476
54	0xbd83fb3e	-0.06444405
55	0x3df6b998	0.12047118
56	0x3d1cb9c7	0.03826311
57	0xbd2a786e	-0.041618757
58	0x3cd8b616	0.026454013
59	0x3d4d2bca	0.05009059
60	0x3d9d7840	0.076889515
61	0x3df5b483	0.119973205
62	0x3e061095	0.13092263
63	0x3d86980d	0.0657197
64	0x3dab55d5	0.083659805
65	0x3ddc9c94	0.107720524
66	0xbb765978	-0.0037589949
67	0x3dd0898a	0.101824835
68	0x3d874271	0.066044696
69	0x3d556cf4	0.05210586
70	0x3e069925	0.13144358
71	0xbd327905	-0.043572444
72	0xbdb49de9	-0.088191815
73	0x3ddcc874	0.10780421
74	0x3d7c4006	0.061584495
75	0xbde47eca	-0.111569956
76	0x3db77d2d	0.08959422
77	0x3d0b5b1c	0.034022436
78	0x3ca7aa88	0.020467058
79	0xbc4aa975	-0.012369503
80	0xbd755a29	-0.059900437
81	0xbd1a23c0	-0.03763175
82	0x3d60b312	0.054858275
83	0xbd2e8ae0	-0.04261291
84	0xbd0fa2f6	-0.03506752
85	0x3df6b99b	0.1204712
86	0x3ca5201d	0.020156914
87	0x3b3a0f8b	0.0028390612
88	0xbcd850c6	-0.026405703
89	0x3dcd12f1	0.100133784
90	0x3d0f42ab	0.03497569
91	0x3df23adb	0.11827632
92	0x3dc9d553	0.098551415
93	0xbd5fa5cd	-0.05460148
94	0x3cc0c3e4	0.023530908
95	0x3dc86dd4	0.09786573
96	0x3dafc88d	0.08583174
97	0x3bd31d4e	0.0064427024
98	0xbbd20c39	-0.0064101485
99	0x3dd37eb9	0.10326905
100	0xbd1383a3	-0.03601421
101	0x3cc215cd	0.023692036
102	0x3ddb2af0	0.10701549
103	0x3cc89ab7	0.024487836
104	0x3d885c2d	0.06658206
105	0x3db069fd	0.08613966
106	0x3db6f3b1	0.08933199
107	0xbd259e09	-0.040433917
108	0xbd002d4b	-0.031293195
109	0xbd88c5af	-0.0667833
110	0x3b0783e5	0.002067798
111	0x3d5d3699	0.054007147
112	0x3d1ef0f0	0.038803995
113	0x3ce318f4	0.02772186
114	0xbd96b6f7	-0.073591165
115	0xbd896365	-0.06708411
116	0xbd851cec	-0.06499657
117	0xbd886432	-0.06659736
118	0xbd476128	-0.04867664
119	0x3dc22763	0.09480169
120	0xbd87da65	-0.06633452
121	0x3c6054a4	0.013692055
122	0x3cefe14c	0.029282235
123	0x3d53d7fb	0.051719647
124	0xbcaec9f0	-0.021336526
125	0xbc1d3696	-0.009595534
126	0xbc66a43f	-0.014077245
127	0x3d83dd3f	0.06438684
128	0x3dd234a1	0.102639444
129	0xbd30931e	-0.043109052
130	0xbd2dec37	-0.0424616
131	0xbd8171c1	-0.06320525
132	0xbd49784b	-0.049186986
133	0xbd6843c6	-0.05670526
134	0x3d44b2df	0.048022147
135	0x3d024348	0.031802446
136	0xbd0f85bc	-0.03503965
137	0x3dd04c73	0.101708315
138	0xbdc4ea8a	-0.09615047
139	0xbd92590d	-0.07145891
140	0x3de3fd4f	0.11132299
141	0x3da16cb0	0.078820586
142	0xbd63bf25	-0.05560221
143	0xbd8c8528	-0.06861335
144	0x3d5c655b	0.053807598
145	0x3d9ca8f6	0.07649414
146	0xbdb7fce1	-0.0898378
147	0x3d8b02c4	0.06787637
148	0xbcee6de4	-0.029105134
149	0x3b7204b8	0.0036929082
150	0x3bad3197	0.0052854526
151	0xbd631f6b	-0.055449884
152	0xb79ee859	-1.8943263e-05
153	0xbccc37f7	-0.02492903
154	0x3c001539	0.00781756
155	0xbc0d43bb	-0.008622105
156	0x3cd19f90	0.02558878
157	0x3cfb67b0	0.03068909
158	0x3ca3dfde	0.02000421
159	0x3cb01fdb	0.021499565
160	0x3df1e09e	0.118104205
161	0x3da6a15c	0.081362456
162	0xbdacc882	-0.08436681
163	0x3d1b246d	0.037876535
164	0xbde04856	-0.10951297
165	0x3d881cb4	0.066461
166	0xbcc4cb16	-0.02402262
167	0x3d6f987d	0.058495034
168	0xbd49d930	-0.04927939
169	0x3d9358da	0.071946815
170	0x3cceb105	0.025230894
171	0x3b05c69d	0.0020412572
172	0xbd83aedc	-0.06429836
173	0xbc14cf6b	-0.009082655
174	0x3de115c7	0.10990482
175	0xbc1f6876	-0.009729495
176	0x3d989426	0.07450132
177	0xbdc45dfa	-0.09588237
178	0x3d628fbf	0.05531287
179	0x3c4e6b58	0.012598835
180	0xbdaa2c1e	-0.08309196
181	0x3df847a0	0.121230364
182	0xbdaef027	-0.08541899
183	0x3d462133	0.048371505
184	0xbd1525a6	-0.036412857
185	0xbd2f22d3	-0.04275782
186	0xbba3b662	-0.004996107
187	0x3d325e85	0.043547172
188	0x3de848eb	0.11342033
189	0xbbdc98f9	-0.006732103
190	0x3d9ec355	0.077521004
191	0x3df22f78	0.1182546
192	0x3d42541c	0.047443494
193	0xbcbee6e3	-0.023303455
194	0xbd26f71d	-0.04076301
195	0x3db00df4	0.08596411
196	0xbd7464ff	-0.05966663
197	0x3dcceba8	0.10005885
198	0x3e0671a1	0.13129283
199	0xbbe206d4	-0.0068977866
200	0x3d6155bb	0.0550134
201	0xbc62249c	-0.013802674
202	0x3db667c6	0.08906512
203	0xbd5bb630	-0.053640544
204	0x3d82b476	0.063820764
205	0xbdcf1c94	-0.10112873
206	0xbd93a9c7	-0.07210117
207	0x3d9e54f4	0.07731047
208	0xbd748261	-0.05969465
209	0xbd0c21dc	-0.03421198
210	0x3dcb85b7	0.099376135
211	0x3d02cade	0.03193175
212	0xbc858712	-0.016299758
213	0x3c92ce2d	0.017920578
214	0x3da9358d	0.08262167
215	0x3df2ce54	0.1185576
216	0x39cca6fb	0.00039034322
217	0xbd5dc528	-0.0541431
218	0x3d8e005c	0.06933662
219	0x3da882e0	0.082280874
220	0x3c840626	0.016116213
221	0x3d1f585b	0.03890262
222	0x3d78634f	0.060641583
223	0x3d6ac76c	0.05731909
224	0x3de0cc5a	0.10976477
225	0xbc268c49	-0.0101652825
226	0xba9b8b4f	-0.0011867079
227	0xbcc74641	-0.024325492
228	0xbd13cda4	-0.036084786
229	0x3da34eb9	0.079739995
230	0xbd28aaa1	-0.04117835
231	0x3d8341c2	0.06409027
232	0xbcd99d2e	-0.026564207
233	0x3deed669	0.11661989
234	0x3df1ff4e	0.11816274
235	0x3d3af165	0.045640368
236	0xbbad0b6a	-0.0052809017
237	0xbda54861	-0.08070446
238	0x3db13480	0.08652592
239	0x3e0bfb6f	0.13670133
240	0x3d161ca2	0.0366484
241	0xbdaae423	-0.08344295
242	0x3b2ebe79	0.0026663824
243	0x3df650ca	0.12027128
244	0x3c0ccf34	0.008594323
245	0xbb3a7f4f	-0.002845723
246	0x3d95422a	0.072880104
247	0xbd4ab128	-0.049485356
248	0x3d991a25	0.0747569
249	0xbd85cd75	-0.065333284
250	0xbd1fe787	-0.03903916
251	0x3ad55e1a	0.0016278655
252	0x3e08ecd3	0.13371591
253	0x3dbdec11	0.09273542
254	0x3ca41ac9	0.020032303
255	0xbc294317	-0.010330937

layer2.weight f4 [128, 256]
0	0xbcc343ed	-0.0238361
1	0x3d34344a	0.04399518
2	0x3c2563f2	0.01009463
3	0xbbfbe44e	-0.007687128
4	0xbbcdea53	-0.006284037
5	0xbd14f83e	-0.036369555
6	0xbcd5effe	-0.026115414
7	0x3da1dd69	0.07903559
8	0xbb927fa2	-0.0044707814
9	0x3cd87a8e	0.026425626
10	0x3d924df3	0.07143774
11	0x3dc44634	0.09583703
12	0xbcc6c20b	-0.024262449
13	0xbd2597b3	-0.040427875
14	0xbcfd8427	-0.030946804
15	0x3d5ce3d8	0.053928226
16	0x3d91345c	0.07090065
17	0x3d2d892b	0.04236714
18	0xbc9e5628	-0.019328192
19	0x39bb07b1	0.0003567315
20	0x3ccd9ff2	0.025100682
21	0x3d52a95e	0.051431052
22	0xbce7e45e	-0.028307136
23	0xbcbd3783	-0.02309776
24	0xbd16d946	-0.0368283
25	0xbd8457ee	-0.06462084
26	0xbd4b4d68	-0.049634367
27	0x3d16efaf	0.036849674
28	0xbc87d790	-0.01658228
29	0x3d925218	0.071445644
30	0x3d422969	0.047402773
31	0x3cbaa3c1	0.022783162
32	0xbb871d32	-0.0041233534
33	0x3cc65d62	0.02421445
34	0xbc99c538	-0.018770799
35	0x3d612f6a	0.05497686
36	0xbd05fdaf	-0.032712635
37	0xbd48c4f9	-0.049015973
38	0xbb8da3f0	-0.0043225214
39	0x3d857f78	0.06518453
40	0x3c2f788d	0.010709894
41	0x3d3dfd23	0.046383988
42	0xbcecb58e	-0.028895166
43	0x3d20a6ec	0.03922169
44	0xbb38517f	-0.0028124747
45	0x3ce509ee	0.027958836
46	0x3d067d66	0.032834433
47	0x3baa871e	0.0052040955
48	0xbc9cee50	-0.019156605
49	0xbb08c9ad	-0.0020872161
50	0x3c8a3ff2	0.016876195
51	0x3d320f10	0.043471396
52	0xbc970194	-0.01843337
53	0xbd3db40a	-0.046314277
54	0x3d4d41ca	0.05011157
55	0x3d65a388	0.05606416
56	0x3d9ea037	0.07745402
57	0x3be00653	0.0068366914
58	0x3d7328f0	0.059365213
59	0xbcf4246e	-0.029802527
60	0x3d322123	0.043488633
61	0xbb325df6	-0.002721665
62	0xbc2496be	-0.010045705
63	0x3d138a5a	0.036020614
64	0x3d9210d0	0.07132113
65	0x3d5ae72c	0.05344312
66	0xbce1e321	-0.027574124
67	0xbd69d945	-0.05709197
68	0xbc6f91d8	-0.014622174
69	0x3cf0c886	0.029392492
70	0xbb8fd72b	-0.0043896637
71	0x3d8886a2	0.06666304
72	0xbd4794a2	-0.04872573
73	0x3d6ca734	0.057776645
74	0x3d3a6975	0.045510728
75	0x3cb47f08	0.02203323
76	0x3b252187	0.0025196986
77	0x3b8efe05	0.0043637776
78	0xbd0cc7f0	-0.034370363
79	0xbc7f1098	-0.015567921
80	0xbbf83830	-0.0075750574
81	0x3d0cd803	0.034385692
82	0xbd1ea6ee	-0.038733415
83	0x3d4d6fac	0.050155327
84	0x3d4faeb6	0.050703727
85	0xbda86531	-0.08222426
86	0x3d798bb9	0.060924266
87	0xbcbf854f	-0.023378996
88	0x3d69ba78	0.057062596
89	0x3d2715db	0.040792327
90	0xbcc2d601	-0.023783686
91	0x3db9c1a2	0.09070136
92	0x3d0a18fa	0.033715226
93	0x3d6d3e71	0.057920877
94	0xbd59a837	-0.053138938
95	0x3ce83506	0.028345596
96	0x39a4ab80	0.00031408295
97	0x3da74eb3	0.081693076
98	0xbc8fcf51	-0.01755491
99	0xbda82e59	-0.08211965
100	0xbd91d1d6	-0.07120101
101	0x3d1f4e2c	0.03889291
102	0x3d900da7	0.07033854
103	0xbd862133	-0.06549301
104	0x3bf81120	0.007570401
105	0x3c902540	0.017595887
106	0x3d1dd1b7	0.038530078
107	0x3d72ada9	0.059247646
108	0x3ceaaf30	0.028647989
109	0x3cd7eed3	0.026358997
110	0xbcc17e45	-0.02361978
111	0x3d91ebdc	0.07125065
112	0x3d06f265	0.03294601
113	0xbcea2953	-0.028584158
114	0xbd737010	-0.059433043
115	0xbd6c3f77	-0.057677712
116	0x3d7d28f7	0.061806645
117	0x3d69a849	0.057045255
118	0x3d9a9949	0.07548768
119	0xbcf0fd12	-0.029417548
120	0xbcf5cf5e	-0.030006107
121	0xbd1d992f	-0.038476165
122	0xbbb9545c	-0.0056558084
123	0x3c0acd53	0.008471805
124	0x3b75d062	0.003750824
125	0x3d63bdce	0.055600934
126	0x3b51fdbc	0.0032042107
127	0x3d94b023	0.07260158
128	0xbc5bdc97	-0.013419292
129	0xbd0b11fd	-0.0339527
130	0x3ce46a1c	0.027882628
131	0xbcf56232	-0.02995405
132	0x3d81ff90	0.06347573
133	0x3d048186	0.032350086
134	0x3da7cb65	0.08193091
135	0xbcaddc35	-0.021223167
136	0xbd3fb1c1	-0.04680038
137	0x3cb69d4a	0.022291798
138	0xbc9a4291	-0.01883057
139	0x3da70f0e	0.08157168
140	0x3d69323b	0.05693267
141	0x3c819243	0.015816813
142	0x3c0f8e4e	0.008761955
143	0xbcf23f28	-0.02957113
144	0xbc342323	-0.010994705
145	0xbd72f1e3	-0.059312712
146	0xbd210364	-0.039309874
147	0x3d240fca	0.04005412
148	0x3d89688b	0.06709393
149	0x3d088f85	0.033339996
150	0xbd715c96	-0.058926187
151	0xbd7be21a	-0.061494924
152	0xbd8f9e13	-0.07012572
153	0xbc36a0e6	-0.01114676
154	0x3b91b064	0.004446076
155	0x3d0b81ad	0.034059215
156	0x3cc7b7ac	0.024379574
157	0x3d0f6f97	0.03501853
158	0x3c48af49	0.0122488225
159	0xbcd6999d	-0.026196295
160	0xbc8433cc	-0.01613798
161	0x3baa970e	0.0052059954
162	0xbd084d95	-0.033277113
163	0x3db50453	0.088387154
164	0x3c5aa6f3	0.013345468
165	0x3ccc56e6	0.02494378
166	0x3ccd7223	0.025078839
167	0x3c7487d6	0.014924964
168	0x3a2744f7	0.0006380821
169	0x3c3d0ad6	0.011538228
170	0x3c6865bb	0.014184411
171	0x3d455dac	0.048185036
172	0xbc6786ff	-0.014131307
173	0xbc88268a	-0.01661994
174	0x3d36dfe3	0.04464711
175	0x3d89eba2	0.067343965
176	0x3d880820	0.06642175
177	0x3cf87fb2	0.030334327
178	0x3d3cfdfb	0.046140652
179	0xbc574be1	-0.01314065
180	0xbd171833	-0.036888313
181	0xbb3a2a72	-0.0028406647
182	0x3d0f4fe5	0.034988303
183	0xbbf88948	-0.0075847246
184	0x3d9a0bd8	0.0752179
185	0x3c546afd	0.012964961
186	0xbd1a2b94	-0.037639216
187	0xbd7d5237	-0.061845984
188	0x3d2d8a64	0.042368308
189	0x3d31bc45	0.04339244
190	0x3d767d66	0.060178183
191	0xbd270ad6	-0.04078182
192	0xbcb6d642	-0.022318963
193	0x3d0a359c	0.033742532
194	0xbacec3be	-0.0015774888
195	0xbd46ce00	-0.0485363
196	0x3c6317c5	0.013860648
197	0xbd4b43da	-0.049625255
198	0x3d154431	0.036441986
199	0xbda10fc7	-0.078643374
200	0xbcef840a	-0.029237766
201	0xbd734bdb	-0.059398513
202	0x3cd20f68	0.025642112
203	0x3dba33a4	0.09091881
204	0x3d4a839d	0.049441922
205	0xbd386836	-0.04502126
206	0xbc5f3b03	-0.013624909
207	0x3ce9fbd1	0.028562458
208	0x3bf0d4ef	0.0073496024
209	0x3c9f9a9b	0.019482901
210	0x3be8ec0a	0.007108216
211	0x3c8b4744	0.017001756
212	0x3d3c9545	0.046040792
213	0xbd0985da	-0.033574916
214	0xba6125a0	-0.00085886754
215	0xbcfde14a	-0.030991215
216	0x3a73f00e	0.00093054853
217	0xbd512220	-0.051057935
218	0x3d05fbda	0.032710887
219	0x3c3d7f5f	0.011566012
220	0xbcf25c39	-0.02958499
221	0x3d3da481	0.04629946
222	0xbd8114c2	-0.06302787
223	0x3c19cb9b	0.009386922
224	0x3d0dfc67	0.034664538
225	0x3ca29396	0.019845765
226	0x3d979f9b	0.07403489
227	0xbc4f0559	-0.012635552
228	0x3d4f260b	0.05057339
229	0xba6cd308	-0.00090341317
230	0x3d409d23	0.047024857
231	0x3c44ae4c	0.012004446
232	0x3c2a3a53	0.010389882
233	0x3ceeedb3	0.029166078
234	0xbd8dbc9f	-0.06920742
235	0xbd4d8073	-0.050171327
236	0xbda96ccd	-0.08272705
237	0xbc7ad370	-0.0153092
238	0x3cf56878	0.029957041
239	0x3daa09b5	0.08302633
240	0x3d112f97	0.035445776
241	0x3c0c00ff	0.008545159
242	0x3ba2f46f	0.0049729864
243	0x3cdfd37e	0.027322527
244	0x3cbf340c	0.023340248
245	0x3db8ed8f	0.09029686
246	0x3d65d3c9	0.056110177
247	0x3cbed588	0.023295179
248	0xbd3ffc54	-0.0468715
249	0x3c71cd62	0.01475844
250	0xbcb54e5a	-0.022132087
251	0xbccb53a7	-0.024820162
252	0x3d6f55a5	0.058431286
253	0x3d8a06b6	0.06739561
254	0xbd4e0b02	-0.050303467
255	0xbd913f00	-0.070920944

layer2.bias f4 [128]
0	0x3c4161ba	0.011803085
1	0xbc45b895	-0.012067934
2	0x3d6ab8be	0.05730509
3	0xbd637bb7	-0.055537906
4	0xbab3f457	-0.0013729435
5	0x3c2d7823	0.010587725
6	0xbcd5ff21	-0.026122632
7	0xbce2ce9f	-0.027686415
8	0xbcf31ee5	-0.029677818
9	0xbca5cd99	-0.020239638
10	0xbd2b2163	-0.041779887
11	0x3d0b7741	0.034049276
12	0xbd2fc449	-0.0429118
13	0xbbbe1afc	-0.0058015566
14	0x3d5ed476	0.054401837
15	0x3d060f26	0.03272929
16	0xbd72308f	-0.05912834
17	0xbcab7a68	-0.020932391
18	0x3d46037d	0.04834317
19	0x3d89792c	0.06712565
20	0x3c475e01	0.012168408
21	0xbac6f917	-0.0015180436
22	0x3cf797a6	0.030223679
23	0x3d040abf	0.03223681
24	0xbc9a37ac	-0.018825375
25	0x3a498c5f	0.00076884584
26	0xbc1e5fab	-0.009666364
27	0x3d109a91	0.035303656
28	0x3d32478f	0.043525275
29	0xbc3a2a48	-0.01136262
30	0xbcf70b34	-0.03015671
31	0x3d084504	0.033268943
32	0xbc03324d	-0.008007598
33	0x3d4a0224	0.049318448
34	0xba9efffe	-0.0012130735
35	0x3d903c5b	0.07042762
36	0x3d0f7537	0.035023894
37	0xbbd25210	-0.006418474
38	0x3d8b8321	0.0681212
39	0xbcaeac95	-0.021322528
40	0x3d2ea254	0.042635277
41	0xbba86b60	-0.005139753
42	0x396dfb16	0.00022695618
43	0x3d296160	0.04135263
44	0xbd2aac33	-0.04166813
45	0x3b6feb22	0.0036608656
46	0xbd0f2e19	-0.03495607
47	0x3d1fbabb	0.03899644
48	0x3c7356f7	0.014852277
49	0xbcad0d63	-0.021124547
50	0xbcc55f00	-0.024093151
51	0x3d80b61c	0.062847346
52	0xb898fe29	-7.295266e-05
53	0xbbfb0bed	-0.007661334
54	0x3cf76140	0.03019774
55	0x3cbe9a5d	0.023266966
56	0x3d57fff6	0.052734338
57	0x3c531a75	0.012884726
58	0xbd3007e8	-0.04297629
59	0xbd1e7c98	-0.03869304
60	0x3d72b6c0	0.059256315
61	0x3d310b6d	0.043223787
62	0x3cbc65c7	0.02299775
63	0x3da64e0f	0.08120357
64	0x3b9bd8dd	0.0047560767
65	0x3da16da7	0.07882243
66	0x3d30b4e9	0.04314128
67	0xbd10a7fb	-0.03531645
68	0xbbf0f59f	-0.007353499
69	0x3d59bbdb	0.05315767
70	0xbd1c4fea	-0.03816215
71	0xbd2ae437	-0.04172155
72	0x3d6bdddd	0.057584632
73	0x3cf518a4	0.029918976
74	0xbd14af70	-0.036300123
75	0x3c1eeef3	0.009700525
76	0xbd701926	-0.058617733
77	0x3ca27219	0.019829797
78	0x3c445030	0.011982009
79	0x3d88bea3	0.06676986
80	0xbcd5bb1d	-0.0260902
81	0xbc64a17f	-0.013954519
82	0x3c9de6c0	0.01927507
83	0xbc1b26a3	-0.009469661
84	0x3ccc5b9d	0.024946028
85	0x3d690cdb	0.056897026
86	0x3c986a65	0.01860542
87	0xbc5d52c2	-0.0135085005
88	0x3d1b07d3	0.03784926
89	0xbcade800	-0.02122879
90	0x3bef411f	0.007301464
91	0x3d4d792c	0.050164387
92	0xbc85578f	-0.016277103
93	0xbbb9270b	-0.0056504062
94	0x3cdebbb5	0.027189115
95	0xbce8f4e8	-0.028437093
96	0x3d667c8a	0.056271113
97	0x3d9408e1	0.07228256
98	0x3d912fa7	0.07089167
99	0xbd4fa693	-0.050695967
100	0x3c15a0d7	0.0091325855
101	0x3c00a56d	0.007851941
102	0x3d1e5403	0.03865434
103	0x3d5f5615	0.054525454
104	0x3d2c16f2	0.04201407
105	0x3d608fc7	0.054824617
106	0x3d0a1360	0.033709884
107	0xbd403ecf	-0.0469349
108	0xbc9a4f54	-0.018836655
109	0xbd3d6032	-0.046234317
110	0x3ad16151	0.0015974437
111	0x3d03d976	0.03218981
112	0x3c5c2d0d	0.013438475
113	0x3ce2a11e	0.027664717
114	0x3d1138b3	0.035454463
115	0x3892db22	7.002639e-05
116	0x3d8c5e87	0.06853967
117	0x3cbaf936	0.022823911
118	0x3c14dd93	0.009086031
119	0x3d4863c5	0.048923273
120	0x3c280a85	0.010256414
121	0xbcfc2f30	-0.03078422
122	0x3ce26755	0.027637163
123	0x3cef31f7	0.02919863
124	0xbcaa2fd8	-0.020774767
125	0x3c6a024d	0.014282775
126	0xbafb0791	-0.0019152035
127	0x3d23526b	0.03987352

layer3.weight f4 [30, 128]
0	0xbcc97246	-0.024590623
1	0xbd7b96d3	-0.061423134
2	0x3ca8b39f	0.020593463
3	0xbcf55b33	-0.029950714
4	0x3d96d0a7	0.07364016
5	0xbd5bc910	-0.053658545
6	0xbba90413	-0.0051579564
7	0xbcb20faf	-0.021735994
8	0xbda190d6	-0.078889534
9	0xbb64af6d	-0.00348946
10	0xbb0ad18a	-0.0021182024
11	0x3d5dd3d8	0.054157108
12	0xbdbdd6d2	-0.09269489
13	0xbd8cad3f	-0.068689816
14	0x3dcd942a	0.10038026
15	0xb9d55a2c	-0.0004069371
16	0x3d948645	0.072521724
17	0x3aafcb80	0.0013412088
18	0xbcd4d065	-0.025978277
19	0x3d847f05	0.064695396
20	0xbd6ccd53	-0.057813
21	0xbc96d635	-0.018412689
22	0xbd15ea78	-0.03660056
23	0xbd643103	-0.055710804
24	0x3d3432fc	0.043993935
25	0x3d7fc0a7	0.062439587
26	0xbd647fbd	-0.055785883
27	0x3d065172	0.032792516
28	0xbc628d76	-0.013827672
29	0xbd65c201	-0.05609322
30	0x3d420526	0.04736819
31	0xbd043cf5	-0.032284696
32	0x3d9d17ac	0.07670531
33	0x3d70d0f3	0.05879302
34	0x3dc7ae69	0.09750063
35	0x3c1d20ef	0.0095903715
36	0xbd4d45a0	-0.050115228
37	0xbb8ccd45	-0.004296931
38	0x3d33097a	0.04371021
39	0x3ca56500	0.020189762
40	0xbd37f124	-0.044907704
41	0xbd823606	-0.063579604
42	0x3cacbc93	0.021086013
43	0xbc6cdfce	-0.014457656
44	0xbd94ff75	-0.07275287
45	0xbc88b014	-0.016685523
46	0xbcc28332	-0.0237442
47	0x3dc679fc	0.096912354
48	0x3dab9ea6	0.08379869
49	0xbd5f9d93	-0.054593634
50	0x3dcd2c0c	0.10018167
51	0xbc4e7ccc	-0.012602996
52	0xbd55c73c	-0.052191958
53	0xbd970aad	-0.07375083
54	0xbd962602	-0.07331468
55	0x3d6d7822	0.057975896
56	0xbd588b81	-0.052867416
57	0x3dc2a1f9	0.0950355
58	0x3d76b796	0.060233675
59	0xbd8af03f	-0.067841046
60	0x3c2d983a	0.010595376
61	0x3d9846f9	0.07435412
62	0x3cbfe3be	0.023424026
63	0x3bf36df2	0.007428878
64	0x3d559a85	0.052149314
65	0x3d921152	0.0713221
66	0x3dcb89f4	0.09938422
67	0x3cff039f	0.031129656
68	0xbc8506b8	-0.016238555
69	0xbd067d48	-0.03283432
70	0x3c61b559	0.013776147
71	0xbd9ca7ed	-0.07649217
72	0xbd27972e	-0.04091566
73	0xbd47488c	-0.04865317
74	0xbd361d9e	-0.04446184
75	0xbdc4adcd	-0.09603462
76	0xbccac6b8	-0.02475296
77	0x3d7fcb91	0.062449995
78	0x3ce3d637	0.027812107
79	0xbd3c035e	-0.04590165
80	0xbcbb9f25	-0.022903034
81	0xbdbf7e42	-0.09350254
82	0xbd21bdfb	-0.03948782
83	0xbda26261	-0.079289205
84	0x3d03d685	0.032187004
85	0x3dbf8d20	0.09353089
86	0x3d3f8210	0.046754897
87	0xbd4067d9	-0.046974037
88	0x3d299e81	0.041410927
89	0xbcb6a0b6	-0.02229343
90	0xbca81495	-0.020517627
91	0x3c35d815	0.011098881
92	0x3d092b2e	0.033488445
93	0x3d9f1b94	0.07768932
94	0xbd15678f	-0.036475714
95	0x3cac69b1	0.021046491
96	0xbcfdb21e	-0.030968722
97	0x3dc2602e	0.09491001
98	0xbd548038	-0.05188009
99	0xbd1e99cd	-0.038720895
100	0xbd641ed6	-0.05569347
101	0xbcbec524	-0.023287363
102	0x3cbf3ee2	0.023345415
103	0xbcbbdc1f	-0.02293211
104	0xbdb2a274	-0.08722392
105	0xbd9b0b8c	-0.07570562
106	0x3d97a930	0.07405317
107	0xbd9bcf3c	-0.07607886
108	0x3c33ab4b	0.010966132
109	0xbd9110aa	-0.070832565
110	0xbb8649c9	-0.0040981513
111	0xbd206fca	-0.03916911
112	0x3d67b137	0.05656549
113	0x3d99a89e	0.07502864
114	0x3c60e4c9	0.013726422
115	0x3b035ce6	0.0020044385
116	0xbcc832b7	-0.024438245
117	0xbdc84732	-0.097792044
118	0x3dbee402	0.09320833
119	0xbca59d7c	-0.020216696
120	0xbcfb8252	-0.03070179
121	0xbd47016e	-0.048585348
122	0x3c5b21ac	0.013374727
123	0xbd9c667b	-0.07636734
124	0x3d6ccd5a	0.057813026
125	0xbcc93777	-0.02456258
126	0xbcc4be70	-0.024016589
127	0xbc805327	-0.01566465
128	0x3d090d7a	0.033460118
129	0x3d884551	0.06653846
130	0x3da271d9	0.07931871
131	0xbd007d31	-0.03136939
132	0xbcbfb57a	-0.023401964
133	0xbc3ef388	-0.011654742
134	0x3cf8be26	0.030364107
135	0x3a4cf722	0.0007818808
136	0xbd4d433a	-0.05011294
137	0x3d7e779d	0.06212579
138	0x3bb27455	0.0054459968
139	0x3d0c11c2	0.034196623
140	0xbade34b2	-0.001695296
141	0x3b9f5e6b	0.0048635504
142	0x3da28260	0.07935023
143	0x3bc07cd9	0.005874258
144	0xbd8fa187	-0.07013231
145	0x3d9969ef	0.07490908
146	0x3cdb28bc	0.026752822
147	0xbcfa2359	-0.030534433
148	0xbd47a605	-0.048742313
149	0x3d3fbe23	0.046812188
150	0x3dbcadad	0.092128135
151	0xbd99a1c1	-0.07501555
152	0xbd4d7346	-0.05015876
153	0x3bcb8b5d	0.0062116818
154	0xbd4ef0a1	-0.05052245
155	0x3d94b8f0	0.072618365
156	0x3c454865	0.012041186
157	0x3bace168	0.005275894
158	0x3c604db8	0.013690405
159	0x3d639bf8	0.055568665
160	0xbca75f5f	-0.020431219
161	0xbc980b3e	-0.018560048
162	0x3d55b916	0.052178465
163	0xbda36f90	-0.07980263
164	0xbd8026e7	-0.0625742
165	0xbd8c7ba6	-0.068595216
166	0xbc69cf58	-0.014270626
167	0x3d7d4764	0.06183566
168	0xbd367ad3	-0.044550728
169	0xbca3198f	-0.019909648
170	0x3cd009ea	0.025395352
171	0x3a9403dd	0.0011292655
172	0xbd8427f0	-0.0645293
173	0x3d89f775	0.06736652
174	0x3c4544bf	0.012040316
175	0x3d943825	0.07237271
176	0x3d37b633	0.044851493
177	0xbd379255	-0.044817287
178	0xbc77de0f	-0.0151286265
179	0x3d397c6d	0.045284677
180	0x3d62453e	0.055241816
181	0x3d6c9fb8	0.057769507
182	0xbd5c7e55	-0.053831417
183	0x3abc7dd6	0.0014380764
184	0xbb1a5e79	-0.0023554845
185	0x3d796ba8	0.060893685
186	0xbb75e501	-0.003752053
187	0x3adbd711	0.0016772469
188	0xbd9bbe56	-0.07604663
189	0xbbfabb04	-0.0076516885
190	0xbd9071a6	-0.07052927
191	0x3d2dba83	0.0424142
192	0x3c2ae6f6	0.010431042
193	0xbd924513	-0.07142081
194	0xbd2a9aa9	-0.0416514
195	0x3cfae680	0.03062749
196	0x3d832486	0.06403451
197	0x3d65625e	0.056002013
198	0x3da1e2c8	0.07904583
199	0xbd53b077	-0.051681962
200	0x3d0b26b7	0.03397247
201	0x3d484f50	0.048903763
202	0x3da88983	0.08229353
203	0x3d20717d	0.03917073
204	0x3d9f68f5	0.07783691
205	0xbc99bcc5	-0.01876677
206	0x3c90328b	0.017602226
207	0x3b674af4	0.0035292478
208	0xbd35e449	-0.044407163
209	0x3cb1b457	0.021692438
210	0xbd165e7c	-0.0367112
211	0xbd01b2b5	-0.03166457
212	0x3d5c34de	0.053761356
213	0xbd166b63	-0.036723506
214	0xbcfc6c05	-0.030813226
215	0x3cc536c3	0.024073964
216	0xbb98a925	-0.0046588355
217	0x3cb37099	0.021904277
218	0x3c9f874b	0.019473692
219	0xbda7d3ef	-0.0819472
220	0x3d5aedd6	0.053449474
221	0x3ab0bb02	0.0013483467
222	0x3dbb6fe6	0.09152202
223	0xbd5f99ad	-0.054589916
224	0x3da317a8	0.079634964
225	0xbd229875	-0.039696176
226	0x3cdc4578	0.026888594
227	0xbbe81a24	-0.0070831943
228	0x3cdebba0	0.027189076
229	0xbd5e013f	-0.054200407
230	0xbc8ca6ef	-0.017169444
231	0x3ceff869	0.029293256
232	0x3d278df2	0.040906854
233	0xbd464e81	-0.04841471
234	0xbd8e2f44	-0.06942609
235	0xbd0321a3	-0.0320145
236	0x3c13d561	0.009023041
237	0xbb593da0	-0.0033148304
238	0xbd5c1cfc	-0.05373858
239	0x3cf1b04b	0.029503008
240	0xbd299e52	-0.04141075
241	0xbd9ff2f5	-0.07810012
242	0xbcd8e4de	-0.02647632
243	0xbdc528fd	-0.096269585
244	0xbd1ab4de	-0.037770145
245	0x3d2df66c	0.042471334
246	0x3d033635	0.032034118
247	0xbd154b90	-0.036449015
248	0xbd9a27a2	-0.075270906
249	0x3b816c14	0.0039496515
250	0x3d12f645	0.035879392
251	0x3c8f4195	0.017487327
252	0xbdb00d5b	-0.08596297
253	0x3c8c583a	0.017131913
254	0xbd714ea8	-0.058912903
255	0xbd64359a	-0.05571518

layer3.bias f4 [30]
0	0xbbf0972f	-0.0073422412
1	0x3cb2e0bf	0.021835683
2	0xbd542d27	-0.051800873
3	0xbbdd6a91	-0.0067570885
4	0xbc94c4b1	-0.018160196
5	0xbda43f07	-0.08019834
6	0x3c4ad49d	0.0123797925
7	0x3d9e635b	0.07733794
8	0xbd8d3267	-0.06894379
9	0x3c92b722	0.01790959
10	0xbcf8023b	-0.030274501
11	0x3d2494e6	0.040181063
12	0xbcdcccf1	-0.026953192
13	0x3d4f7965	0.05065288
14	0x3da00d71	0.07815064
15	0x3d1eda12	0.038782187
16	0x3dbcc9ec	0.09218201
17	0xbbd508a1	-0.006501273
18	0x3dba956f	0.091105334
19	0x3d368f57	0.044570293
20	0xbd1ea5df	-0.038732406
21	0x3c4d374f	0.012525394
22	0x3d8591c1	0.06521941
23	0x3cbffd47	0.023436202
24	0xbd891124	-0.066927224
25	0xbda990e1	-0.082795866
26	0xbd3cc32b	-0.046084564
27	0xbd4cf4ae	-0.050038032
28	0x3d89ce1b	0.067287646
29	0x3d95e59b	0.073191844
