project/output/dqn_pokemon_target.pth (torch, 243062 bytes, 6 tensors)

layer1.weight f4 [256, 90]
00000000: 88f5 5c3d 34c5 0cbd 7e21 be3d 773c aebd
00000010: ee2b 183d 082f f73c 820f 88bd 1973 403d
00000020: e434 b43d 1874 f4bc 14a8 803d 6917 8abd
00000030: 0ac6 213d 4a4b a13d 827b d73d acf9 1a3d
00000040: 5f0b 62bd d5fe 13bd 30b7 63bd fbb0 93bd
00000050: 9025 b5bc 10b5 dfbc c08b 48bb 5c59 a03d
00000060: ad7f 9bbd 4405 3ebd be08 8bbd 32f2 b1bd
00000070: f3d5 8b3d 0ef2 4d3d e401 8cbd 21e2 bf3d
00000080: 552b 603d abfa 07bc b68d 963d c2c8 70bd
00000090: 1090 dabc b4fc d2bc 903e 793d 3036 0bbc
000000a0: 4a12 273d c7d4 a8bd a99b ae3d 1286 913d
000000b0: 05be b73d 44ce 59bd 9d76 583d 5697 223d
000000c0: 824d 883d 9415 773d 6c02 31bd 2c64 783d
000000d0: e341 cc3d f84b 793d 7c2f 51bb 85bc a73d
000000e0: 845c 463d fa85 513d 2c79 823d 85be a93d
000000f0: 246a 253c 01df b23d 88b2 3ebd c8fe df3c
00000100: 743f 973d 61df 733d 1747 d53c 17e5 c0bb
00000110: d03f 0b3d 5474 803d 86e2 0cbd e72f 083d
00000120: 1689 ce3d 6718 41ba 3688 d03c 9116 0d3d
00000130: 093f cb3d 2122 8abc 5054 073d 609b 1fbb
00000140: baee a23d c052 39bc e188 d33d e0d8 ce3d
00000150: 26ce 1fbc 3690 abbd 52da b93d c7a8 83bd
00000160: 0e67 a63c b565 c83d ea3a 933d 049c 99bc
00000170: 3e63 07bd 85d8 62ba 3f77 b0bd a48e 78bd
00000180: 9efe 103d 43fc 93bd dc60 f83c d3f7 c63d
00000190: b6a7 86bd 20f1 8dbd dff0 29bd ce3c ccba
000001a0: 4aa1 74bd 934c 6abd 0bcb 81bd d4bd b2bd
000001b0: a8c6 b23d d270 bbbd 9c88 573d f589 b0bd
000001c0: 1566 64bd 6ed1 66bd b693 cb3d 358c c63d
000001d0: ff4b c13d 2b86 10bd ce45 143d 79e5 6c3c
000001e0: 0ac1 bdbb 36e9 c5bd 2159 acbc 056c 2b3d
000001f0: 9f0d 633d 0a19 89bd b756 8dba 17a1 89bd
00000200: 1157 f13c 09da 9fbd ae91 8ebd 8f75 84bd
00000210: aa51 5cbd 68c9 b1bd 0b15 89bd 8368 b53d
00000220: e301 c23d 1f21 bcbd 7bbb cfbd bb45 b43c
00000230: a26e 82bd 6fcd a5bd 2ef8 603d 8332 6dbc
00000240: 0adb 4c3d 9d1c d73d 3bf2 a23b 9605 113d
00000250: 6eb8 933d 681f bc3d d9c9 843d 05ad 8c3d
00000260: b1d1 fa3c 3693 cd3d eacd 5f3d 03f7 2d3c
00000270: ab0a 973b db12 703c 0ef2 213c 0bbd 84bd
00000280: 8f57 173d 883d b13c 80b0 cebb b803 04bd
00000290: 1994 89bc 267f 443b 3160 2a3d 6058 a1bd
000002a0: 5a89 6d3a 8cc0 b73c 96ee 2cbd 5584 49bd
000002b0: ddd7 12bd 96b5 82bd 45e7 ce3d f49b 913d
000002c0: 9c42 a63d d96e 853d 3b96 543d f36e d6bd
000002d0: 5afa 393c 3a52 6a3d f551 203d 1601 27bd
000002e0: 4f5b 153d 1008 b63d a4bd 9bbd ef83 19bc
000002f0: ac37 1bbd 4f70 4ebc 7dc8 a8bd bb74 0ebd
00000300: 4950 71bd 5a34 ab3d dec5 b1bd 0a50 c23d
00000310: 6d83 9c3d d771 b73d e86b a0bd 23e8 cf3d
00000320: a316 0c3d d137 723d 041a e03c 6ead aa3d
00000330: 1e54 c73c a9b9 d43d eac2 67bc b9b2 63bc
00000340: e01a 193c 88d3 b3bd 469f 363c a8f1 a9bd
00000350: c036 7bbd 6aaf 89bd 6fe7 d6bb 946e a3bd
00000360: c6ae abbd e0fd ccbd ae5f 24bb 1c78 ac3c
00000370: 6e5e 673d e5ad 34bd 5634 eabc 5203 803c
00000380: 5b0b fdbc edb7 4bbc 276e c43d dcda a7bd
00000390: bab0 983d 4d20 9abd 404e b5bd a95d 493d
000003a0: 6def d33c 190a a9bd 717d 133d cce3 913d
000003b0: 662c f0bc 5970 5bbd 74b7 9bbd e687 c03d
000003c0: ea66 c03d c8ae 5fbc d444 d13d 6792 75bd
000003d0: 06cd 8a3d 560d 073d 59f0 6dbd 53bd 6f3d
000003e0: 76e3 453d d7b1 683d 2c72 8f3d d6aa e63c
000003f0: d06e 9f3d cbdf c2bc d467 50bd ee13 07bd
0.053945094 -0.034367755 0.09283732 -0.085076265 0.03715127 0.030173793 -0.06643583 0.046984766
0.087991506 -0.029840514 0.06282058 -0.067427464 0.039495505 0.078756884 0.10521604 0.037835762
-0.055186626 -0.0361317 -0.055594623 -0.07211491 -0.022112638 -0.027308017 -0.0030600876 0.07829544
-0.075927116 -0.04639174 -0.06788777 -0.08688773 0.06827917 0.05027967 -0.06836298 0.093693025
0.054728825 -0.00829951 0.07351248 -0.058785208 -0.026680022 -0.025755264 0.06085068 -0.008496806
0.040788926 -0.08243709 0.085257836 0.0710565 0.0897179 -0.053175226 0.052847493 0.039695106
0.066554084 0.060323313 -0.0432152 0.060642406 0.099735044 0.060863465 -0.0031919172 0.08190254
0.048428074 0.05115316 0.06370768 0.08288292 0.010096107 0.08733941 -0.04655698 0.027343169
0.073851496 0.059539203 0.026034875 -0.0058866846 0.033996403 0.06272188 -0.034395717 0.03324881
0.10084741 -0.0007366002 0.025455575 0.03444535 0.099241324 -0.016861977 0.03303939 -0.0024354085
0.0795569 -0.011311233 0.10328842 0.100999594 -0.009753739 -0.083771154 0.090748444 -0.06428676
0.020312812 0.09785024 0.07188971 -0.018751152 -0.03305363 -0.000865348 -0.086164944 -0.060682908
0.035399072 -0.072258495 0.030319624 0.097152375 -0.06574957 -0.069307566 -0.04148948 -0.0015582086
-0.05972413 -0.057201933 -0.063375555 -0.08727613 0.08729297 -0.09152378 0.052620515 -0.08620063
-0.055761416 -0.05635207 0.09940283 0.09694711 0.09438323 -0.035284203 0.036199383 0.014459007
-0.0057908343 -0.09663622 -0.021038594 0.041851062 0.055432912 -0.06694229 -0.0010783289 -0.067201786
0.029460462 -0.07805259 -0.0696138 -0.06467735 -0.05378882 -0.08680993 -0.06693467 0.08857825
0.09473016 -0.09186005 -0.10143181 0.022005906 -0.06368758 -0.08095824 0.054924183 -0.014477375
0.05001358 0.105035044 0.004972724 0.035405718 0.072129115 0.09185678 0.06483812 0.06868938
0.030617567 0.10037844 0.054639734 0.010617974 0.004609426 0.014652933 0.0098843705 -0.064813696
0.036948737 0.021635786 -0.0063076615 -0.03223011 -0.016794251 0.0029983013 0.04159564 -0.07878184
0.00090612995 0.02243068 -0.04221972 -0.049198467 -0.035850395 -0.06382291 0.10102705 0.07109824
0.081181735 0.06515283 0.051901083 -0.10470381 0.011351192 0.057207324 0.03914066 -0.04077252
0.03646403 0.088882565 -0.076045305 -0.009369834 -0.03789489 -0.012600019 -0.08241365 -0.03477929
-0.058914457 0.08359595 -0.08680318 0.094879225 0.07642255 0.0895726 -0.078330815 0.101516984
0.034201276 0.059135262 0.027356155 0.0833386 0.024332102 0.10386974 -0.014145592 -0.013897591
0.009344786 -0.08780581 0.011146372 -0.082980454 -0.06133151 -0.06722911 -0.0065583508 -0.079800755
-0.08382945 -0.1000936 -0.0025081444 0.021053366 0.05648654 -0.04411115 -0.028589409 0.015626583
-0.030889204 -0.012433988 0.095913224 -0.08196041 0.07455583 -0.07525692 -0.08852816 0.049161587
0.025871003 -0.08253879 0.036008302 0.07123527 -0.029318046 -0.05357394 -0.0760335 0.094009206
0.09394629 -0.013652511 0.10218206 -0.059954073 0.06777386 0.032971703 -0.05809054 0.058530163
0.048312627 0.056810226 0.070041984 0.028157633 0.07784808 -0.023788353 -0.05088027 -0.03297799

layer1.bias f4 [256]
00000000: 7042 293c 9cea 743d c67d c5bd 344e 253c
00000010: c4fb d33c 7999 203d 2091 a9bd c70b ab3d
00000020: febb bc3c 8717 59bd 612a 08bc 73d8 273d
00000030: 5f62 ad3d 1c1f c23d ce57 a4bd a092 adbb
00000040: 31ee 783d 5ffe d5bc 481d 3ebd 4c02 d53b
00000050: dbc8 a6bd 2b5c 11bc 1c45 b83d 52f1 a63a
00000060: 8816 693d d3ec d3bd 4c77 a4bd d34a 973d
00000070: 58f5 01bd 999f 06bd 43b9 a7bd afd2 b0bc
00000080: 0bab a7bd 04f2 a73d 2411 c0bd a53d 153d
00000090: 7f90 8f3d a02c a9bd bcf3 45bd 2d64 b63d
000000a0: 8d43 6dbb 1faf 6a3c 58c5 5dbc 3512 8a3c
000000b0: 39b4 8bbd 12bf d13d 80fb f0bc 1eeb cb3c
000000c0: 1f51 ca3d 028c ca3c e5f3 0e3b fbbe d23d
000000d0: 15c1 873d 129e 923d 4dad cabd 6db4 c73d
000000e0: c804 093c cb75 92bd c425 bf3b e997 df3c
000000f0: f08b 3c3d ea53 c43d 8085 d23d e2e9 323d
00000100: 6007 633d 05fc a73d 8a84 c9bc 2505 a93d
00000110: a7c1 753d dd39 013d 6a30 d13d 158e 83bd
00000120: 5db1 acbd bd2f b23d ed58 1d3d 18a7 d7bd
00000130: 1928 7d3d 368c c83c 4b81 023c 005a b6bc
00000140: b013 bdbd 04c7 5dbd 47c5 f43c f7ab a7bd
00000150: e27f 8fbd dd89 d53d fcc0 d3bb c8d9 94bc
00000160: b2f9 71bd c317 c03d 3b34 033d f6ad af3d
00000170: 1dae 903d 99ea 93bd e081 c23a f771 9d3d
00000180: 797b a73d 6b70 ccbc 8ae3 16bd 120e ca3d
00000190: d172 43bd d83c 3d3c e7eb 983d 6539 843c
000001a0: f4f3 8c3d 1d51 6c3d 9fb6 933d ff52 9abd
000001b0: 34c4 41bd 2054 c1bd 91fb 00bc ee8a e13c
000001c0: 93a0 df3c 3364 d6ba 51b3 c1bd e044 bcbd
000001d0: 55f8 b8bd d76c a8bd 6251 a4bd 1285 903d
000001e0: ef3d adbd f276 563c dee3 3ebb ae7c 2f3d
000001f0: 9a99 32bd 1ec3 24bd 28d0 0bbd 90c8 0a3d
00000200: 9afe a23d 6da8 8bbd 0be4 9bbd 1caa aabd
00000210: 8cfd 95bd b44f b3bd afbf 5d3c 3f94 fc3c
00000220: 7aca 54bd d32b a53d a360 ccbd fe62 cebd
00000230: 287a 953d c089 873d bb3c b4bd 4a5f c0bd
00000240: 7462 0f3d 4239 673d 7ff9 cfbd 0c58 743d
00000250: 45cb 5ebd d834 b3bc 2dfd 46bc edbf aebd
00000260: ddba a8bc 1511 c3bc 9a9d f0bc c117 13bc
00000270: 6860 3abc 3228 c53c 81c5 3ebc 806e a3bb
00000280: 4794 aa3d 12e0 663d 37c5 cabd 8a09 943b
00000290: feae d5bd 44c7 323d 53f9 70bd 868f 1f3d
000002a0: 5800 2bbd 3da8 3a3d d4df 35ba 2318 5f3c
000002b0: 3a87 b0bd 566a 60b9 b722 993d c416 b9bc
000002c0: 2a54 543d 5698 c9bd a8b2 ff3c 2a84 aabc
000002d0: 316e c2bd ec9d ca3d 4685 8fbd 91e1 ad3c
000002e0: 63d2 83bd 462b 92bd 88dd a3bc 3a18 123d
000002f0: 25f6 be3d 3398 06bd 4ddb 613d 27b9 bc3d
00000300: c2af 963c 7090 0cbd 0cf9 4bbd 724e 873d
00000310: faea b4bd a596 af3d 12f2 c33d 0d23 e2bc
00000320: 6454 433d 6303 b1bc be43 713d 45b4 b9bd
00000330: 59ec 0e3d b3bc d3bd 5ed8 c5bd 23f7 773d
00000340: f31c 97bd 1e09 83bd 1cf5 9e3d 04db f33c
00000350: f7b8 83bc e5ac 36ba 2661 863d bb4f ba3d
00000360: 91fd 13bd 6621 98bd 5c68 383d 6c3c 763d
00000370: a8c0 1b3b 07fa f43c b6a7 713d 9b1e 033d
00000380: 16d0 a93d d8b0 1fbd 3c4c c4bc afdf babc
00000390: dde8 43bd 05ae 3a3d 6bda 5cbd f8f0 123d
000003a0: eecc 49bd f760 bf3d b9c8 c93d 94c8 1a3d
000003b0: c8fe 9dbc 3159 c4bd 6901 563d 1c4b cb3d
000003c0: a6c8 e03b 4616 d1bd ac9f 45bb c744 cd3d
000003d0: 3c38 61bb 60aa 02bd 7f57 2d3d 422c 9ebd
000003e0: f1e8 513d b321 6fbd 0abd 99bd ae11 943a
000003f0: fd25 d63d 1e0b 8a3d d3a2 a23b 3c1e 24bd
0.010330781 0.059794053 -0.0964313 0.010089446 0.025876887 0.039208863 -0.082796335 0.08351856
0.02303886 -0.053000953 -0.008310885 0.040977906 0.084660284 0.0947859 -0.0802456 -0.00529702
0.060774032 -0.02612227 -0.046414644 0.006500518 -0.08143779 -0.008872072 0.089975566 0.0012736714
0.056906253 -0.10347905 -0.080305666 0.073873185 -0.03172812 -0.032867048 -0.08189633 -0.021584837
-0.08186921 0.08200458 -0.09378269 0.036435742 0.07009982 -0.08260465 -0.048328146 0.08905826
-0.0036203593 0.014323979 -0.01353582 0.016854385 -0.06821484 0.10241522 -0.0294168 0.024892386
0.09878754 0.024724964 0.0021812853 0.10290333 0.06628624 0.07159056 -0.09896336 0.0975121
0.008362956 -0.071513735 0.0058333594 0.027294116 0.046031892 0.09586318 0.10279369 0.04368008
0.055426955 0.08202366 -0.024599332 0.08252934 0.059999134 0.031549323 0.102143124 -0.06423584
-0.08432267 0.087005116 0.038414884 -0.105299175 0.06180582 0.02448092 0.007965396 -0.022259712
-0.09232271 -0.054144874 0.029879225 -0.081870966 -0.070068136 0.10426686 -0.0064622145 -0.018170252
-0.05907602 0.09379532 0.032032233 0.08578102 0.070644595 -0.0722248 0.0014839731 0.07687753
0.081778474 -0.024955949 -0.036838092 0.09865965 -0.04771692 0.011550151 0.0746687 0.01614065
0.06882468 0.057694543 0.072125666 -0.075353615 -0.047306255 -0.09439874 -0.007872478 0.027532067
0.027298247 -0.0016356766 -0.0945803 -0.09192824 -0.090317406 -0.082238846 -0.08023335 0.07056631
-0.084590785 0.013089882 -0.0029127519 0.042843513 -0.043603517 -0.04022514 -0.03413406 0.033882678
0.07958718 -0.06819234 -0.07611855 -0.08333227 -0.07323751 -0.087554365 0.01353447 0.030832408
-0.05195091 0.080649994 -0.099793695 -0.10077475 0.0729869 0.066180706 -0.08800646 -0.09393175
0.035006 0.05645109 -0.101550095 0.05965428 -0.05439307 -0.021875784 -0.012145323 -0.08532701
-0.020596916 -0.023811856 -0.029372025 -0.008977831 -0.011375524 0.024067018 -0.011643768 -0.004987538
0.08329063 0.056366034 -0.09900897 0.0045177387 -0.10433768 0.043647066 -0.058831524 0.038955234
-0.041748375 0.0455706 -0.0006937955 0.0136165945 -0.086195424 -0.00021401918 0.074773245 -0.022593863
0.051838078 -0.09843509 0.03121312 -0.020814974 -0.094936736 0.098934025 -0.07007842 0.021225723
-0.064366125 -0.0713716 -0.020003095 0.035667636 0.09324292 -0.032859992 0.055140782 0.092150025
0.018394355 -0.034317434 -0.049798056 0.06606759 -0.08833881 0.08573655 0.095676556 -0.027604604
0.047687903 -0.02160806 0.058902495 -0.09067587 0.034893367 -0.10338726 -0.096604094 0.060538422
-0.073785685 -0.06398223 0.07761595 0.02976752 -0.016079409 -0.00069685123 0.06561498 0.09097239
-0.03613049 -0.07428245 0.0450214 0.060116217 0.0023765955 0.029904379 0.058997832 0.03201161
0.08291642 -0.03898701 -0.023962133 -0.022811739 -0.047829498 0.045576114 -0.053919237 0.035874337
-0.0492677 0.093446665 0.09852738 0.037788942 -0.019286528 -0.095873244 0.05224744 0.09926435
0.0068598567 -0.102093264 -0.0030154986 0.10022884 -0.0034365794 -0.031900764 0.04231977 -0.07723285
0.05124754 -0.058381747 -0.075067595 0.0011296773 0.104564644 0.06740402 0.004963258 -0.040067896

layer2.weight f4 [128, 256]
00000000: b3c1 0abd 86f4 a03c a630 76bb a066 c8bc
00000010: cd98 80bc 885a 64bd 858a 4dbc fe63 3b3d
00000020: f92c 053c a046 483c e940 5a3d f068 5e3d
00000030: 7e70 44bd e842 6bbd 44cc 873a db2b 033d
00000040: 0741 5f3d 7204 373d de89 d1bc 7da3 c03c
00000050: 9b8c 383b 1464 503d 4070 e3ba c4b8 52bd
00000060: d68d 4ebd 8be8 6ebd e45b a3bc e0fd 113d
00000070: 466d 4abc fce0 323d 2da6 0c3d 15c1 85ba
00000080: a7a9 55bc 24ee bb3b 4690 a13b 1d9e 0e3d
00000090: 1585 63bd a4b2 15bd 6289 aebc dfbd 613d
000000a0: b529 68bc 8a37 ae3c d7d4 51bd 6152 823c
000000b0: 46e5 ab3c f6be 053c 976c 0a3d dd42 de3c
000000c0: 1b84 c1bc 8e39 64bc 925e d83b 1ccd 823c
000000d0: de71 3dbd 1d4b 50bd af69 943c a59e e13c
000000e0: 85c2 713d 64d0 f5bb 83ec 473d c53c 40bd
000000f0: ca49 ef3b 977f a1bc 126d 22bd 16f9 cf3c
00000100: f7b8 2c3d 93b8 343d 3114 2cbd e726 57bd
00000110: 68d2 e6bc 3e6e af3c 518c 5cbc 523e 2c3d
00000120: 8786 60bd f2b0 0e3d 1f74 733c 14ca a43c
00000130: 3a4d 07bd b558 0ebc 8409 deba f235 83bc
00000140: 64f3 a13a 8b1a 5b3c 890f 7abc 013c 9a3c
00000150: 0001 f13c efc9 6fbd 68da e13c 219d 5aba
00000160: 1ad6 9f3c 3113 213c 6bb2 05bd 953c 7e3d
00000170: 066e 5a3c d5bf 003d f28d 52bd 89f5 303d
00000180: 45c9 64bc 8953 723d 22dd 5fbd 0d2a 77bd
00000190: b77e 5cbd 5b97 ba3c e45e 303d 8749 50bd
000001a0: 956a 1cbc 8a48 823c 08b8 b53c 6ded cc3c
000001b0: 0a47 533c 68f5 c73b 1449 6abd bac0 2f3d
000001c0: 49c5 0c3b 833e 5ebd 8d73 1abd f90f 32bd
000001d0: c574 0c3d deec 2e3d 89f2 663d 3ed2 53bd
000001e0: b3c0 f0bc 6d0a f0bc 14dc afbc 4ac5 1c3d
000001f0: 3f9c 80bc d31d 3f3d 59d1 9b3b f1ac 783d
00000200: 9fba 6ebc a442 7abd 0545 0bbc c64b 57bd
00000210: 307e 6e3d 6e1b 123d 657d 4e3d a6c1 33bd
00000220: a3ac 33bc d34a 1cbc 87be b8bc d1f6 383d
00000230: 48bd 813c 996f f3bb f2b0 4d3d c04b 4cbd
00000240: e872 1abb 242b 68bd eae4 8dbc 2942 583d
00000250: 36bf 5b3d dec8 a03c ff4f 4bbd 882d 47bd
00000260: 62a9 6ebd 08e2 a3bb d835 e1bc 046c 4e3d
00000270: a88e 4dbc 7c64 013d defb a7bc ebc5 e2bc
00000280: 2888 2dbd 1da0 c5bb 3190 73bd 5226 5c3d
00000290: b568 693c 314b 8f3b 10b9 913a e26d a43c
000002a0: 848b 02bc b7bd 593c 6e54 c2bc 4122 3f3d
000002b0: 8b90 c8bc c33f 82bc 5f82 243c 0e18 193d
000002c0: a62b 6c3d e4f8 423d e13b 293d b24a 24bd
000002d0: f364 b7bc 3aa5 b7bc 3491 fe3c c43f 24bd
000002e0: f52e 493d 4017 78bb c2da 1fbd f615 60bd
000002f0: 9702 7c3c f855 983c c909 533d 2aa4 39bd
00000300: 5950 44bd 19fc 1b3d 7321 c8bb a17e 2fbd
00000310: 0f5d 15bc 308b 2abd 82e4 9f3c 27f7 69bd
00000320: 9c9d 8bbc 2d14 4ebd 58c8 303b 01e0 593d
00000330: b4bd e53c 4857 58bd 3ec1 3abd 8362 cb39
00000340: c928 a43b 2691 3c3c e88e 2abc 947b 25bb
00000350: 684a 073d 6771 40bc 8fd2 43bc 4b2d 0cbd
00000360: a6f2 0abd d771 85bc 0b6b e53c dd2f fa3a
00000370: c8cc 1bbd ec15 1c3d 239a 46bd 457e d6bb
00000380: 4e1a d93c 0232 723b bdcd 363d 015c 8bbc
00000390: 3e1b a23c 22a8 d9bc 995a 5d3d f917 023a
000003a0: b9ea 7abc 058b 113d bfba 73bd 5cdc 88bc
000003b0: fde9 50bd 52b9 dd3b 8117 0bbc 366d 2e3d
000003c0: 18ce 553c b538 043c 17e9 aabc 0bd3 ba3c
000003d0: 17b1 333c 1b4d 6b3d 6130 0b3d 7770 193c
000003e0: befd 73bd 9e74 ea3b 80ea 77bd 1ed0 65bc
000003f0: 09c1 773d f5b6 5d3d f07f 9cbc cd5d 15bd
-0.033876132 0.019647848 -0.0037565618 -0.024462998 -0.015697861 -0.0557504 -0.012545233 0.045749657
0.008128398 0.01222387 0.05328456 0.054299295 -0.047958843 -0.057436854 0.0010360559 0.032024246
0.054505374 0.044681974 -0.025578436 0.023515457 0.002815998 0.050876692 -0.0017352179 -0.051445737
-0.050428234 -0.05832724 -0.019941278 0.035642505 -0.012355154 0.043671593 0.034338165 -0.0010204638
-0.013040937 0.0057351757 0.004930529 0.034818757 -0.05554684 -0.036547318 -0.021305744 0.055112716
-0.0141701 0.021266717 -0.05122837 0.015908422 0.02098335 0.008163204 0.033794966 0.027131492
-0.023622563 -0.013929738 0.0066030705 0.015966944 -0.04625117 -0.050852884 0.0181168 0.027541468
0.0590234 -0.0075016487 0.04880954 -0.046932954 0.0073024975 -0.01971416 -0.0396548 0.025387328
0.042168584 0.044121336 -0.042011444 -0.052527335 -0.028176501 0.021414872 -0.013461188 0.04205162
-0.054815795 0.034836717 0.014859228 0.02011589 -0.033032633 -0.008688142 -0.0016940092 -0.016016934
0.0012355861 0.013373028 -0.015262493 0.01882744 0.029419422 -0.05854219 0.027569965 -0.0008339454
0.019511271 0.009831236 -0.032640856 0.062069494 0.013331896 0.031432945 -0.0514049 0.04320291
-0.013964002 0.059161697 -0.054654248 -0.060342837 -0.053831782 0.02277725 0.043059245 -0.05085137
-0.0095468955 0.01590373 0.02218248 0.025015557 0.012895355 0.0061022528 -0.0571986 0.042908408
0.0021479896 -0.054258835 -0.037707854 -0.043472264 0.034291048 0.042706363 0.056383643 -0.051714174
-0.029388761 -0.029301846 -0.021467246 0.038274087 -0.015699504 0.046659302 0.004755181 0.060711805
-0.014570861 -0.06109871 -0.008500342 -0.052562498 0.05822581 0.03567069 0.050412554 -0.04388585
-0.010966453 -0.009539324 -0.022551788 0.045157257 0.015837327 -0.007429075 0.050217576 -0.04987693
-0.0023567025 -0.056681767 -0.017321069 0.05279747 0.05364915 0.019627031 -0.049636837 -0.048627406
-0.058267005 -0.0050013103 -0.027491495 0.05039598 -0.012546219 0.03158997 -0.020505842 -0.027682265
-0.042366177 -0.00603105 -0.059463684 0.053747483 0.0142461555 0.004372977 0.0011117775 0.020071927
-0.007967833 0.01328986 -0.0237219 0.046663526 -0.024482986 -0.015899545 0.0100408485 0.037376456
0.057658814 0.04760064 0.04131687 -0.040110298 -0.022387004 -0.022417653 0.031075098 -0.040099874
0.049117047 -0.0037855655 -0.039026983 -0.054708444 0.015381477 0.01859568 0.051523004 -0.045322575
-0.047928188 0.038082216 -0.006107503 -0.042845372 -0.009116425 -0.041636646 0.01951814 -0.05712047
-0.017042927 -0.05031221 0.0026974883 0.053192142 0.028044559 -0.052817613 -0.045594446 0.00038792574
0.005009745 0.011509215 -0.010410048 -0.002525066 0.033029944 -0.011745787 -0.011952057 -0.034222882
-0.033922814 -0.016289635 0.028005144 0.0019087751 -0.03803709 0.038106844 -0.04848684 -0.006545814
0.0265018 0.0036956077 0.0446298 -0.017011644 0.01978838 -0.02656943 0.05404148 0.00049626786
-0.015314751 0.03553297 -0.059504267 -0.016706638 -0.0510044 0.0067664767 -0.0084894905 0.04258462
0.013049625 0.008070161 -0.020863099 0.022805711 0.0109675145 0.05744658 0.033981685 0.009365193
-0.05956816 0.007155015 -0.06052637 -0.01402667 0.060486827 0.05412956 -0.019103974 -0.03646641

layer2.bias f4 [128]
00000000: c741 94bb 00db febc f284 373d 3069 77bd
00000010: f20d babc 8bcb bbbb 1154 debc 0586 ffbc
00000020: 61ce 11bd c3eb 39bd 7d19 6bbd 245e 8c3c
00000030: a20e 62bd c8be 8cbc 8a29 353d 9fdd f53c
00000040: 7c5a 7ebd 687a abbc b8ef fa3c cf5c 433d
00000050: aa13 a2bb 2e11 a5bc 28c2 ac3c 1db3 db3c
00000060: b0b5 04bd a42a 25bc 84dd 38bc f448 583c
00000070: 4867 ef3c 4228 06bd 340b f7bc 7189 d13c
00000080: 4dc4 96bc 4b6a 333d ee86 71bc b024 483d
00000090: 8e71 d83c a085 89bc 88c6 743d af35 92bc
000000a0: d4a2 2c3d de26 c1bc 6858 6cbc a18b 113d
000000b0: aa79 4abd 4530 c03b 1f59 4cbd eaf5 b03c
000000c0: e93a baba 32c4 80bc 7b8d d6bc 103b 443d
000000d0: 5159 5dba 8048 b7bc 3a70 e13c 5892 ba3c
000000e0: b6fc 1c3d a0ca a03b 058a 30bd 03d0 13bd
000000f0: 81d6 223d 9ae8 033d b083 c13c 3212 7b3d
00000100: a6c4 eabb 19be 653d 880f 063d 7a7c 5fbd
00000110: 5a4c e7bc 5910 3d3d 4f51 63bd 3614 23bd
00000120: d2da 423d 4049 a83c 1072 08bd 8829 0d3b
00000130: 2619 70bd 29f1 193b 8110 dc3b 6490 6c3d
00000140: c3c5 1dbd 6d19 abbc 1068 963c 2981 d5bc
00000150: 6d14 a93b 8e5d 2e3d 519e f73b 4187 8cbc
00000160: 4ed9 f53c 63af cfbc b335 ceb9 6835 403d
00000170: fad6 8cbc 7aa1 61bc d3ad f13c df66 12bd
00000180: 7965 213d 4a6a 6b3d ba4f 703d 9ce4 52bd
00000190: 122f 3e3a ef99 fc3b 889e 843c f479 4e3d
000001a0: e16f 1b3d dd58 463d 9b4d a93c 6ba1 32bd
000001b0: 1d9e 00bd 3260 3dbd 098c 37bc 4e18 b33c
000001c0: 8cc3 023b 971f ad3c 79ae 993c 34a2 613b
000001d0: 9590 593d 6189 a83c b7d4 433b 0c85 593d
000001e0: 62ca 103c 0c54 3ebd 0017 113b e5b8 eb3c
000001f0: 11be 92bc b3a2 2d3c 524a 78bc 2984 363d
-0.004524443 -0.031110287 0.04480452 -0.06040305 -0.022711728 -0.0057310513 -0.027139695 -0.031191835
-0.03559721 -0.045390856 -0.057397354 0.017134733 -0.055189736 -0.017180815 0.044229068 0.030012904
-0.06209801 -0.020932391 0.030631885 0.04769593 -0.004946192 -0.020149793 0.021088675 0.026818806
-0.032399833 -0.010080967 -0.011283282 0.013200987 0.029224053 -0.032753237 -0.03015671 0.025578232
-0.01840415 0.04380254 -0.014741642 0.048863113 0.026421335 -0.01678735 0.059759647 -0.017847864
0.042147473 -0.023578104 -0.014425375 0.03553355 -0.049432434 0.005865129 -0.04988968 0.021601636
-0.001420823 -0.015718553 -0.02619051 0.04790789 -0.000844379 -0.022373438 0.027519334 0.02277486
0.03832694 0.0049069673 -0.043100376 -0.036087047 0.039755348 0.032204248 0.023622364 0.06129665
-0.0071645556 0.056089494 0.032729656 -0.05456207 -0.02823465 0.04615817 -0.055497464 -0.039814197
0.047571965 0.02054274 -0.033311903 0.0021539647 -0.058617733 0.002348969 0.0067158346 0.05775489
-0.03851868 -0.020886147 0.018360168 -0.026062565 0.0051599056 0.04256969 0.0075567146 -0.017154338
0.030010846 -0.025352186 -0.0003933139 0.046925932 -0.017192353 -0.013771409 0.029501831 -0.035742637
0.039403412 0.057474412 0.058669783 -0.05148755 0.0007254939 0.00770878 0.016188875 0.050409272
0.037948493 0.04842459 0.020666888 -0.04361097 -0.03140079 -0.046234317 -0.011202821 0.021862175
0.001995298 0.021133227 0.018759953 0.0034428956 0.0531164 0.02057332 0.0029881427 0.0531054
0.008837314 -0.046466872 0.0022138953 0.028774688 -0.017912896 0.010597873 -0.015154438 0.04455963

layer3.weight f4 [30, 128]
00000000: 3b69 03bd 11a7 59bd 5683 fe3b ec75 0ebd
00000010: b56a 673d 290c 70bd 7b0e 92bc 7b6d c7bb
00000020: 0096 7abd e1f3 66bc 4283 46bc 2d91 263d
00000030: fd8f aebd 3d19 80bd 61d2 b43d 15c4 aabb
00000040: 7db4 983d 80cb af3a d48e 83bc 50b9 4f3d
00000050: a876 54bd b658 82bc 19fa 38bd de5d 80bd
00000060: f24f 023d 8c95 803d 4ed8 5cbd 53f4 903c
00000070: 99cb b0bc 5b8b 80bd 2805 423d 10ec 27bd
00000080: 0ead 773d 98e7 2a3d 2c91 ae3d 3647 e6ba
00000090: 3b99 0dbd 1460 7dbc 6319 f93c f674 993c
000000a0: 4e7f 3cbd bb84 afbd d47b 223c ef03 7fbc
000000b0: cb06 a5bd 14b0 88bc d4c2 d0bc 1228 a43d
000000c0: 67cb 8f3d 939d 5fbd 11cb b03d 9134 e3bc
000000d0: 1072 24bd e81d 92bd 74be 98bd 7dfc 373d
000000e0: fb6e 84bd e726 a43d c6b2 303d 09bc 86bd
000000f0: 3cef 6cbb 8e16 833d 46c0 c83c 4eb9 b1bb
00000100: b490 2a3d 3fb0 703d 03f8 aa3d c8fc 9b3c
00000110: 9eab 1ebc f135 1ebd 103a 62bb eda7 9cbd
00000120: 4746 33bd 0e93 ffbc 9e1d 36bd ca11 a0bd
00000130: b8c6 cabc 8ca1 463d 6f4b 833c 0a31 28bd
00000140: 3905 a2bb b486 a1bd 9e23 2dbd 3d66 b3bd
00000150: 7119 a73c 3981 a43d 64be 113d 0918 eabc
00000160: b04f d63c dba5 e0bc 49eb 5cbc 1cd7 003c
00000170: 3522 b03c c7f2 853d f154 2abd ca52 dd3b
00000180: c9ef 2abd 499d a83d fcf7 3cbd bc77 d6bc
00000190: 9ee4 64bd 83c7 bebc 9642 f73b 348f f0bc
000001a0: 91c8 afbd cb0a 90bd c760 773d 2be8 9fbd
000001b0: 58fd 603c aa10 91bd 7016 63bc aa27 1dbd
000001c0: 4224 b23c e742 803d a0bf 223b b565 e73b
000001d0: da22 19bd a23d abbd 94d1 a13d 7c9d a5bc
000001e0: 03d1 80bc 2256 56bd fd7d e73b 36c9 80bd
000001f0: 5acd 6c3d bf47 01bd 1620 a5bc 331d 9fbc
00000200: 2b80 ec3c 01ca 843d d501 8f3d a015 c6bc
00000210: 2d02 e9bc 134d d43b 73c7 063d 92c6 c33b
00000220: 48df 6cbd 0f36 6a3d 36ab a73a d3e2 f63c
00000230: 07d2 0abc 6d6a 3eb9 dd87 963d e1b7 a03b
00000240: 13b2 8fbd ef69 993d edd3 9e3c e089 16bd
00000250: 8c3d 6dbd dc09 2a3d 59d6 b03d b43a a7bd
00000260: d2e5 61bd b069 1abb a1f0 4ebd 1b7a 8d3d
00000270: 8f2f e13b 2700 6fb9 b84d 603c 60d1 603d
00000280: 4869 ddbc ce3d 8bbc c8dc 3e3d 572d aebd
00000290: 51aa 82bd 4e75 97bd c600 9cbc 9f42 773d
000002a0: 4812 63bd 34eb 92bb 7112 a03c 6647 69bb
000002b0: d2ca 8fbd 75f7 893d 93a2 bd3c ecad 893d
000002c0: f5a1 243d 5761 45bd 8baa 64bc 7323 493d
000002d0: 3e45 623d ed28 5b3d cef8 68bd 7741 5ebb
000002e0: 41bc 843b f062 683d bc56 b0bb 5a55 a7bb
000002f0: 0b2c afbd 539a 43bc 92e2 8ebd c3e2 113d
00000300: 9e45 e13b c7a9 9cbd f306 3fbd 3bc5 ec3c
00000310: e42b 823d 738c 543d 3721 863d 77b0 53bd
00000320: 48ce 093d 3922 773d 8389 a83d b80e 883d
00000330: f568 9f3d 5093 b9bc fcd4 423c 095f dfbb
00000340: 9a90 3ebd 9c32 083d d1cd 32bd 15f8 14bd
00000350: 017e 473d b260 2abd 4f85 13bd 77a5 8d3b
00000360: 27e2 eebb 73ed b43c 70db 773c a0c2 b2bd
00000370: c193 403d 7590 92bb 5a90 b13d 7ccf 6fbd
00000380: 94b7 983d 122d 37bd ca8e 8a3c 6d6b 983a
00000390: 3cf1 b83c 1ebd 6fbd 013d ccbc 06b1 f53c
000003a0: 0658 1e3d 1127 35bd 4592 98bd a32d 06bd
000003b0: ef39 cf3c a03d 59bb 833a 76bd 6afb 0d3d
000003c0: c3f4 bfbc b1e7 adbd 6ea4 edbc d605 a7bd
000003d0: f27a 32bd 8a36 223d f94a c73c 904b 15bd
000003e0: 8e76 82bd 7a7d 36bc 2b20 0b3d d827 0b3c
000003f0: 5b0d b0bd 8697 f13b 3298 82bd e804 75bd
-0.032082777 -0.053137843 0.0077671213 -0.034780428 0.056498248 -0.058605347 -0.01782917 -0.006086049
-0.061178207 -0.014096231 -0.012116255 0.040665794 -0.08523557 -0.06254814 0.08829189 -0.005211363
0.074563004 0.0013412088 -0.016059317 0.050713837 -0.051870972 -0.015911441 -0.045160387 -0.06267904
0.031814523 0.06278524 -0.05391722 0.017694628 -0.021581458 -0.0627658 0.0473682 -0.04099661
0.060467772 0.04172477 0.08523783 -0.001756883 -0.03456996 -0.015464801 0.030407613 0.01873253
-0.046019845 -0.08570238 0.009917218 -0.015564903 -0.08057936 -0.016685523 -0.025483526 0.08015455
0.07021218 -0.054593634 0.08632482 -0.027735027 -0.04014784 -0.071346104 -0.07458201 0.044918526
-0.0646648 0.080152325 0.04313924 -0.065788336 -0.0036153337 0.06400786 0.024505746 -0.0054237014
0.041641906 0.05876183 0.08348086 0.019041434 -0.009684471 -0.03862566 -0.0034519471 -0.07649217
-0.043768194 -0.03119805 -0.04446184 -0.07815893 -0.02475296 0.048493907 0.01602718 -0.041062392
-0.0049444702 -0.07887021 -0.042270295 -0.08759735 0.020397874 0.0803246 0.03558196 -0.028575914
0.026161045 -0.027422836 -0.013483831 0.007863786 0.021500686 0.06540447 -0.041584913 0.006754254
-0.041732583 0.08233125 -0.046134934 -0.02618014 -0.05588209 -0.023288494 0.0075457795 -0.02936516
-0.08583177 -0.070333086 0.06039503 -0.078079544 0.013732277 -0.070832565 -0.01386033 -0.038367905
0.021745805 0.062627606 0.0024833456 0.007061685 -0.037386753 -0.08361365 0.07901302 -0.020216696
-0.015724665 -0.052328236 0.0070645795 -0.06288378 0.057813026 -0.031562563 -0.020156901 -0.019423103
0.028869709 0.06483842 0.06982771 -0.024180233 -0.02844342 0.0064789145 0.032905053 0.005974599
-0.057830125 0.05718046 0.0012792114 0.030137455 -0.008472926 -0.00018159459 0.073501326 0.0049047326
-0.07016387 0.07490908 0.019388163 -0.03675258 -0.057920024 0.04151331 0.086346336 -0.081654936
-0.055150814 -0.002356153 -0.05052245 0.069080554 0.0068721245 -0.00022792873 0.013690405 0.054887176
-0.027027741 -0.016997244 0.046597272 -0.08504742 -0.063801415 -0.07395421 -0.019043338 0.06036627
-0.055437356 -0.004483605 0.019540044 -0.0035595535 -0.07021107 0.06736652 0.02314881 0.06722626
0.040193517 -0.048188534 -0.013956676 0.049106073 0.055241816 0.053505827 -0.056877904 -0.0033913532
0.004050762 0.05673498 -0.0053814333 -0.0051066102 -0.085533224 -0.011938649 -0.069768086 0.035616647
0.006874754 -0.0764957 -0.046637487 0.02890264 0.06356028 0.051891755 0.06549304 -0.051681962
0.03364399 0.06033537 0.08229353 0.066434324 0.07783691 -0.022653252 0.0118916 -0.006816749
-0.04652462 0.03325139 -0.043653313 -0.036369402 0.04870415 -0.041596122 -0.036015805 0.0043227035
-0.007290143 0.02208588 0.015128002 -0.08728528 0.04701591 -0.004472787 0.08670111 -0.058547482
0.0745689 -0.044720717 0.01691379 0.0011628695 0.022575967 -0.058529966 -0.024931433 0.029991638
0.038658164 -0.04422671 -0.07449774 -0.032758366 0.02529618 -0.0033148304 -0.060114395 0.034663595
-0.023432141 -0.08491457 -0.02900907 -0.0815541 -0.04357428 0.039602794 0.024327742 -0.036449015
-0.06370269 -0.011138314 0.033966225 0.008493386 -0.08596297 0.0073727993 -0.06376685 -0.059819132

layer3.bias f4 [30]
00000000: 7032 88bc 3cfd 823c 98e6 89bd 16c6 1d3c
00000010: 0be1 b5bc 2c22 aabd ce2d 353c 4ab1 9a3d
00000020: 9839 95bd 5e5c 793c 9235 79bc 76a1 dd3c
00000030: 95ec f2bc 5645 1c3d 7153 a43d aace fb3c
00000040: 051a af3d 5e29 31bc e8df b33d ff5d 323d
00000050: 5a76 2fbd ca4f b03b 6bc8 873d 4f42 ce3c
00000060: b8cd acbd 7462 b3bd 2bc3 3cbd aef4 4cbd
00000070: 1bce 893d 9be5 953d
-0.016625613 0.015989892 -0.067334354 0.009629747 -0.022202035 -0.08307299 0.011058284 0.075533465
-0.07286376 0.015219776 -0.015210526 0.02705453 -0.029653827 0.03815206 0.08023728 0.030738194
0.08549885 -0.010813085 0.08782941 0.043546673 -0.04283748 0.0053806053 0.066300236 0.025178103
-0.08437675 -0.08759013 -0.046084564 -0.050038032 0.067287646 0.073191844
