project/output/Model-V1-0-0.pth (torch, 22586 bytes, 6 tensors)

fc1.weight f4 [64, 2]
00000000: 7165 0a3f 5b3f 163f a4a1 29be 5149 263f
00000010: e0a5 1ebe b01c 123e a642 b0be 7a9e d43e
00000020: 8993 1f3f 06cd 04bf 6157 1d3f 9084 073e
00000030: 1bbd 053f d81f c43d 1a92 ae3e 6877 ccbd
00000040: 958b 0b3f d80c d63d 9c03 a9be ec90 383e
00000050: f2cd a6be 48d4 a9bd 860b 93be 7a2a f03e
00000060: 2ae4 0ebf 50e7 a6be 0c76 4cbe 13af d9be
00000070: 70ae 883d fdc9 32bf ef7a 233f 2ac5 19bf
00000080: 7bc0 0b3f 2800 f13d 761c 6bbe c6b8 df3e
00000090: 30b2 e13d cb41 123f d04f 9e3d c65a 64be
000000a0: 388c 423e d85a 44be e25d 983e 399e 213f
000000b0: aa47 d13e fb45 9ebe fefd d03e 708e 013e
000000c0: 1edb b73e 16aa dcbe 4c31 33bf a1e0 8bbe
000000d0: 91d8 0abf 8d88 143f 948e 503e 18f6 953e
000000e0: 60ff 643e 4089 49bc cfaa 0d3f e09d 00bf
000000f0: c05c 363d 1e1b f7be 4c45 5f3e 025c 79be
00000100: 7cde 5d3e f8da 16be cf22 163f bd94 d6be
00000110: 4ceb d7be a3ee d7be 09d1 223f b04c 713e
00000120: 9d2f 2e3f 1664 15bf 7b8c 33bf 7b9f 0dbf
00000130: 1a8a f3be e4a3 923e 26a3 813e d369 163f
00000140: 49f7 babe 58ce f6be fe16 c03e 7056 92be
00000150: daba db3e f4d2 2bbe 4e1a cf3e 6fa5 0cbf
00000160: e6b3 b6be 10c1 5c3e 5013 193e 209c 38be
00000170: dacc d73e 021e f63e 3945 03bf eb47 c1be
00000180: a5c0 253f c653 74be 4059 80be 4127 2fbf
00000190: 2a54 cfbe 90e0 343e 8025 bfbd 3f66 03bf
000001a0: 20e0 873c 4a4d f7be 8293 19bf 755c c7be
000001b0: 286e 1ebf 1886 e6be d3f2 343f 94c2 083e
000001c0: a821 5f3e 7ad5 28bf 0bc7 edbe 6c03 71be
000001d0: 1873 e23d 6448 1fbf 22fe 9bbe bdbd d8be
000001e0: 006c 003b 3bb7 86be b0b3 48bd 0254 f5be
000001f0: 6880 f8be c936 d3be 8ed9 77be 06e0 0ebf
0.5406104 0.5869042 -0.16565567 0.6495562 -0.15492964 0.14268756 -0.3442585 0.41527158
0.62334496 -0.5187534 0.61461455 0.13234162 0.5224168 0.09576386 0.34095842 -0.099837124
0.5450986 0.104516685 -0.33010566 0.18024033 -0.32579 -0.082924426 -0.2871973 0.46907407
-0.558169 -0.32598352 -0.19966906 -0.42516384 0.06673896 -0.6983946 0.63859457 -0.60066473
0.54590577 0.11767608 -0.22960076 0.43695658 0.11020315 0.5713164 0.07730067 -0.22300252
0.18998802 -0.19175279 0.29759127 0.63132054 0.40874988 -0.30912766 0.4081878 0.12651992
0.3590936 -0.43098515 -0.69997096 -0.27319816 -0.54236704 0.5802086 0.20366889 0.29289317
0.22363043 -0.012300789 0.5533876 -0.502409 0.044522047 -0.48262876 0.21803778 -0.24351504
0.21666902 -0.14731967 0.58646864 -0.41910353 -0.42171705 -0.42174253 0.6360021 0.2356441
0.680414 -0.58355844 -0.7013623 -0.5532147 -0.475663 0.28640664 0.25319785 0.58755225
-0.3651679 -0.48204303 0.37517542 -0.28581572 0.42915994 -0.16779691 0.40449756 -0.5493993
-0.35684127 0.21558022 0.14948773 -0.18028307 0.42148477 0.4806977 -0.512775 -0.37750182
0.6474708 -0.23860082 -0.25068092 -0.6841927 -0.404939 0.17663789 -0.093333244 -0.5132789
0.016586363 -0.48301154 -0.59990704 -0.38937727 -0.61886835 -0.4502418 0.7068302 0.13355476
0.21790183 -0.6595074 -0.4644092 -0.23536462 0.11057109 -0.62219834 -0.30467325 -0.4233226
0.0019595623 -0.2631167 -0.04899949 -0.47915655 -0.48535466 -0.41252735 -0.24204084 -0.5581058

fc1.bias f4 [64]
00000000: 7dc7 173f 0cb4 0fbe 9bbf 1b3f 089c 613e
00000010: 6049 19bf 228b fa3e e439 47be 63c7 8abe
00000020: 4142 16bf 59f6 33bf 8c2a 4f3e 942b 1ebe
00000030: 34f3 8c3e 538e 14bf df64 063f bfe0 04bf
00000040: c80e fabd e03c 173e 32e7 ba3e 8723 123f
00000050: b7e6 243f c488 0fbf 003a 363e e4b8 9bbe
00000060: 20b2 9ebd be7d 07bf 0de2 243f f6db 04bf
00000070: f67d c13e 2c78 7e3e 104b 6b3e 1ebc c3be
00000080: ad89 243f c41d 1f3e 684a ba3d 2f86 1fbf
00000090: cafa 973e c840 d9bd d4db a5be 677c 1b3f
000000a0: a46e 213e b54e c8be eb3d b7be c050 0abd
000000b0: fe25 ca3e b806 39be f791 cebe 82f4 77be
000000c0: 283c 07bf 601d 813e c31d 0c3f 3d6b 2abf
000000d0: e02a 283e b606 bb3e e84b 033e 4fee 80be
000000e0: 96f6 bc3e 8e41 be3e 4a60 873e c878 febd
000000f0: 90bc 3fbe c8ec 9a3d 90d2 ffbd 9cc6 57be
0.5928877 -0.14033526 0.6083924 0.22032177 -0.59877586 0.48934275 -0.19455677 -0.27105245
-0.58694845 -0.7029777 0.20231074 -0.15446311 0.275293 -0.5802967 0.5249767 -0.51905435
-0.122098505 0.14769316 0.36504513 0.5708546 0.6441454 -0.5606806 0.17795563 -0.30414498
-0.077488184 -0.5292624 0.64407426 -0.51898134 0.37791413 0.2485053 0.22977853 -0.3822946
0.64272577 0.15538698 0.09096223 -0.6231412 0.29683524 -0.10608059 -0.32394278 0.607367
0.15764862 -0.3912255 -0.35789427 -0.033768415 0.3948211 -0.18068969 -0.40345737 -0.24214366
-0.52826166 0.25217724 0.5473291 -0.6656988 0.16422606 0.36528558 0.12821925 -0.25181815
0.3690688 0.3715939 0.2644065 -0.12425381 -0.18724275 0.07564694 -0.124913335 -0.21071857

fc2.weight f4 [64, 64]
00000000: 10a3 a33d 9c01 dc3d 20bf 4abc 3845 e5bc
00000010: 8014 ef3a a090 f4bb 602e f63c c87a 0f3d
00000020: 8483 e8bd 84f2 3cbd cc95 d73d c073 473d
00000030: a0b9 cbbb 0858 9abd 429f 9cbd fa50 e5bd
00000040: 8ce4 26bd 90e7 2c3d 2c3b a33d 9863 6c3d
00000050: 284a e2bd e4f2 99bd b09a a1bc 38a4 f73d
00000060: 1821 943c d097 04bd 7cd2 533d e802 43bd
00000070: 8cb2 a5bd e4d9 ba3d acce 68bd 2847 cdbc
00000080: 7eab febd 5255 ab3d 58f4 c13d f498 3a3d
00000090: 9080 b2bd 18a8 fcbd f6ea cfbd 36e6 be3d
000000a0: 6cd0 753d d66c d73d 561c 863d 4c95 013d
000000b0: 8071 a0ba 86b0 c2bd 6c55 dbbd 0273 efbd
000000c0: e497 513d 2860 7bbd 2815 cebc 5054 93bd
000000d0: d098 babc 862e b4bd 4046 a7bd 00d6 293d
000000e0: 202a 18bd 340a 9e3d 0c41 24bd 10cb bbbd
000000f0: 68ac b4bc d030 78bd 60a4 1cbd fcb5 f3bd
00000100: cc3a 8f3d 763a b2bd 8eab 803d 6856 683d
00000110: 10e5 b63d 865d c4bd 481d b83d 800c 72bd
00000120: c8fc 3d3d d269 f03d a86a 90bc 0069 7dba
00000130: 90c1 ebbc 8cc1 d5bd d4b5 753d c222 febd
00000140: beec 9e3d ae8b bf3d d019 f23d 688a f1bc
00000150: 2057 d2bd e839 e63c e06b 8d3d 8ecc febd
00000160: 686e e8bc ea75 99bd 3020 33bc 6803 7cbd
00000170: fc49 51bd f889 22bd 2047 f3bd c80c d23d
00000180: e09c d63d 48a2 a0bc 003b 69bc 18f5 50bd
00000190: 202f e7bd fe1f f9bd 044a 3e3d 4a8e 8cbd
000001a0: 9693 a4bd a0ca 1fbc 7080 2abd 84a4 25bd
000001b0: 009c 833b 0034 d9bc b849 30bd 0c26 75bd
000001c0: fe56 d0bd 68a8 d63d 54e5 4cbd 64ab 073d
000001d0: 84a5 31bd 506c 263c 3eab ee3d d8e3 6b3d
000001e0: 7ad9 ddbd d836 4b3d 9401 f33d dcb2 063d
000001f0: f4a0 ab3d 2063 fc3d 10e8 9cbc 2889 d43c
00000200: d2ed b1bd e005 d3bc e696 bd3d c23c 833d
00000210: 76fe a1bd 5648 cdbd ecf0 aebd 04a4 fcbd
00000220: 228a c5bd 883b fdbc c0c4 ac3d 4066 ab3c
00000230: 0ab7 c2bd 8c5e cdbd 14b5 7e3d 626c bebd
00000240: 402a 7cbc 089c 753d b4f5 6cbd 5050 5fbc
00000250: 6044 32bc e842 f2bc dccc 81bd 4e35 e4bd
00000260: 7cf0 cebd 0414 89bd 2441 f73d b44d 77bd
00000270: 42e9 abbd 3036 f83c cc1c 0d3d d043 8c3d
00000280: 4097 c23d 4e8f 8e3d 02d3 fdbd 60a2 353c
00000290: a212 9b3d 9049 3dbc 00db 96bd 140e f43d
000002a0: 9480 3fbd 90c0 91bd 50cc e6bd 20f6 b63b
000002b0: 58e2 623d f0ac e23c e87e ca3c ae25 c2bd
000002c0: 3c13 efbd 8041 103b f66d e93d 1eb1 933d
000002d0: 4e0d 95bd 88ec 84bc 10b8 bcbd 3400 77bd
000002e0: d871 b93c e066 8b3d 0210 d43d 0009 ebbd
000002f0: 5e2a ab3d 068e b4bd 2cba 3f3d 88a3 d83d
00000300: 0012 e63a 3ee9 e83d 0c20 dabd 2890 43bd
00000310: 1050 953d c018 dfbc f09c d1bc b865 55bd
00000320: 5e76 b03d 3c23 7b3d 0812 243d dadc 8fbd
00000330: d2ce cfbd 5083 5d3c dcb1 173d 8065 6cbd
00000340: a441 0fbd e6e4 ac3d a024 233c 00ce b83b
00000350: c801 fcbc bad4 e7bd b6b4 f0bd 64be 74bd
00000360: 5a21 82bd f483 1f3d 780c 15bd 444e 48bd
00000370: fa13 f43d 6057 323d c480 b63d a0dd 77bd
00000380: 9022 51bd 442e 3c3d 0291 aabd 2659 a7bd
00000390: e0d5 c5bb fc44 3bbd 96e9 bfbd 44d9 973d
000003a0: 9edd cd3d e01d a63c c04a b2bc 3a20 edbd
000003b0: 807d 3abd 0c59 023d 806c 713d 9873 81bc
000003c0: b06b 4abd 5ea6 8e3d dae0 cbbd eecb a13d
000003d0: 04a2 46bd 80c3 fa3a d05b cabc 204c 783c
000003e0: c0b9 1abd fe24 ba3d 00f8 54bb 5ed5 c73d
000003f0: 9623 f63d 1871 79bd 1cc1 babd aa63 cd3d
0.07990086 0.107424945 -0.012374669 -0.027987108 0.0018240362 -0.0074635297 0.03005141 0.035029203
-0.113532096 -0.04612972 0.10526618 0.048694372 -0.0062171966 -0.07536322 -0.076475635 -0.11197086
-0.040745303 0.042213023 0.079702705 0.057712168 -0.110493004 -0.07517031 -0.019727081 0.12091869
0.018082187 -0.032371342 0.051714405 -0.047610193 -0.08090696 0.091235906 -0.056837723 -0.025058344
-0.12435053 0.08365883 0.09470433 0.045556024 -0.087159276 -0.12336749 -0.10152237 0.09321253
0.06001322 0.10518806 0.065483734 0.03163652 -0.0012240857 -0.095063254 -0.10709652 -0.11691858
0.051170245 -0.061371 -0.025156572 -0.07193816 -0.022777945 -0.08797936 -0.08167696 0.041463852
-0.03714955 0.0771679 -0.040101096 -0.091695905 -0.022054866 -0.060593426 -0.038242698 -0.11899945
0.069936365 -0.08702557 0.062827215 0.05672303 0.08930409 -0.09588151 0.0898996 -0.059093952
0.04638365 0.117389336 -0.017628983 -0.00096668303 -0.028778821 -0.10437307 0.059987858 -0.12408973
0.07759999 0.09352814 0.118213296 -0.029484943 -0.10270524 0.028103784 0.06905341 -0.124413595
-0.028372958 -0.074931934 -0.010932967 -0.061526686 -0.051095948 -0.03968236 -0.118788004 0.10256344
0.1047914 -0.019608632 -0.014235258 -0.05101499 -0.11288285 -0.12164305 0.046457306 -0.06863077
-0.08035962 -0.009752899 -0.041626394 -0.040440097 0.0040163994 -0.026514053 -0.043039054 -0.059850737
-0.101728424 0.1048134 -0.05002339 0.033122435 -0.04337074 0.01015766 0.116537556 0.057590336
-0.10832496 0.04961285 0.118655354 0.032885417 0.08380309 0.12323594 -0.019153625 0.025944307
-0.08687939 -0.025759637 0.09257297 0.06408073 -0.07909863 -0.100235626 -0.08542046 -0.12335971
-0.09645487 -0.030912176 0.084359646 0.02092278 -0.09507568 -0.10027799 0.06218441 -0.09298016
-0.015390933 0.059963256 -0.05785151 -0.013629988 -0.01088056 -0.029572919 -0.06337902 -0.111429796
-0.101044625 -0.06693271 0.120729715 -0.060376838 -0.083941 0.030299276 0.03445129 0.06848872
0.09501505 0.06960927 -0.12393762 0.0110860765 0.07571913 -0.011553183 -0.0736599 0.11916748
-0.04675348 -0.071168065 -0.11269438 0.0055835396 0.05539164 0.027670354 0.024718717 -0.09479843
-0.116735905 0.0022011697 0.113979265 0.07211517 -0.07277928 -0.016226068 -0.09214795 -0.060302928
0.022637293 0.06806731 0.10354616 -0.11476326 0.0835769 -0.08816151 0.046808407 0.10578066
0.0017552972 0.113726124 -0.10650644 -0.0477449 0.07290661 -0.027233481 -0.025587529 -0.05209896
0.08616327 0.0613129 0.04005626 -0.07024546 -0.1014687 0.013520077 0.037034854 -0.057713985
-0.03497471 0.084420964 0.009957463 0.0056397915 -0.030762568 -0.11319871 -0.11753218 -0.059751883
-0.063540176 0.0389442 -0.036388844 -0.048902765 0.11917873 0.04354036 0.08911279 -0.060514092
-0.051058352 0.04594256 -0.08328439 -0.081713006 -0.006037459 -0.045720086 -0.09370725 0.07414487
0.10052036 0.020277917 -0.02176416 -0.11578412 -0.045529842 0.031823203 0.058941364 -0.01580219
-0.049419105 0.06965326 -0.099549964 0.079002246 -0.048494354 0.001913175 -0.024701983 0.015154868
-0.0377748 0.09089087 -0.0032496452 0.097574934 0.12018506 -0.06089887 -0.09118864 0.10028775

fc2.bias f4 [64]
00000000: 50ac f33c 0457 6d3d 48d1 24bd d66a a73d
00000010: 583b 933c c0b1 cdbc a056 c53c 5282 c9bd
00000020: 209c 963b 54cf 6a3d fcb6 efbd 6afb 87bd
00000030: b663 a03d 40c7 393b e084 8bbb f0fe 503c
00000040: b0cb 65bd 36b1 d33d 9010 4bbc 9c6c 3abd
00000050: 7ac1 863d c014 d5bd 60e1 bcbc 206a 4e3c
00000060: 34e5 1ebd 4254 8b3d b09f dabd 389b 13bd
00000070: 4831 57bd a2e2 ec3d e454 4c3d 6cf7 bebd
00000080: e06e 463d 80ba 2dbb 5e59 ea3d fe46 8d3d
00000090: d682 95bd 2032 e43d e025 b7bc a82c e9bc
000000a0: 281a 193d ba56 fe3d 387c 1a3d 4c01 f7bd
000000b0: 7871 23bd 4062 ee3d b474 34bd 1052 76bd
000000c0: e20d ccbd be50 8dbd 7ef7 8bbd 108f f43c
000000d0: 9c8e 4c3d ee51 f43d 3601 a83d 0017 f23a
000000e0: 4c0f 8a3d 8a53 923d 70ce dcbd 262d 813d
000000f0: 0a1f afbd 00b0 c53d e4b0 5ebd b077 d43c
0.029745251 0.057944313 -0.04023865 0.08174674 0.017972633 -0.025109172 0.024089158 -0.0983931
0.0045962483 0.05732663 -0.117048234 -0.0663975 0.07831518 0.0028347522 -0.0042577833 0.012756094
-0.056102455 0.10336535 -0.0123940855 -0.045513734 0.065798715 -0.104043484 -0.023056686 0.012598544
-0.038792804 0.0680318 -0.10674989 -0.0360367 -0.052537233 0.11566664 0.049885646 -0.09324536
0.048445582 -0.0026508868 0.11442827 0.06898306 -0.073003456 0.11142373 -0.022356927 -0.028463677
0.03737846 0.124188855 0.03771612 -0.12060794 -0.039903134 0.116398335 -0.04405661 -0.060136855
-0.099635854 -0.06900166 -0.06834315 0.029853374 0.04994069 0.11929689 0.08203356 0.0018469989
0.06741199 0.0714484 -0.10781562 0.063074395 -0.08550842 0.0965271 -0.054367915 0.025935978

fc3.weight f4 [10, 64]
00000000: 0055 aeba fc89 6d3d f045 9f3c 7cb3 b9bd
00000010: 0c68 4f3d 7203 973d d050 85bd a411 a6bd
00000020: b651 aebd c81d 79bd 101a 81bc 4021 193c
00000030: 001e 67ba 206b 07bd e8dc 9e3d 8076 d83b
00000040: a6a5 94bd 3480 07bd e682 96bd 74a0 34bd
00000050: 6a7c f1bd 80ec b23c b45b c6bd 2006 463d
00000060: c45e af3d 0a72 bebd 6819 87bd 6446 cabd
00000070: 44a3 083d 9023 c63c 4022 84bd 0aa5 9a3d
00000080: e873 543d 4c4e e7bd 40cd debb 1869 5cbd
00000090: 308d b1bc c28a 8e3d 9048 5cbc a6cb b1bd
000000a0: 4a14 b43d e6fe e9bd 74d6 2fbd d047 453d
000000b0: 8e46 e23d 7a75 f83d f08e f0bc 48da 2a3d
000000c0: c6d3 e0bd 1040 c7bc cc42 1fbd e857 113d
000000d0: 5abb a7bd 803b dd3c 3042 843d 4e83 c73d
000000e0: 4825 adbc 1ae2 e93d cede f1bd 6c16 11bd
000000f0: 581b 423d 544a 033d bc1e 713d 10e0 a9bd
00000100: a4a0 9d3d 2643 f0bd 9c88 afbd e047 0bbc
00000110: aeb4 f8bd dc55 f3bd 7042 e3bd 36d2 cd3d
00000120: 989e e03c 505d 23bd 4057 a8bb 6622 dfbd
00000130: 84c7 f1bd 7087 b2bd 0caa f7bd f66c a83d
00000140: 282a 33bd 2036 0abd 0a74 dcbd 9098 a93c
00000150: 90a2 99bc 1a48 aebd 1a23 a43d eec8 d73d
00000160: b678 b6bd 680b 913d 2046 a6bc 80ae 9aba
00000170: 9cee 593d 80b1 babc 3a82 d93d 1082 9d3d
00000180: 822d a6bd c0ca 9bbd 12a5 fdbd ccec 233d
00000190: 508f c0bd e692 d6bd 6c16 a4bd 9819 fdbd
000001a0: 3c72 d0bd d057 e43d 74ff 8e3d 9ad2 e23d
000001b0: 8c5c 78bd 60ff 51bd f4a4 33bd 80fe 1f3b
000001c0: 7abf b7bd d81e 963c f211 a4bd 08d0 a13c
000001d0: d07e ea3d e0f3 ac3c dabc ba3d 5653 b6bd
000001e0: c082 90bc 1213 9ebd 2038 63bc 08ac 4bbd
000001f0: 945a 91bd e247 f7bd 90d8 3dbd e821 893c
00000200: 8024 b4bc a26c eebd 3a4d c03d 16d2 bd3d
00000210: bc57 9abd a030 503c 7efc a93d 261c f3bd
00000220: 9e33 e2bd a80b 8e3d 8040 22bb 500a 233d
00000230: f0ea 54bd 78a9 b93c 26ca a93d e084 fabc
00000240: f860 25bd aac2 f3bd 0003 9ebc e837 a23d
00000250: 08f0 f1bd 8033 1ebc 789b ba3d e021 12bd
00000260: f42a 3dbd 786f 1abd c070 4fbd 101e 753c
00000270: 527a f6bd 7ca7 433d 004f 01bd c85f 82bc
00000280: 402d 0abc ac02 8f3d a404 9fbd b2f4 e8bd
00000290: 6a2d b9bd 96cc bbbd d446 79bd 5a31 ca3d
000002a0: a40b c6bd e47b 96bd 30b1 d0bd dc9a 80bd
000002b0: c0f9 65bb 9a19 9cbd 002e ad3a 5406 2d3d
000002c0: c838 aebc 50e8 5c3d 90f9 ea3c 4a4c f73d
000002d0: a01d d1bb f0e3 dd3d 389d bf3d c8c2 743d
000002e0: 06e1 903d 9471 abbd 7474 abbd 6ca5 5a3d
000002f0: 6ce8 393d 0606 e73d 5853 85bc a83d bcbc
00000300: 587f af3d 4048 843b aa56 f03d 2a94 82bd
00000310: fcfc 27bd e0fa b03b 4289 883d 4c6d e0bd
00000320: 2851 0fbd d0ea b93d 0038 d53c 8efc b43d
00000330: a86e 2dbd b660 a1bd f6c5 aebd 56ee 8fbd
00000340: d062 c0bd 44bb 7d3d 409e 093d 88cb a3bd
00000350: 16a6 ea3d 14c4 113d 648b 3e3d 98bb 57bd
00000360: 0e3d b13d 5c94 b4bd f69a ba3d 2e1d 8bbd
00000370: 0077 593d 2039 39bd b850 a63d 28b3 d6bd
00000380: 80a8 c7bc 7832 0abd b214 99bd cc7d 7bbd
00000390: 78ab 0fbd f05a 543c d8b5 b53d 6845 a8bc
000003a0: 6eee fa3d 40a5 73bd e8ca 83bd 80a8 d5bb
000003b0: d860 b9bc c0a0 223d 5a8a ec3d c04d 2f3d
000003c0: 8636 d6bd e4ed 2ebd b06e cbbc da1c e9bd
000003d0: ec4d 1e3d c076 df3d 6449 7e3d 8036 22bb
000003e0: c0ea 1bbc 30c4 6fbd 0085 63bc 7e85 e03d
000003f0: 869d 83bd 48d3 a33c 2cd5 bbbd 2c03 0cbd
-0.0013300478 0.05799292 0.019442528 -0.09067437 0.050636336 0.07373704 -0.065095544 -0.081088334
-0.08511679 -0.060819417 -0.015759498 0.009346306 -0.0008816421 -0.033061147 0.07756978 0.006605923
-0.072581574 -0.03308125 -0.07349186 -0.044098333 -0.11791308 0.021841288 -0.0968546 0.048345685
0.08562997 -0.09299095 -0.06596643 -0.09876707 0.033358827 0.02418688 -0.06451845 0.0755101
0.05186835 -0.11294231 -0.00679937 -0.053811163 -0.021673769 0.0696006 -0.013445035 -0.08681421
0.08792932 -0.11425571 -0.042929128 0.04816419 0.110486135 0.12131782 -0.029365033 0.041712075
-0.109778926 -0.02432254 -0.03888206 0.035484225 -0.08190031 0.02700591 0.06457937 0.09741841
-0.021135941 0.114200786 -0.11810075 -0.035421774 0.04738936 0.032053307 0.0588672 -0.0829469
0.076966554 -0.117315575 -0.08570978 -0.008501023 -0.12143837 -0.11881611 -0.11096656 0.1004986
0.027419373 -0.03988391 -0.005137354 -0.10895233 -0.11805633 -0.08717239 -0.12092981 0.08223908
-0.043741375 -0.033743024 -0.1076432 0.02070263 -0.018754274 -0.08509846 0.080145076 0.10536371
-0.089097425 0.07082254 -0.02029711 -0.0011801273 0.05320607 -0.022789717 0.10620542 0.07690823
-0.08114149 -0.07607031 -0.12385 0.04002075 -0.09402335 -0.104772374 -0.08012089 -0.12358397
-0.101780385 0.111495614 0.069823176 0.11075325 -0.060635135 -0.051268935 -0.043858483 0.0024413168
-0.08972068 0.018325254 -0.08011235 0.019752517 0.11449969 0.021112382 0.09118052 -0.08902614
-0.017640471 -0.07718481 -0.013868362 -0.04972461 -0.070973545 -0.120742574 -0.04634911 0.0167398
-0.02199006 -0.11641814 0.0938973 0.09268586 -0.07536265 0.012706906 0.08300112 -0.11870603
-0.110450014 0.06935817 -0.0024757683 0.039804757 -0.051981866 0.022663817 0.0829051 -0.030580938
-0.04037568 -0.119023636 -0.01928854 0.079208195 -0.118133605 -0.009655833 0.091116846 -0.035676837
-0.04618354 -0.03770396 -0.050644636 0.014960781 -0.120350495 0.047767147 -0.03156948 -0.015914813
-0.00843364 0.069829315 -0.07764557 -0.11374797 -0.09041865 -0.09169881 -0.060858563 0.09872694
-0.09670189 -0.07347849 -0.10190046 -0.06279537 -0.003509149 -0.076220706 0.0013212562 0.042242363
-0.02126731 0.053932488 0.028683454 0.12075098 -0.0063817054 0.10834491 0.09356159 0.05975607
0.0707417 -0.08371273 -0.08371821 0.053380415 0.04538767 0.11280446 -0.016275093 -0.022978619
0.08569211 0.004036933 0.1173528 -0.06375916 -0.04101275 0.0054010004 0.06666805 -0.10958347
-0.034989506 0.0907799 0.02602768 0.088372335 -0.04234186 -0.07879774 -0.08533852 -0.07027881
-0.09393847 0.06194617 0.033598185 -0.07997805 0.1145746 0.035587385 0.046519652 -0.052669138
0.086542234 -0.0881736 0.09111588 -0.06792675 0.053092003 -0.045220494 0.08120865 -0.1048339
-0.02437234 -0.033739537 -0.074746504 -0.061399266 -0.035075635 0.012961134 0.088725746 -0.020540908
0.12252508 -0.059483767 -0.06435186 -0.006520331 -0.022629187 0.039704084 0.11549826 0.042798758
-0.10459618 -0.04270734 -0.024833053 -0.11382456 0.03864853 0.10911322 0.06208171 -0.0024751723
-0.009516418 -0.05853671 -0.01388669 0.109629616 -0.064265296 0.019998208 -0.09171519 -0.034182712

fc3.bias f4 [10]
00000000: e21d 913d a01b 913d 90b5 b33c 68af f53d
00000010: 6688 dcbd 683b 6c3d bc3e 22bd 604b ca3b
00000020: 648f b03d a452 b7bd
0.07085778 0.07085347 0.021937162 0.11996347 -0.107682034 0.05767384 -0.03961061 0.006173536
0.086210996 -0.08951309
