project/output/models/Model_Policy-v1.0.0.pth (torch, 245120 bytes, 6 tensors)

layer1.weight f4 [256, 92]
000000 92 26 cf 3d 7f f0 a3 3d 9a 44 35 3e a4 57 f3 3d
       0.101147786 0.08004855 0.1770195 0.118819505
000010 17 f9 ab bc 8c 91 30 bc 4f fe 1c 3d ae e0 23 bd
       -0.020992799 -0.010776889 0.038328465 -0.040009193
000020 c9 03 ca 3d 20 bf 98 bc ca ae f5 3d 8e 56 14 3d
       0.09864003 -0.018645823 0.11996229 0.036215357
000030 ab fb b3 3d f4 0b 07 bd 99 39 a5 3d 90 09 cd bc
       0.08788236 -0.032970384 0.080676265 -0.025028974
000040 dc 77 d9 bc e6 76 0a bd 18 24 18 3c 63 ee f0 bd
       -0.026546411 -0.033804797 0.009285949 -0.11764219
000050 60 38 65 3c 9c e1 b7 bc 62 e8 0b 3d c0 69 5e 3b
       0.013990492 -0.022446446 0.034157164 0.0033937544
000060 85 97 91 3d a8 98 72 3c ae 44 19 bd c9 67 1c 3c
       0.07108978 0.014806904 -0.037419014 0.009546229
000070 32 2c 19 3d b5 bf 8c bd dc f8 d8 3d 2f e3 86 3d
       0.037395664 -0.06872503 0.10594341 0.065863006
000080 7b 36 a6 3d 72 4b b2 bd be f9 73 3d 6a 9e 4a 3c
       0.0811586 -0.08705796 0.059564345 0.01236687
000090 a0 5d e9 bc c0 73 a7 bc a0 50 c4 3c b8 6f 34 3c
       -0.028487027 -0.020440936 0.023964226 0.011012964
0000a0 e1 ce 44 3d 4b 9c f7 3c 69 c0 e8 3d 34 5a 24 bd
       0.048048858 0.030225893 0.11364824 -0.040125087
0000b0 b9 e0 76 3c 6c da c4 3c 8f c4 d8 bd 00 c4 07 b9
       0.0150682265 0.024029933 -0.105843656 -0.00012947619
0000c0 80 83 a6 3a 48 63 01 3d 1b d8 ce 3c 4c 3e d5 3c
       0.0012703985 0.031588823 0.025249531 0.026030682
0000d0 73 93 d2 bd d9 aa be 3d 88 85 f2 bc ba 81 2f bd
       -0.1028203 0.0930993 -0.029604688 -0.042848326
0000e0 c5 16 5c 3d 43 ee 69 bd 80 99 96 ba 2b 1c ab bd
       0.053732652 -0.05711199 -0.0011489838 -0.08354982
0000f0 a3 d0 aa 3d 82 35 5f bd 60 79 a7 bc e7 f5 3e bd
       0.083405755 -0.05449439 -0.020443618 -0.04662123
000100 ec 76 ce 3c ab 16 f4 3d 94 e4 a0 bd 1c 09 bc bd
       0.02520319 0.11918386 -0.07856098 -0.09181425
000110 4f c9 c7 bd 8c 83 84 bc a0 3f 84 bc 7b 48 03 3d
       -0.097551934 -0.016176008 -0.01614362 0.032051545
000120 f0 fe ff 3b 9f 63 d3 3d 40 8e 3c bc 3a 51 83 bd
       0.0078123733 0.103217356 -0.011508524 -0.06411977
000130 07 0e 8f 3d 98 b8 95 bc d6 be 61 bd 81 7c cb bd
       0.069850974 -0.018276498 -0.055113636 -0.099358566
000140 ab 1b 62 bd 68 14 c7 bc cf a0 85 bd 06 2d 33 3d
       -0.055202167 -0.024301723 -0.065248124 0.04374411
000150 99 27 87 3d 47 f9 0c bd 00 0e fa ba f1 05 e9 3d
       0.065993495 -0.034417417 -0.0019077659 0.11378086
000160 84 e1 b0 bc 2a b8 84 3c 1d 68 ba bd 04 bf a0 3b
       -0.02159191 0.016201098 -0.09101889 0.0049055833
000170 b2 49 81 3d 76 ad 65 bd a0 8e d8 bd 3a 37 17 bd
       0.063128844 -0.05607363 -0.105740786 -0.036917903
000180 fe b0 f2 3c 75 8a 79 bd 44 56 82 3c 36 54 26 3d
       0.029625412 -0.06092306 0.015910275 0.040607654
000190 b3 95 28 3d 60 73 39 3b e1 cd 98 3d c0 40 de bc
       0.04115839 0.0028297529 0.07461143 -0.027130485
0001a0 b4 9a 9f 3c 9c 7f f8 bc 24 e2 ae bd 46 3d 54 3d
       0.019482948 -0.030334286 -0.08539227 0.051816247
0001b0 f3 96 ea bd f1 f4 a1 3d 72 49 02 bd 8c ff b8 bd
       -0.114545725 0.07908047 -0.031808324 -0.09033117
0001c0 25 32 cb 3d de d6 47 3d 20 b3 45 3c d0 ab 96 3b
       0.09921674 0.048788898 0.0120666325 0.0045981184
0001d0 07 70 cf bd 73 a1 a1 3d 8c c1 fd bc 15 15 89 3d
       -0.101287894 0.07892122 -0.03097608 0.06693474
0001e0 80 5d 57 3a 53 2a 99 3d bd c9 93 bb 1c fd c4 3c
       0.00082155317 0.07478776 -0.004510133 0.024046473
0001f0 b8 e8 81 bc 60 16 cb bd 60 a2 ba bb 6e eb 6e 3c
       -0.01585804 -0.09916377 -0.005695626 0.014582498
000200 c0 95 00 bb 95 31 b9 3d 78 aa 05 3d 2a 83 89 bd
       -0.0019620508 0.0904266 0.032633275 -0.06714471
000210 cb 50 d8 3d 22 70 be 3d 86 2b 85 3d c0 3f be 3b
       0.10562285 0.092987314 0.06502442 0.0058059394
000220 a6 81 9d bd d8 0d 01 bc a4 70 b8 bc e3 13 86 3d
       -0.07690744 -0.007876836 -0.022514649 0.06546762
000230 c8 99 06 bc 3c 3f 6f bd 84 6c 06 bc e8 6b a5 bd
       -0.008215375 -0.058409914 -0.008204583 -0.08077222
000240 59 7b 5b bb fe f8 07 3d 7a dc 0d 3d eb bb a3 bd
       -0.003349027 0.03319644 0.03463409 -0.07994827
000250 00 1e e4 3d 53 95 56 3d 80 9e f9 ba d9 a4 10 3e
       0.111385345 0.0523885 -0.0019044429 0.14125384
000260 30 b3 81 bb 00 9f b3 b9 dd 56 8e 3d e6 35 41 bd
       -0.0039581284 -0.00034260005 0.069501616 -0.047170542
000270 b0 56 c9 3b cf ac 13 3d 12 6d c5 3c c4 39 e1 3c
       0.006144367 0.036053475 0.02409986 0.027493365
000280 91 36 56 3d cb a0 a7 3d b4 3e c0 3c 2e 37 d3 3c
       0.052298132 0.08184966 0.0234674 0.025783148
000290 e4 f9 bc bd a0 2e 32 3c 4d 83 9e 3d 32 87 a6 bd
       -0.0922735 0.010875374 0.077398874 -0.08131255
0002a0 1d 9f 6e 3d 59 d9 b8 3d 5a 3a 00 3d af fe aa 3d
       0.05825721 0.09025831 0.03130565 0.08349358
0002b0 e1 6d cc 3c 06 b9 66 3d c0 73 db bc bb 68 c6 3c
       0.024954738 0.056328796 -0.026788592 0.024219861
0002c0 d1 ec 05 3c 06 cd 52 bd 3d 32 c0 bd ad 16 0e 3e
       0.008174137 -0.051465057 -0.09384582 0.13875838
0002d0 ba 3c 62 bd e2 2b 04 be ee e7 1e 3d 25 38 42 3a
       -0.055233695 -0.12907365 0.038795404 0.0007408879
0002e0 0b b4 f7 bd d8 c3 04 bc ff fd 92 bd 85 d7 fd bd
       -0.12094887 -0.008103333 -0.07177352 -0.12394623
0002f0 ac b6 cd bd 21 4f 72 3d 6b 73 fd 3c 29 98 80 3d
       -0.100446075 0.059157494 0.030938825 0.06279022
000300 3b dd 89 3d 2a 9f 2f 3d 4f 74 81 bd 9b 90 83 3d
       0.067316495 0.0428764 -0.06321012 0.06424066
000310 0c 0e 0e bd b2 97 13 3d 3c 45 3b 3d 20 f1 1a bb
       -0.034681365 0.03603334 0.045720324 -0.0023642257
000320 62 66 06 bd e0 d1 f1 bc fc c8 8c bd f0 b2 15 3d
       -0.032812484 -0.029519022 -0.06874272 0.0365476
000330 60 df ed bc 97 7d 92 3d c2 7d 33 bd 02 24 04 bd
       -0.029037178 0.071528606 -0.043821104 -0.032260902
000340 18 01 ab bd 72 32 33 3d 17 97 c7 3d 54 52 fb 3d
       -0.08349818 0.04374928 0.09745615 0.12271562
000350 b1 38 a5 3d fb 52 be 3d 84 54 6b 3c be bb bf bd
       0.08067454 0.09293171 0.014363412 -0.09361981
000360 ed 83 85 3d 47 a8 82 3d 80 a0 73 bb 70 07 4c 3d
       0.065193035 0.063797526 -0.0037174523 0.04981178
000370 a7 af 52 bd 6e 05 51 3d 0b 34 87 3d c6 91 29 3d
       -0.051437046 0.05103057 0.06601723 0.041398786
000380 87 b9 85 bd ad 3a 9b 3d 8e 87 4c 3c b6 a0 ba bd
       -0.06529527 0.07579551 0.012483491 -0.091126844
000390 56 bf 23 3c 84 64 fd bc b0 a4 82 3c 10 d9 83 3b
       0.0099943485 -0.030931719 0.01594767 0.0040236786
0003a0 00 8b 1c 3b 01 22 28 3d 8c f2 c7 ba 10 f6 3b bd
       0.0023886561 0.041048054 -0.001525478 -0.04588896
0003b0 60 cb 84 bc 34 e7 f1 3c 41 5f 42 bd c3 ad 0e 3d
       -0.016210258 0.029529192 -0.047454122 0.03483368
0003c0 87 3e ac bd d3 74 f7 bb aa 02 1c 3d be 9e 89 3c
       -0.08410364 -0.0075517683 0.03808848 0.016799327
0003d0 18 ac ed bc e4 ca bb bd f5 16 9a bd 18 5a a0 bd
       -0.029012725 -0.09169558 -0.0752391 -0.07829684
0003e0 09 51 97 3d db 42 ac 3d e7 6d ef 3d fd bc 9d 3d
       0.07388503 0.08411189 0.11690884 0.07702062
0003f0 4b df 30 be 21 68 2c bd 30 7c 40 3c 08 de 96 3c
       -0.1727268 -0.042091493 0.011748359 0.01841642

layer1.bias f4 [256]
000000 f4 40 ad 3d 0f eb c8 3d df 00 b9 bc 7a 7e ec 3c
       0.084596545 0.09810459 -0.022583423 0.028868902
000010 e8 c7 dd 3d 9e aa ba 3c 1c 8f f9 3d 40 95 4b 3d
       0.10829145 0.022786435 0.12185499 0.049702883
000020 bc 10 a3 bd 95 ee 7a ba 73 40 7d 3d e8 ec 95 3d
       -0.07962176 -0.00095722947 0.06182904 0.07320577
000030 cd bd 16 bd a5 a2 1d bc dc aa ae 3d 25 e3 52 3c
       -0.036802102 -0.009621297 0.085286826 0.012871538
000040 6f 44 86 bc 67 4a 1d bd 4d 60 a1 3d ee dd 2f 3d
       -0.016390054 -0.038401034 0.07879696 0.042936258
000050 01 53 d8 3d 2e fa 32 3d a8 6c 04 3e ff d6 93 3c
       0.10562707 0.04369562 0.12932074 0.018046854
000060 00 40 56 bd 45 25 a9 3d 22 c8 c6 bd 6a 27 6a bd
       -0.05230713 0.08259062 -0.09706141 -0.057166494
000070 16 6a a8 3d 6a 64 c8 3d 87 4d 96 bc 17 06 cd 3d
       0.08223359 0.097847775 -0.018347515 0.10010927
000080 16 63 d3 3d 16 6d bf 3d fd 34 6b bb 9f ce cd bd
       0.103216335 0.09346978 -0.0035889738 -0.100491755
000090 b2 f0 b1 3d 39 b4 23 3d 31 09 68 bd a8 76 61 bd
       0.08688487 0.039966796 -0.05664939 -0.0550448
0000a0 cd cb 7b bd 80 20 40 3c b7 a7 2d 3d 49 12 06 bc
       -0.061473656 0.011726499 0.042396273 -0.00818307
0000b0 26 4d 3e bd a4 4c d6 bc b9 11 50 3d a9 0d d7 3c
       -0.046460293 -0.026159592 0.05079815 0.02625163
0000c0 d8 7d 23 bc 5f 7e 4f 3d f4 59 66 3d 47 9a f3 bc
       -0.009978734 0.050657626 0.05623813 -0.029736651
0000d0 e7 97 16 bd 4d 23 5b 3d 1e b0 88 bd 3e f7 89 3d
       -0.03676596 0.053500462 -0.06674217 0.06736611
0000e0 7d d7 7f bc bc 39 2b bd fd 51 99 3d 3d 8e b9 bd
       -0.015615341 -0.041803107 0.07486341 -0.09060333
0000f0 15 ee b9 3d bd 84 c7 3c f3 8f 5e bd a3 17 99 3d
       0.09078614 0.024355287 -0.0543365 0.074752115
000100 19 30 6c 3d 64 5a 56 3b b4 52 64 bd 13 c7 12 bd
       0.057663057 0.0032707686 -0.055742934 -0.035834383
000110 82 f3 94 bd 53 ef f4 bc f6 20 4b 3c a7 60 28 3c
       -0.07273008 -0.029899275 0.012397995 0.01027695
000120 ea 4a 4e bc b0 35 0a bd ba 8b 4a bc b8 bc 0f 3c
       -0.012591103 -0.033742607 -0.012362415 0.008773021
000130 1a ef a7 3a 4c 20 91 bd 79 7b b1 3c 78 ea 16 3d
       0.0012812347 -0.07086238 0.021665322 0.0368447
000140 1e e4 0a bd 9e d2 8f bc 56 4c 7c 3d 8f be 04 3e
       -0.033908956 -0.017556485 0.061596237 0.12963317
000150 70 fe 84 3b b6 75 1a 3c 2c 6d 80 3c bf a4 69 3b
       0.0040586516 0.009427479 0.015677057 0.0035651175
000160 75 3a 9e 3d f3 99 4f 3d 8d de 29 3c 8d ee b6 bb
       0.077259935 0.050683927 0.010368002 -0.0055826367
000170 46 24 5b 3d 88 7f 02 bd e6 ee e4 3d 64 61 a0 bd
       0.05350139 -0.031859905 0.11178379 -0.07831076
000180 6a 44 e9 3d 1b 97 d4 bc ae 3b b5 3c 4f 1b ca 3d
       0.11390002 -0.025950959 0.022123184 0.0986849
000190 dc ef dd bc 1f 64 64 3c 69 af a8 bc e5 4a dd 3c
       -0.027091913 0.013939886 -0.020591455 0.027013252
0001a0 5a 84 09 bd 23 42 5e bd 5e fa 8b bd 7b 61 66 3d
       -0.033573486 -0.05426229 -0.06834863 0.05624531
0001b0 dc 72 ea bc a5 d4 b8 3c 16 17 8a bc fc c4 9d 3d
       -0.028619222 0.022562334 -0.016856711 0.077035874
0001c0 79 2e 35 bd 90 b3 48 bb 10 46 af 3d ab 7d c6 ba
       -0.044233773 -0.0030624606 0.08558285 -0.0015143653
0001d0 8d f7 b8 3d f3 f7 1b bd 77 e5 ae 3d 47 95 a1 3d
       0.090315916 -0.03807826 0.08539861 0.078898005
0001e0 44 9f a7 3d 4b a0 db 3d 99 2f e1 3b 36 69 87 bd
       0.081846744 0.10723933 0.006872129 -0.06611864
0001f0 12 fe 55 bd ce b9 44 3c 1e fd 96 bd d5 b4 ad 3d
       -0.052244253 0.01200719 -0.07372497 0.084817566
000200 db a4 2c 3d 56 c3 5e bd bb 2c 64 bc ca c7 bb 3d
       0.042149406 -0.054385506 -0.01392668 0.09168966
000210 54 cc 63 bd 67 1f b4 3d a3 2a cd 3c 45 27 b5 bc
       -0.055614784 0.08795052 0.025044745 -0.022113452
000220 c4 2b 84 3d cc b6 6e bd 8b 54 1b bc 18 29 ea 3c
       0.0645366 -0.058279797 -0.009480606 0.028584048
000230 13 59 24 bd 0a 62 3b bd 00 6f 59 3d ef 6e 3e bd
       -0.04012401 -0.045747794 0.053084373 -0.046492513
000240 7f cd 53 3d 26 94 09 3e f7 3f 2f bc 5e a5 69 bc
       0.05170965 0.1343542 -0.010696403 -0.014260618
000250 a5 d6 05 3d 74 70 be 3b c1 a3 d2 3d 4d d5 73 bd
       0.032675404 0.0058117453 0.1028514 -0.05952959
000260 37 89 6f 3c 23 51 e6 3b 55 14 54 bd 60 c1 02 bd
       0.014620117 0.007028715 -0.051777203 -0.031922698
000270 d8 83 94 bd 1e 35 b2 3d cb 48 3a ba a6 87 93 3d
       -0.0725171 0.087015375 -0.0007106184 0.07203607
000280 26 c5 90 3d 2e 4d 36 bd 01 cd ac 3d 70 28 4e bd
       0.07068853 -0.044507198 0.08437539 -0.050331533
000290 4a cc 94 3c 13 d7 5e 3c 97 c2 ce 3c 49 c1 08 bd
       0.018163819 0.013601082 0.025239272 -0.033387456
0002a0 d0 cd 5b bc cb 52 94 bd 26 ef 58 3d 71 fc f1 3d
       -0.013415769 -0.07242354 0.052962445 0.118157275
0002b0 9a b3 5b 3d 58 4d c0 3d 8f f4 29 bc ff 4b 96 3d
       0.05363808 0.09389752 -0.010373249 0.07338714
0002c0 72 95 b0 bd 4a 85 d4 3d f3 cb ad 3c 53 26 b2 3b
       -0.086222544 0.10376985 0.021215415 0.0054366975
0002d0 e1 7b 98 3d fc 91 5e bc db ad bc bc 08 26 19 bd
       0.07445503 -0.01358461 -0.02303212 -0.037389785
0002e0 77 46 8e bd 7d ce cd 3b ea 0e fa 3c 2d 59 d9 bc
       -0.06947034 0.006280719 0.03052469 -0.02653178
0002f0 9e 43 d0 3d 00 55 80 bc 93 79 91 bd 35 63 89 3c
       0.10169147 -0.015665531 -0.071032666 0.016770938
000300 c7 8c a2 bd 0f f1 c2 ba cc b8 45 bc 70 b3 06 bd
       -0.079370074 -0.0014872866 -0.012067985 -0.03288597
000310 4a 4a d3 3d c9 54 ac 3d 18 4b a7 bd 75 46 9f bc
       0.10316904 0.08414609 -0.0816862 -0.019442776
000320 c3 92 d7 3b 1a 78 81 3d a7 d0 07 3e a5 37 b3 3d
       0.0065787747 0.06321736 0.13263188 0.08750848
000330 86 0b 80 3c eb c0 59 bd c2 b6 e1 3d bc df 8a bd
       0.015630495 -0.053162497 0.110211864 -0.06780955
000340 bb 9a 6b 3d 07 c3 ac bd d8 d1 7a 3d 81 af 91 bc
       0.05752061 -0.08435636 0.06123528 -0.017783882
000350 20 a6 87 bd 12 83 42 3d 4c dc b1 3d 93 c7 cd 3d
       -0.06623483 0.04748828 0.086845964 0.100478314
000360 ac cc 4c 3d 45 c9 a6 bc cb 52 82 3d 89 1b a2 3d
       0.049999878 -0.020359645 0.06363448 0.07915408
000370 50 df 77 3d a8 2c c4 3d b0 e7 d8 3d 44 06 8d 3d
       0.0605157 0.0957883 0.10591066 0.06885961
000380 c3 b2 b7 3d 74 8e aa 3d 89 fd bd bd 5e 95 bc 3d
       0.08969643 0.08327952 -0.092768736 0.09208177
000390 d4 27 1d bd d2 2c 01 3d 5a ea 23 3d d1 d1 05 3e
       -0.03836806 0.031536885 0.040018417 0.1306832
0003a0 56 b0 11 3d 78 af 18 bd af 28 c2 bc b4 d0 a8 3d
       0.035568558 -0.037276715 -0.02370104 0.08242932
0003b0 91 6a 9e 3d 69 d3 99 bd 7b af c9 bc b6 fd 8c 3c
       0.0773517 -0.075110264 -0.024619808 0.017210823
0003c0 95 7a 0a bd c6 9c 59 bd d9 44 8b 3c 82 d9 30 bc
       -0.03380831 -0.053128026 0.017000603 -0.010794045
0003d0 d4 ad 48 bd a2 b3 12 3d be e4 b8 3d 68 23 c6 bc
       -0.0489939 0.035815842 0.09028004 -0.024186805
0003e0 ab be 5b bd e4 36 98 3d a0 3a 9b 3d 91 12 1a 3d
       -0.053648632 0.074323446 0.07579541 0.037615363
0003f0 ef 9a 68 3d 02 de d1 3d 3b 83 fd ba ef c6 5a 3d
       0.05678838 0.10247423 -0.0019341478 0.053412374

layer2.weight f4 [128, 256]
000000 9f 69 7e 3d 42 91 4c 3c fc 2e f0 ba be 78 41 3d
       0.062112447 0.012485804 -0.0018324549 0.04723429
000010 7a 9c 55 bd 82 54 7b 3c ce de bf 3c 6d c7 aa bc
       -0.05215118 0.015339972 0.023421671 -0.020847047
000020 ce e6 dd bc c5 b7 34 3d c6 fc 5f bd 5b 22 83 3d
       -0.027087595 0.04412057 -0.054684423 0.06403037
000030 30 be b1 3b ee 26 d6 3a c5 68 70 bd ef 57 48 bc
       0.0054242834 0.0016338506 -0.058693666 -0.012227996
000040 af b0 42 3d fd a9 30 3d 33 90 2d bd 83 af 32 bd
       0.04753178 0.043130863 -0.042373847 -0.043624412
000050 89 4b 2f 3c f1 7a b3 bb 75 f6 6d 3d 7e c3 8f bc
       0.010699161 -0.0054773022 0.058096368 -0.017549273
000060 ec a7 d5 bd f0 09 9a 3d 34 e4 4f bd d9 13 89 3d
       -0.10432419 0.07521427 -0.05075474 0.06693239
000070 cf 79 14 3c c2 ff 3f bd 01 a3 d3 bc 1d c6 bf 3c
       0.009062245 -0.04687477 -0.025834562 0.023409897
000080 79 08 24 bd 1e db 2d bd be 0d 78 bd 24 3f 1e bc
       -0.040047143 -0.042445295 -0.06055998 -0.009658609
000090 8f 6e 3b bb 62 35 09 3d 34 62 a2 3d 42 c5 28 3d
       -0.0028599834 0.033498175 0.07928887 0.041203745
0000a0 03 74 21 3d 6e 2d 12 bd 4d 8e 97 bc 9e 54 0a bd
       0.039417278 -0.035687856 -0.018500471 -0.033772103
0000b0 b5 f1 77 3d 13 86 2e 3d a4 e7 c4 3c b5 51 f0 bd
       0.060533244 0.042608332 0.024036236 -0.117343344
0000c0 e4 92 7a bd 8d 0f 18 3d b1 c5 50 bd 02 89 17 bc
       -0.061175242 0.037124205 -0.050969783 -0.009248974
0000d0 40 7b 02 3c 04 e7 1e 3d bb d8 04 be 47 76 33 bd
       0.007963955 0.038794532 -0.12973301 -0.04381397
0000e0 3d 1a bf 3d cf 67 71 3d bf 76 40 3d bb de 5e 3d
       0.093311764 0.05893689 0.046988245 0.05441163
0000f0 86 51 31 bc 21 92 52 bc e8 45 b7 3b 6d 16 ad 3c
       -0.010822659 -0.012852223 0.0055930503 0.021128858
000100 62 e7 8d 3c 9a bf ef 3b b7 8e be 3d 3a 62 c0 bb
       0.017322246 0.007316542 0.093045644 -0.0058710845
000110 ed 55 a9 bb 96 8e 16 3d 33 7c a0 3b 56 90 11 bc
       -0.005167714 0.036757074 0.004897618 -0.00888451
000120 f0 3d 61 bd f6 3d 7d bd 67 6d 89 3d 46 be e9 3c
       -0.05499071 -0.06182667 0.0671032 0.028533112
000130 aa 11 c6 bb 57 2c 2b 3c de e4 31 3c b5 b1 2f bb
       -0.006044586 0.010447583 0.010857789 -0.0026808803
000140 31 a0 e1 3d 40 2d 32 bc 85 b0 23 bc 0a ea 23 bb
       0.11016882 -0.010875046 -0.009990816 -0.0025011324
000150 3b d5 56 3d 29 b0 17 3d 46 b4 e6 3d 4e df b7 bd
       0.052449446 0.037033234 0.11264853 -0.08978139
000160 bf ae 18 3d 2a 2a 5a bc fd 0a 37 bd 1a c9 16 bd
       0.037276026 -0.013315717 -0.044688214 -0.03681288
000170 95 a6 e0 bc 1d 78 8f 3d c8 ef 8f bc 35 7b b9 bc
       -0.027423183 0.07005332 -0.017570391 -0.022641758
000180 21 5b 93 3b 8a a9 b4 bc 06 71 35 3c bb f3 7e 3c
       0.0044969474 -0.022053499 0.01107431 0.01556104
000190 58 e4 94 3d 65 dc 1d 3c e9 99 d7 3c 27 9d 09 3d
       0.072701156 0.009635066 0.026318507 0.033597138
0001a0 c0 d9 d8 3a e0 fa ba bd 77 a5 6f bc 62 bd a8 3d
       0.0016544387 -0.09129882 -0.014626852 0.08239247
0001b0 b3 b6 ae 3d 22 2f 1b 3d 60 f0 60 bb ca 9f de bc
       0.08530941 0.037886746 -0.0034322962 -0.027175803
0001c0 5b 0d 63 bb 56 cc cd bd 8f 17 a2 3d 11 2e 42 3d
       -0.0034645412 -0.100487396 0.0791465 0.047407214
0001d0 39 94 9c 3c ba ae 3f bd 6b 49 d0 3d 53 2e 1c bd
       0.019113647 -0.04679749 0.10170253 -0.038130116
0001e0 10 44 3c 3c ce 65 b1 bc bd 70 80 3d 07 b3 f0 3b
       0.011490837 -0.02165499 0.06271503 0.0073455605
0001f0 6a dd a1 3d e2 66 80 bb d7 d6 a3 bd e2 7f b4 3b
       0.079035595 -0.0039185146 -0.07999962 0.005508409
000200 38 8f 6e 3c 99 80 b9 3d 22 7b 02 3d 74 fe 70 3c
       0.014560513 0.09057731 0.03185571 0.014709104
000210 6b 72 80 3b 55 00 f3 ba 30 0e f4 3c 38 00 45 3d
       0.0039198897 -0.0018539528 0.029791921 0.04809591
000220 02 c0 5c bb 98 c3 e5 3c b6 b0 94 bc 81 4b 83 3d
       -0.0033683782 0.028047368 -0.018150669 0.064108856
000230 8c 10 23 be 65 6f 86 3d b1 44 c2 bc 9b 13 da 3d
       -0.15924281 0.065642156 -0.023714395 0.10648271
000240 62 9e 17 3e 08 16 eb 3c 63 48 eb 3c 3e b1 02 3c
       0.14806512 0.028697029 0.02872104 0.007976828
000250 da c0 aa 3c c4 f6 8e 3d b4 c2 08 3d 14 46 0f 3c
       0.020843912 0.069806606 0.03338881 0.008744735
000260 9d 9f 8d bb 1f db fa bb 8f c9 09 be 5a 69 26 bd
       -0.004322006 -0.007655516 -0.13455795 -0.040627815
000270 8c 3c d9 bd b1 40 06 3d 71 5f 22 bd ed 72 4e 3d
       -0.106072515 0.03277654 -0.0396418 0.05040257
000280 91 f3 63 bc 56 96 64 bd 5f c2 b3 bc e8 2b 8f bd
       -0.013913051 -0.055807434 -0.02194327 -0.06990796
000290 a3 38 71 3b 37 e8 6b 3d 9b bd ca bb 58 c9 f3 3b
       0.003680744 0.057594504 -0.0061871535 0.0074397735
0002a0 f9 ed e8 3d 94 63 9b bd 41 49 3b 3b ef 54 91 bc
       0.11373515 -0.075873524 0.0028577598 -0.017740695
0002b0 c8 d1 6b 3d 9a 67 9b bc c3 16 56 39 6c ae 18 3b
       0.05757311 -0.0189703 0.0002041711 0.0023297323
0002c0 bf f7 5b bd f9 2a 30 3d d9 9d 71 3d 50 ca 86 bc
       -0.053703066 0.043009732 0.058988426 -0.016453892
0002d0 79 61 45 3d 41 aa e6 3d 5d 22 e4 3c da 5d 49 bc
       0.04818866 0.11262942 0.027848417 -0.012290442
0002e0 5f 95 3b bd a7 51 01 be 24 2a b7 bc 6d 30 90 3d
       -0.04579675 -0.12628804 -0.022358961 0.070404865
0002f0 8b e2 16 bd 0d 74 c0 3d 82 52 ba bc 9c cb 8a bc
       -0.036837142 0.09397135 -0.02274442 -0.016942792
000300 91 a6 d1 3d 8a 24 a9 3d 2d d8 eb 3d ea c8 a3 bd
       0.10236848 0.082589224 0.11515842 -0.07997306
000310 bf b3 84 3d 93 f0 3f bd f9 d9 32 bd 98 f1 9a 3c
       0.06479596 -0.04686029 -0.043664906 0.018914029
000320 56 0b 8d 3c 07 d1 30 3d 9b 74 79 3d d5 ba 64 bc
       0.01721732 0.043168094 0.06090222 -0.01396056
000330 8b c7 18 bb 5a bb 2e 3a 2a ef 0b 3d 92 55 3c bd
       -0.0023312296 0.0006665491 0.03416363 -0.045980044
000340 92 36 88 bc bb 21 d8 3c 17 84 06 3d 1b 15 91 3c
       -0.016627584 0.026383271 0.032840814 0.01771026
000350 8b 3c 87 3d d3 97 04 3d 10 35 9c 3b b4 7f 08 3e
       0.066033445 0.032371353 0.0047670677 0.13329965
000360 fb 87 cd 3d 88 20 01 be a4 b4 82 bd b1 27 33 3c
       0.10035702 -0.12610066 -0.06382111 0.010934756
000370 25 fc 0f bc cd 94 65 bd 71 a5 df bc d4 a7 88 3b
       -0.008788143 -0.05605011 -0.027300568 0.0041703973
000380 9a be 74 3d 14 0b d2 bc d1 4a a7 3c 8a f9 d9 bc
       0.059752084 -0.025640048 0.020421417 -0.026608247
000390 04 0c 90 bd 0b bd 8d 3c b9 d8 6f bb 1b d6 d1 3c
       -0.07033542 0.017302057 -0.0036597683 0.025614789
0003a0 6f c3 c7 bc ba ed 0b 3d ce eb 87 bd e8 16 c9 ba
       -0.024385182 0.03416226 -0.06636773 -0.001534191
0003b0 ed 17 eb bc 06 c6 69 3b a9 50 f7 3c af 76 3c bc
       -0.028697932 0.003567101 0.030189829 -0.011502906
0003c0 ee 55 94 3c 86 5b 65 bd e9 50 9b bd 19 60 46 bd
       0.01810738 -0.055995487 -0.07583792 -0.04843149
0003d0 9f 7f a2 bc fe cd 07 bd f5 57 6d 3d e6 e3 32 3d
       -0.019836245 -0.033155434 0.05794521 0.043674372
0003e0 2f 1c 58 3c 52 ce 3c 3d 49 77 01 bd 7f 49 84 bc
       0.013190313 0.0460952 -0.0316079 -0.016148327
0003f0 97 20 af 3c a0 aa 49 3d 97 61 86 ba 62 33 9d 3b
       0.021377845 0.049234986 -0.0010252473 0.004797385

layer2.bias f4 [128]
000000 49 92 80 3d 01 44 45 bd 46 19 33 3d 60 a0 04 bc
       0.06277902 -0.048160557 0.043725275 -0.008094877
000010 ca 5e 5a 3d 62 46 d0 3c 4b 80 5d bd 06 3e ba ba
       0.053313054 0.025424186 -0.054077428 -0.0014209158
000020 da ee 30 3d ad e5 8f 3b 83 e1 9a bc f0 00 1e 3d
       0.043196537 0.004391393 -0.01890636 0.038575113
000030 e4 1b 44 bb 95 02 0d bd 1f 85 fa 3c c2 7b 2e bc
       -0.002992385 -0.03442629 0.030581055 -0.010649623
000040 56 3a db 3b 19 24 1b 3d 07 10 4f 3c e3 ca 1c bd
       0.006690304 0.037876222 0.012638099 -0.038279425
000050 78 7a 9c 3d 2f a6 85 3d ac d2 9f 3d 15 23 8c 3d
       0.076405466 0.06525838 0.07803854 0.06842629
000060 d1 83 85 3c 27 3c b2 3a d7 01 2c 3d f6 0d 00 bb
       0.016298207 0.0013598249 0.041993942 -0.0019539571
000070 25 72 27 bc 7d 1e 8a 3d f4 58 a3 3c 53 44 35 3d
       -0.010220085 0.067440964 0.019939877 0.044254612
000080 a0 98 75 3c c4 09 77 3d 05 96 58 3d b8 75 7f 3d
       0.014990002 0.060312048 0.052877445 0.062368125
000090 21 ef 91 bc 09 24 44 bc d1 b5 1d 3d fa ec 11 bd
       -0.01781422 -0.011971482 0.03850347 -0.03562639
0000a0 12 12 1c bd e8 03 79 3c 27 60 56 bc 8a ef ef 3c
       -0.03810317 0.015198685 -0.013084448 0.029289026
0000b0 16 75 91 3d a5 5a 92 3d 4b 78 c2 bc 07 5f 59 bd
       0.071024105 0.07146195 -0.023739 -0.05306914
0000c0 50 2e b9 3d 24 e7 40 3a ec 6e d4 bc 1d a7 72 3c
       0.090420365 0.00073586614 -0.025931798 0.014810351
0000d0 08 04 bf bc c9 4e 24 3d 22 78 56 3d a7 07 57 bd
       -0.023317352 0.040114198 0.05236066 -0.052497532
0000e0 c8 a5 7c 3d fc 87 a8 39 f9 f4 e5 ba 35 a2 32 bd
       0.06168154 0.00032144773 -0.0017544321 -0.043611724
0000f0 fe ae 70 bd 8a 41 c1 bb b1 14 1a 3d 1c 9e a2 3c
       -0.058760636 -0.0058977054 0.03761739 0.019850783
000100 ed 43 a3 3c 0d c7 4e bd 7b 27 37 3d bd d7 47 bc
       0.01992985 -0.0504828 0.044715386 -0.012197432
000110 cd 26 e7 3c f7 80 7a 3d ec fa 9d 3d 34 18 6c 3d
       0.028216744 0.061158147 0.07713875 0.05764027
000120 ed a6 e4 bc 2d ee 07 3d 06 99 df 3c b8 f1 09 3d
       -0.027911628 0.033186127 0.027294647 0.033677787
000130 cb f9 0b 3d 7e 41 82 3d 3d b3 80 bc 71 24 0c bd
       0.034173768 0.06360148 -0.015710467 -0.03421444
000140 2d b6 0b 3d 39 43 3d 3d 84 3c 3e bc f7 86 71 3d
       0.034109283 0.046206687 -0.011611108 0.058966603
000150 e2 a7 5f 3d 1e 0d 5e 3d b1 e2 2c bd c1 d1 51 3d
       0.054603465 0.05421173 -0.042208377 0.051225428
000160 ed 4b dd 3c 39 98 81 3c 83 6a 38 3d 69 c4 20 bd
       0.027013743 0.015819656 0.045023452 -0.03924981
000170 61 8f 6a 3d a2 5e 9b bc b8 88 93 3c d3 e5 0c 3c
       0.057265643 -0.018966023 0.018009529 0.008599716
000180 2a 48 c8 bc 0d c0 20 bc aa 16 ac 3b 1a 57 2a bd
       -0.024448473 -0.0098114135 0.005251725 -0.041586973
000190 69 63 00 3d e8 a7 45 3d 8c 9a 89 bc 17 49 70 3d
       0.031344805 0.04825583 -0.016797327 0.058663454
0001a0 81 65 4d bd 3a 76 51 3d 46 9e be bb a1 b6 c5 3c
       -0.05014563 0.05113814 -0.0058172075 0.024134936
0001b0 5e 00 8f 3d 88 6b 96 3d ce 8b 5b bc 17 3d 94 bc
       0.06982492 0.07344729 -0.013400031 -0.018095536
0001c0 26 be 3d 3d 95 a0 2c bc 9b 48 0d 3c 46 b2 2a bc
       0.046323918 -0.010536333 0.0086232675 -0.01041848
0001d0 1b b9 e9 3c f2 e0 e7 bc 6a 83 a7 3d 24 06 05 3d
       0.028530648 -0.028305504 0.08179362 0.03247656
0001e0 cb 33 47 bd 78 7d e3 bc 90 41 65 3c 92 57 fa bc
       -0.048633378 -0.02776979 0.013992682 -0.030559335
0001f0 a0 2f b8 3c 6c 52 e4 3c 8f 35 ed bc ae 53 6c 3d
       0.022483647 0.027871333 -0.028956203 0.05769699

layer3.weight f4 [30, 128]
000000 5b 9a 6c 3d 78 1f 75 be fe 5f f6 3d 85 dc 24 3e
       0.057764392 -0.23937786 0.12030028 0.16099747
000010 60 cb 42 be 9d 04 15 3e 6b dc 52 be 64 2d 84 3d
       -0.19022894 0.14552541 -0.20591895 0.0645397
000020 53 9f 2b 3e 2b e2 0f 3e 1a fa 51 bd 27 55 9b bd
       0.16759996 0.1405112 -0.051263906 -0.07584601
000030 f1 7d a0 3d 4c 1c 1d be 35 77 15 be 25 e2 ba bd
       0.078365214 -0.15342826 -0.14596255 -0.09125165
000040 90 bf 31 3e 07 16 2e 3e 97 46 06 be f5 15 f9 bd
       0.17358232 0.1700059 -0.13112865 -0.12162391
000050 d8 cb 02 be 38 5b 16 3e 35 ba a5 bd ba 3e 09 3e
       -0.12773073 0.14683235 -0.08092157 0.13402835
000060 54 3e e9 3d 6b d7 0b be 58 15 77 bd 79 8b 7d be
       0.11388841 -0.13656394 -0.06032309 -0.24760236
000070 7b 89 f3 3d 0c d7 40 3d 13 24 1d be c6 d0 16 be
       0.11891457 0.047080085 -0.15345792 -0.14728078
000080 88 53 13 be 0f 67 26 3e 73 3e 25 be 4c 11 35 be
       -0.14387333 0.16250251 -0.16137104 -0.1768238
000090 1c 8a 30 3e 99 33 df bd 83 6c 24 3e 84 5c 07 3e
       0.17240185 -0.10898513 0.16057019 0.13218886
0000a0 9c b1 1b be 5d bf 0a 3e af 17 42 bd 5f de 3c be
       -0.15204471 0.13549562 -0.047385868 -0.18444203
0000b0 3e 96 da bd 9e a2 46 be b9 7c 49 3e b9 5d 0c 3c
       -0.10673188 -0.19397971 0.19676484 0.008567267
0000c0 0a 82 05 be d5 4c 66 3c 3d 16 12 be d3 00 40 3d
       -0.13037887 0.014056404 -0.14266296 0.046875786
0000d0 9e 0a 66 be 02 41 1f 3e 6f 8a 3a be c4 e6 2c 3e
       -0.22464988 0.15552142 -0.1821687 0.16884905
0000e0 15 70 a8 3d eb 3e 36 3e 2b 59 75 3c cf f6 25 be
       0.08224503 0.17797439 0.014974873 -0.16207431
0000f0 df 15 a2 bd 74 cb f0 3d fd af 8c bd 36 66 e7 bd
       -0.07914328 0.117575556 -0.068695046 -0.11298792
000100 ee 9f 21 3d 8b 95 e8 3d 88 ef 01 3e 60 48 38 3e
       0.03945916 0.11356648 0.1268903 0.17996359
000110 55 09 41 be 8a 84 6d be d4 03 2f be d2 ac 07 3d
       -0.18851216 -0.23195091 -0.17091304 0.0331238
000120 2e 1b 79 be b9 49 1e be 0e 22 eb 3d 3e d2 e2 3d
       -0.24326774 -0.1545781 0.11481105 0.11075257
000130 7b 01 68 be ff 37 09 3e e5 6c cd 3d ad ff ae bc
       -0.22656815 0.13400267 0.100305356 -0.02136215
000140 dc 41 cf 3d 13 01 e5 3d 4b b5 20 be ed 50 89 be
       0.101199836 0.111818455 -0.15694158 -0.26819554
000150 70 9e 05 3e 56 81 d6 bd 39 57 f1 bd b9 1e e5 bd
       0.1304872 -0.104738876 -0.117842145 -0.111875005
000160 1a f4 88 be bf 5e 73 be 74 b2 7e be 68 ee 6c be
       -0.26748735 -0.23766612 -0.24872762 -0.2313782
000170 fe 0d 25 3e 32 dc 50 3e f7 89 c8 3d 0b b6 a7 bd
       0.16118619 0.20396498 0.0979194 -0.08189019
000180 80 3a cb 3d e0 bb f1 3d 69 0a cf bd 29 3b 1e 3e
       0.09923267 0.118034124 -0.101094075 0.15452255
000190 27 d4 2e 3e 20 fa 13 3e 78 79 17 3e 39 17 b6 bd
       0.17073117 0.14450884 0.1479243 -0.08891148
0001a0 c5 bd 80 3d 0c 3a 89 bd 17 91 2a 3e 12 4a de 3d
       0.06286196 -0.06700525 0.1665691 0.108539715
0001b0 fd ec 42 3e fd 51 15 be 3b 3c 41 3e c7 e4 84 3c
       0.19035716 -0.14582057 0.18870632 0.01622237
0001c0 7e 8d 36 be 0e f0 2d 3e 57 9a 19 3e 24 04 e5 3d
       -0.17827412 0.16986105 0.15000282 0.111824304
0001d0 78 28 37 be 78 1c 81 be 0c d7 31 be 95 48 5c be
       -0.17886531 -0.25217032 -0.1736719 -0.21512063
0001e0 4f 5d 21 3e a7 63 15 3e 17 82 9f 3d 37 ab 13 3e
       0.1575825 0.14588796 0.077884845 0.14420782
0001f0 e9 0b 15 3e a2 8a b4 3c 3e 33 c4 bd 07 4c 7b be
       0.14555325 0.022038762 -0.09580086 -0.24540721
000200 8a 94 aa 3d d3 31 26 3e 50 d1 af bc 43 8e 55 bd
       0.08329113 0.16229944 -0.021462113 -0.052137624
000210 9f fc 54 be e9 47 46 3d ec 18 95 be 9b 41 66 3c
       -0.20799492 0.048408423 -0.29120576 0.0140537275
000220 d5 dd 48 3c b3 97 5b 3d 7e 98 48 3d 66 14 01 bd
       0.01225992 0.05361147 0.048973553 -0.031513594
000230 59 6d a7 bd 18 48 de bd 0a 1b c1 bd ca 37 a6 3d
       -0.08175153 -0.108535945 -0.094289854 0.0811611
000240 01 36 83 3d 7b 76 e5 bd 24 a5 68 bd 56 ef 1c be
       0.06406785 -0.11204239 -0.056798115 -0.15325674
000250 93 fc b6 3d 86 70 a7 bd 42 d3 1f bd f2 f8 67 3d
       0.089348935 -0.08175759 -0.03901983 0.056633897
000260 3f ae ac bd 69 f0 3d bd 1d 58 ae 3d d3 73 b0 bd
       -0.08431672 -0.04637185 0.085129 -0.08615842
000270 b0 e2 00 be af 72 a5 3d 09 3f 38 be 26 a4 c7 3d
       -0.12586474 0.08078515 -0.17992796 0.09748106
000280 e4 c5 a3 3d dc a2 b4 3c bf 72 84 bd 96 9e 3e be
       0.07996729 0.022050314 -0.064671986 -0.18615183
000290 e5 b1 75 3d 6e 07 dc 3d b0 16 7e bd 7c 76 c4 bb
       0.059984107 0.107436046 -0.062033355 -0.0059955698
0002a0 55 24 11 be af 1b b6 bd 42 91 cd bd 12 9a f8 3c
       -0.14174016 -0.08891999 -0.10037471 0.030346904
0002b0 a7 f9 e8 3d e4 cb 66 bd b4 66 e8 bd 77 a5 63 bd
       0.113757424 -0.05634679 -0.11347714 -0.05557772
0002c0 51 6e 2e bd 6b 48 82 3d a2 a1 13 3d 9f e7 95 bc
       -0.042585675 0.06361469 0.036042817 -0.018298922
0002d0 28 c3 92 3d 53 e1 f0 bd 7f c8 31 bc ac e7 9e bd
       0.07166129 -0.11761727 -0.010851025 -0.07759032
0002e0 4b 67 84 3d e5 a1 ab 3c 8d cf d3 3d 70 46 ae 3d
       0.06465014 0.02095122 0.103423215 0.08509529
0002f0 d8 01 6e bd b2 6b 00 3e b7 bd 21 ba 6d 5b 2a bd
       -0.058107227 0.12541083 -0.00061699323 -0.041591097
000300 73 b3 67 bd aa a0 8a 3d 9e 74 44 be 97 eb 75 3c
       -0.05656762 0.067689255 -0.19185111 0.015009782
000310 9c 21 59 bd d0 80 0a 3e 2a ff 78 bc e4 bb 30 3e
       -0.053010568 0.135257 -0.015197555 0.17259175
000320 b9 d3 47 be 93 ba 87 3b 66 7c cc bc 7b 35 06 bd
       -0.1951436 0.0041421144 -0.024961662 -0.032765847
000330 13 78 d4 3d 33 54 5c bd 9c c9 0c bc 0e 35 99 3d
       0.10374465 -0.053791236 -0.008592989 0.074808225
000340 76 97 f1 3d 51 f9 b2 3d ab 01 0a bd 38 58 bb bd
       0.11796467 0.087389596 -0.033692997 -0.09147686
000350 9b 3b 51 3d d6 8d 63 3d c7 e6 0b 3e d3 2e 97 3d
       0.051082235 0.055555187 0.13662253 0.07381978
000360 e4 65 9b 3d 2c 00 e3 bd fa ce 22 bd 29 75 13 3e
       0.075877935 -0.11084017 -0.03974817 0.14400162
000370 74 7c 84 bd 69 46 42 bd b5 d2 b1 3d b6 03 ad bc
       -0.0646905 -0.04743043 0.08682767 -0.021119934
000380 26 19 cc 3c 8b 2e d7 bd d9 02 b1 bd e4 d8 25 3e
       0.024914335 -0.10506924 -0.08643121 0.16196018
000390 3e f4 02 be 15 01 bd 3d 44 2d 2c be 06 c8 0c 3e
       -0.12788484 0.09228722 -0.16814142 0.13748178
0003a0 e8 c3 8b bc 32 89 7a 3d 31 35 82 3d c8 83 63 3d
       -0.017061189 0.061165996 0.06357802 0.0555456
0003b0 b8 1a 04 3d 49 aa 50 3c 03 0f 06 ba cc 1a ab bd
       0.032252043 0.012735912 -0.0005113931 -0.083547205
0003c0 b4 79 2b bd a1 10 77 3d 21 a0 98 bd 2d 41 f2 bd
       -0.041864112 0.060318593 -0.07452417 -0.118288375
0003d0 bf 6f d6 bc 06 10 64 bd e5 fb 89 3d 4f cf 05 bc
       -0.026176332 -0.055679344 0.06737498 -0.008167102
0003e0 b4 8c f8 bd 55 78 ce bd 37 ea 99 bd 61 04 da bd
       -0.12136212 -0.10081545 -0.07515376 -0.106453665
0003f0 03 13 85 3d 13 78 00 3e 44 15 ac 3b d8 18 03 3e
       0.06497767 0.12545805 0.0052515585 0.12802446

layer3.bias f4 [30]
000000 40 81 a1 bd 9b 85 82 bd a6 dd aa 3d 69 7e 84 bd
       -0.078859806 -0.063731395 0.08343057 -0.06469423
000010 1f 12 9c 3d 60 58 98 bd 38 99 90 39 74 13 a8 3c
       0.07620644 -0.07438731 0.00027579977 0.020517088
000020 3e df 8b bd ee b7 26 3d c0 64 0d bb 70 c0 a4 3c
       -0.068296894 0.040702753 -0.0021574944 0.020111293
000030 eb 94 8f 3d 3c 9a b6 bc 80 7d 09 3d c1 fa 3a bd
       0.07010826 -0.022290342 0.03356695 -0.045649294
000040 a0 ae a9 bb 9e 5c 3d 3d ea 9d fb bc 4c 28 90 3c
       -0.0051782876 0.046230905 -0.030714948 0.01759734
000050 42 2a 9b bd f7 7f 99 3d ce 9d 5a 3d a2 47 21 bd
       -0.075764194 0.074951105 0.05337315 -0.039374955
000060 52 3d 33 3d ec 0f 8a 3c 86 ea 25 bd a6 68 74 3d
       0.04375965 0.016853295 -0.040506862 0.059670113
000070 48 13 75 bc 60 78 0d bb
       -0.01495821 -0.0021586642
