project/output/models/Model_target-v1.0.0.pth (torch, 245120 bytes, 6 tensors)

layer1.weight f4 [256, 92]
0.06207169 0.079758696 0.098848 0.095340505 0.021632452 -0.0327685 0.020741463 -0.040009193
0.08649894 -0.018645823 0.08573986 0.036215357 0.08788236 -0.032970384 0.069240846 -0.025028974
0.016013255 -0.033804797 0.009285949 -0.1028976 0.013990492 -0.022446446 0.034157164 0.0033937544
0.07108979 0.014806904 -0.037419014 0.0009528109 0.037395664 -0.06872503 0.08835631 0.065863006
0.0811586 -0.08705796 0.059564345 0.027111791 -0.028487027 -0.020440936 0.0019725668 0.011012964
0.047443427 0.026399113 0.098194115 -0.040125087 0.006021873 0.024029933 -0.09207585 -0.00012947619
0.0012703985 0.025102891 0.0070612715 0.026030682 -0.06519765 0.0930993 -0.029604688 -0.053785466
0.059288755 -0.05992494 -0.0011489838 -0.062150538 0.083405755 -0.05449439 -0.020443618 -0.04662123
0.02520319 0.10372976 -0.07139017 -0.09181425 -0.06258089 -0.016176008 -0.01614362 0.0458193
0.0078123733 0.103217356 -0.011508524 -0.06411977 0.06799922 -0.018276498 -0.055113636 -0.099358566
-0.057349697 -0.024301723 -0.065248124 0.049122114 0.057297017 -0.028510947 -0.0019077659 0.09820443
-0.02159191 0.028870394 -0.086842835 0.043347836 0.045157056 -0.03312244 -0.058533683 0.004636661
-0.05112265 -0.07753885 -0.0039581885 0.040607654 0.027698828 0.0028297529 0.055454534 -0.027130485
0.019482948 -0.030334286 -0.07359064 0.051816247 -0.051729687 0.07908047 -0.031808324 -0.08703254
0.09921674 0.048788898 0.0120666325 0.0045981184 -0.101287894 0.07892122 -0.03097608 0.070534
0.00082155317 0.07478776 -0.024378592 0.024046473 -0.01585804 -0.09916377 -0.005695626 0.017880976
-0.0019620508 0.0904266 0.016017431 -0.06714471 0.07818244 0.06870621 0.05204341 0.0058059394
-0.082442686 -0.007876836 -0.02400631 0.06546762 -0.008215375 -0.068116285 0.02717865 -0.08077222
-0.0006848618 0.033196468 0.03463409 -0.074637294 0.09416647 0.059430856 -0.0019044429 0.09733428
-0.0039581284 -0.00034260005 0.069501616 -0.047170542 0.006144367 0.023072409 0.005143956 0.027493365
0.060577095 0.08184966 0.0234674 0.024291499 -0.0922735 0.010875374 0.07739894 -0.08131255
0.045819346 0.09025831 0.03130565 0.08349358 0.063275486 0.056328796 -0.026788592 0.024589224
-0.011748443 -0.029438483 -0.09384582 0.10048674 -0.055233695 -0.09528681 0.01757826 0.012250386
-0.06558495 0.015255619 -0.02333192 -0.04813542 -0.100446075 0.05697638 0.037792474 0.06279022
0.06953496 0.0428764 -0.033507206 0.06424066 -0.03468137 0.03603334 0.024245583 -0.0023642257
0.038313244 -0.029519044 -0.06874272 0.034505732 -0.029037178 0.071528606 -0.043821104 -0.032260902
-0.08349818 0.04374928 0.09745615 0.099257365 0.08067454 0.09293171 0.021216951 -0.09361981
0.065193035 0.063797526 -0.0037174523 0.04776992 -0.051437046 0.05103057 0.063836046 0.04139882
-0.05786696 0.0926714 -0.012706751 -0.091126844 0.084297545 -0.030931719 0.03758639 0.0040236786
0.0023886561 0.02669077 0.060324885 -0.04588896 -0.05725149 0.029529192 -0.047454122 0.029747823
-0.08478807 0.028239392 0.03808848 -0.031454924 -0.029012725 -0.09169558 -0.0752391 -0.07829684
0.07388503 0.058921672 0.051211018 0.07702062 -0.09475106 -0.042091493 0.011748367 0.040055208
00000000: e23e 7e3d 8758 a33d d270 ca3d e241 c33d
00000010: 8a36 b13c 4338 06bd 00ea a93c aee0 23bd
00000020: 5b26 b13d 20bf 98bc 6198 af3d 8e56 143d
00000030: abfb b33d f40b 07bd 25ce 8d3d 9009 cdbc
00000040: 3b2e 833c e676 0abd 1824 183c fabb d2bd
00000050: 6038 653c 9ce1 b7bc 62e8 0b3d c069 5e3b
00000060: 8697 913d a898 723c ae44 19bd 0fc6 793a
00000070: 322c 193d b5bf 8cbd 27f4 b43d 2fe3 863d
00000080: 7b36 a63d 724b b2bd bef9 733d 8c19 de3c
00000090: a05d e9bc c073 a7bc 2e46 013b b86f 343c
000000a0: 0a54 423d f442 d83c ff19 c93d 345a 24bd
000000b0: 2253 c53b 6cda c43c 4392 bcbd 00c4 07b9
000000c0: 8083 a63a 94a4 cd3c 3d62 e73b 4c3e d53c
000000d0: 5886 85bd d9aa be3d 8885 f2bc 264e 5cbd
000000e0: c4d8 723d db73 75bd 8099 96ba 9091 7ebd
000000f0: a3d0 aa3d 8235 5fbd 6079 a7bc e7f5 3ebd
00000100: ec76 ce3c 4570 d43d 0235 92bd 1c09 bcbd
00000110: 692a 80bd 8c83 84bc a03f 84bc 05ad 3b3d
00000120: f0fe ff3b 9f63 d33d 408e 3cbc 3a51 83bd
00000130: 2d43 8b3d 98b8 95bc d6be 61bd 817c cbbd
00000140: 84e7 6abd 6814 c7bc cfa0 85bd 4534 493d
00000150: 47b0 6a3d ca8f e9bc 000e faba 671f c93d
00000160: 84e1 b0bc 9b81 ec3c a8da b1bd 808d 313d
00000170: 9bf6 383d 65ab 07bd 04c1 6fbd 22ef 973b
00000180: fc65 51bd b0cc 9ebd b1b3 81bb 3654 263d
00000190: a7e8 e23c 6073 393b 4b24 633d c040 debc
000001a0: b49a 9f3c 9c7f f8bc b1b6 96bd 463d 543d
000001b0: 82e2 53bd f1f4 a13d 7249 02bd 1e3e b2bd
000001c0: 2532 cb3d ded6 473d 20b3 453c d0ab 963b
000001d0: 0770 cfbd 73a1 a13d 8cc1 fdbc 2174 903d
000001e0: 805d 573a 532a 993d 9db5 c7bc 1cfd c43c
000001f0: b8e8 81bc 6016 cbbd 60a2 babb 207b 923c
00000200: c095 00bb 9531 b93d fd36 833c 2a83 89bd
00000210: 1d1e a03d d7b5 8c3d 782b 553d c03f be3b
00000220: b6d7 a8bd d80d 01bc e2a8 c4bc e313 863d
00000230: c899 06bc 8d80 8bbd c3a5 de3c e86b a5bd
00000240: 4c88 33ba 05f9 073d 7adc 0d3d 70db 98bd
00000250: 5ada c03d c56d 733d 809e f9ba 3257 c73d
00000260: 30b3 81bb 009f b3b9 dd56 8e3d e635 41bd
00000270: b056 c93b 5902 bd3c a18e a83b c439 e13c
00000280: b01f 783d cba0 a73d b43e c03c f7fe c63c
00000290: e4f9 bcbd a02e 323c 5683 9e3d 3287 a6bd
000002a0: 11ad 3b3d 59d9 b83d 5a3a 003d affe aa3d
000002b0: 9496 813d 06b9 663d c073 dbbc 576f c93c
000002c0: 8b7c 40bc f928 f1bc 3d32 c0bd fecb cd3d
000002d0: ba3c 62bd bb25 c3bd 4800 903c d8b5 483c
000002e0: 6751 86bd b4f2 793c 9522 bfbc a529 45bd
000002f0: acb6 cdbd 1160 693d 48cc 1a3d 2998 803d
00000300: 5868 8e3d 2a9f 2f3d da3e 09bd 9b90 833d
00000310: 0d0e 0ebd b297 133d ac9e c63c 20f1 1abb
00000320: 59ee 1c3d ecd1 f1bc fcc8 8cbd e255 0d3d
00000330: 60df edbc 977d 923d c27d 33bd 0224 04bd
00000340: 1801 abbd 7232 333d 1797 c73d 7247 cb3d
00000350: b138 a53d fb52 be3d 2ccf ad3c bebb bfbd
00000360: ed83 853d 47a8 823d 80a0 73bb 64aa 433d
00000370: a7af 52bd 6e05 513d 79bc 823d cf91 293d
00000380: e805 6dbd 81ca bd3d fa2f 50bc b6a0 babd
00000390: 31a4 ac3d 8464 fdbc 30f4 193d 10d9 833b
000003a0: 008b 1c3b 9aa6 da3c 3a17 773d 10f6 3bbd
000003b0: 8a80 6abd 34e7 f13c 415f 42bd b5b1 f33c
000003c0: 5ea5 adbd 4c56 e73c aa02 1c3d e1d6 00bd
000003d0: 18ac edbc e4ca bbbd f516 9abd 185a a0bd
000003e0: 0951 973d da57 713d a5c2 513d fdbc 9d3d
000003f0: d80c c2bd 2168 2cbd 397c 403c ee10 243d

layer1.bias f4 [256]
0.08254635 0.08854325 -0.019518584 0.020211143 0.095758125 0.010884094 0.09069542 0.044321526
-0.09863506 -0.030225731 0.03183068 0.07216523 -0.04198947 -0.0073464187 0.05878931 0.0069703343
-0.022599474 -0.037701182 0.07452186 0.026147585 0.08591765 0.04303035 0.10551396 0.0013388242
-0.06657925 0.050450742 -0.1008465 -0.08530785 0.074478336 0.069309376 -0.044628378 0.07874314
0.0999454 0.081855714 -0.0038100823 -0.10392091 0.06862544 0.022381715 -0.07284714 -0.048493907
-0.089022934 -0.00984678 0.031733472 -0.013104556 -0.045900486 -0.024654808 0.027193837 -0.0069054235
-0.038561452 0.033318225 0.045995023 -0.06071931 -0.03881091 0.052821435 -0.07725961 0.053828634
-0.024261422 -0.03203558 0.06649428 -0.08661286 0.06716661 0.023286005 -0.059146445 0.048346866
0.06267393 -0.017169712 -0.07148536 -0.025188977 -0.07513135 -0.044317704 0.012512752 0.001414048
-0.008490309 -0.050246965 -0.03767179 -0.006534805 -0.014108752 -0.06531368 0.022186443 0.012914803
-0.03625083 -0.03404421 0.04942771 0.09856254 0.0045084483 0.010667495 0.0025873443 -0.0092719095
0.07391797 0.03776113 0.007948323 -0.009137701 0.05844797 -0.0428335 0.07362345 -0.08444864
0.10326487 -0.041821927 0.007311271 0.09723748 -0.017152205 0.010636011 -0.0042570406 0.026662106
-0.083982006 -0.0701296 -0.06799683 0.050860133 -0.048293903 0.0070093665 -0.0270282 0.072759464
-0.052422512 -0.023057038 0.06469107 -0.007135854 0.07586478 -0.062272627 0.067468695 0.07205261
0.059506077 0.084495656 -0.0100475745 -0.08738153 -0.062478725 0.009917926 -0.09772133 0.0875417
0.047430612 -0.052384753 -0.009532928 0.09641085 -0.06553415 0.084416114 -0.01578965 -0.033498127
0.05259176 -0.07537751 -0.032051705 0.0034410567 -0.06119496 -0.0442645 0.033851456 -0.03676391
0.019454906 0.10067036 -0.029516006 -0.017339427 -0.0044207256 0.0042453064 0.09384374 -0.10032417
-0.011337024 -0.0053953486 -0.09519341 -0.0379181 -0.05371469 0.066592865 -0.020998668 0.06730053
0.06868538 -0.07122895 0.08027509 -0.04924339 0.0073231505 -0.0004983776 0.014512996 -0.04498597
-0.03046408 -0.08776857 0.04950454 0.09181418 0.046134934 0.07006067 -0.04292297 0.06816622
-0.10007546 0.08716596 -0.0026326873 0.007848075 0.047491625 -0.03054685 -0.0538189 -0.060876623
-0.09999716 -0.016521748 0.03968962 -0.029209932 0.091022335 -0.018279064 -0.10164543 0.009018352
-0.07582008 -0.018360073 -0.03332818 -0.053050056 0.09595419 0.09045056 -0.0791326 -0.045109868
-0.0054630884 0.056466334 0.10031338 0.08791591 0.012911963 -0.07073809 0.079483636 -0.06945959
0.021462575 -0.10218613 0.04281892 -0.03203433 -0.08295229 0.028525649 0.070523456 0.0981223
0.03009077 -0.05460672 0.04631997 0.040371053 0.04520756 0.075591505 0.09641533 0.030373747
0.06907719 0.057992004 -0.0952256 0.09162886 -0.038055494 0.025227932 0.04109025 0.09725782
-0.0051513636 -0.046344385 -0.018953629 0.0714669 0.06941667 -0.062024742 -0.034448247 0.014511003
-0.040937528 -0.069078095 0.010012708 -0.0030627095 -0.045514796 0.025075555 0.041154914 -0.029554687
-0.063333064 0.05177393 0.061424762 0.03054526 0.03331569 0.09475923 -0.0092861485 0.052108508
00000000: 100e a93d 2a56 b53d 70e5 9fbc d791 a53c
00000010: d61c c43d 3353 323c 85be b93d 7d8a 353d
00000020: 2e01 cabd f49b f7bc e360 023d 5dcb 933d
00000030: 27fd 2bbd 3aba f0bb 0fcd 703d 6767 e43b
00000040: 8822 b9bc 8e6c 1abd eb9e 983d 7633 d63c
00000050: 98f5 af3d 9840 303d b417 d83d 7c7b af3a
00000060: b45a 88bd 70a5 4e3d 9c88 cebd e2b5 aebd
00000070: 1988 983d 13f2 8d3d 3fcc 36bd 1544 a13d
00000080: 2db0 cc3d f8a3 a73d 93b2 79bb 7cd4 d4bd
00000090: 7f8b 8c3d dc59 b73c e230 95bd 8ca1 46bd
000000a0: a851 b6bd 6454 21bc f5fa 013d 7eb4 56bc
000000b0: 2602 3cbd e1f8 c9bc 9cc5 de3c e446 e2bb
000000c0: 9df2 1dbd b178 083d 4765 3c3d d0b4 78bd
000000d0: 30f8 1ebd 4a5b 583d 493a 9ebd 6a7b 5c3d
000000e0: e4bf c6bc be37 03bd 272e 883d 1562 b1bd
000000f0: a68e 893d 4bc2 be3c 8b43 72bd 5d07 463d
00000100: 305b 803d 7fa7 8cbc eb66 92bd 1d59 cebc
00000110: 77de 99bd 7b86 35bd 4902 4d3c 9457 b93a
00000120: f01a 0bbc c3cf 4dbd bc4d 1abd eb21 d6bb
00000130: 6528 67bc 2ec3 85bd 58c0 b53c 9c98 533c
00000140: c07b 14bd f171 0bbd b674 4a3d 28db c93d
00000150: 9bbb 933b b8c6 2e3c 6f90 293b 35e9 17bc
00000160: 4e62 973d 6aab 1a3d af39 023c 4cb6 15bc
00000170: 2367 6f3d 2e72 2fbd e4c7 963d 69f3 acbd
00000180: 887c d33d 784d 2bbd 6393 ef3b 7224 c73d
00000190: c882 8cbc aa42 2e3c a57e 8bbb 7d6a da3c
000001a0: c2fe abbd 1ca0 8fbd ec41 8bbd b752 503d
000001b0: d4cf 45bd d4ae e53b 3e6a ddbc ea02 953d
000001c0: fdb8 56bd 1de2 bcbc c07c 843d e2d3 e9bb
000001d0: fe5e 9b3d 9511 7fbd 072d 8a3d 5290 933d
000001e0: a5bc 733d 0f0c ad3d 959e 24bc 16f5 b2bd
000001f0: b1e9 7fbd cc7e 223c 1f22 c8bd 1049 b33d
00000200: 9a46 423d 6591 56bd ff2f 1cbc 0d73 c53d
00000210: c536 86bd 5be2 ac3d 4c59 81bc 5535 09bd
00000220: 756a 573d 865f 9abd a648 03bd 5a83 613b
00000230: 91a7 7abd b14e 35bd d3a7 0a3d c195 16bd
00000240: e55f 9f3c 432c ce3d 8dcb f1bc 6a0b 8ebc
00000250: bcdb 90bb 361c 8b3b 2631 c03d c276 cdbd
00000260: edbe 39bc 77cb b0bb c3f4 c2bd 0250 1bbd
00000270: ef03 5cbd d761 883d 6605 acbc dcd4 893d
00000280: ecaa 8c3d 7ce0 91bd 4467 a43d 70b3 49bd
00000290: 0af7 ef3b 8ea5 02ba ebc7 6d3c 3543 38bd
000002a0: ce8f f9bc 02c0 b3bd 46c5 4a3d 1309 bc3d
000002b0: fcf7 3c3d f87b 8f3d ffcf 2fbd bb9a 8b3d
000002c0: 5df4 ccbd 1184 b23d 2a89 2cbb 3695 003c
000002d0: 9486 423d 633d fabc 3571 5cbd c459 79bd
000002e0: 50cb ccbd 9e58 87bc 9591 223d ab49 efbc
000002f0: eb69 ba3d fabd 95bc 7b2b d0bd b6c1 133c
00000300: 8f47 9bbd dd67 96bc 2183 08bd 044b 59bd
00000310: a183 c43d 253e b93d 4610 a2bd 20c5 38bd
00000320: b503 b3bb 3e49 673d 1a71 cd3d 420d b43d
00000330: b38c 533c 22df 90bd 51c8 a23d d440 8ebd
00000340: 48d2 af3c f646 d1bd e462 2f3d 6e36 03bd
00000350: e4e2 a9bd 9fae e93c 9a6e 903d 58f4 c83d
00000360: eb80 f63c 4cab 5fbd 02ba 3d3d 1e5c 253d
00000370: 902b 393d b8cf 9a3d 6775 c53d 5dd2 f83c
00000380: 5778 8d3d 0689 6d3d a405 c3bd e9a7 bb3d
00000390: 14e0 1bbd cfaa ce3c 404e 283d 1c2f c73d
000003a0: c5cc a8bb 9cd3 3dbd a444 9bbc 3d5d 923d
000003b0: 542a 8e3d a80d 7ebd 9b19 0dbd 8fbf 6d3c
000003c0: 1cae 27bd d178 8dbd 570c 243c bdb7 48bb
000003d0: b96d 3abd 406b cd3c 0e92 283d ac1c f2bc
000003e0: c4b4 81bd e710 543d 8898 7b3d 0e3a fa3c
000003f0: 0876 083d 2111 c23d ee24 18bc bb6f 553d

layer2.weight f4 [128, 256]
0.058894306 0.00938386 -0.034290947 0.045863476 -0.056364898 0.0032276835 0.021181596 -0.024997724
-0.025163565 0.018500548 -0.062002096 0.055921268 0.0071861767 -0.0043630213 -0.052177723 0.033465594
0.031984445 0.059082 -0.051951837 -0.023582265 0.032440566 -0.03429436 0.05340541 -0.011441655
-0.039277993 0.06247271 -0.04027858 -0.03753028 0.021795478 -0.04185732 -0.02900436 0.017470457
-0.049556132 -0.0029759528 -0.04445027 -0.019122697 0.029695326 0.029270986 -0.041512243 -0.01879182
0.020620938 0.040657774 -0.002178901 -0.036617972 0.05140375 0.038796857 0.019340767 -0.06307862
-0.009491427 0.044468 -0.039871138 -0.023455411 0.052557725 0.04734707 -0.041858185 -0.03819442
0.06309709 0.048966266 0.030467367 0.024781993 -0.014253227 -0.024040733 0.000645133 0.015146209
0.022369277 -0.03329813 0.0269459 -0.054666564 -0.0028140966 0.026699608 -0.006394601 -0.008710073
-0.044149354 -0.01877195 -0.04686241 -0.0154730175 -0.0134444665 -0.029562123 0.036971916 -0.0072199884
0.064724706 -0.00812238 -7.753275e-05 -0.010331982 0.041736092 0.01620085 0.058644213 -0.021479458
0.058778513 -0.016317986 -0.036927596 -0.040765535 -0.036165882 0.040585607 -0.021246897 -0.03529277
-0.0039052118 -0.025774684 0.006536986 0.04764671 0.06099623 -0.04566889 -0.034533318 0.052675396
0.0019530796 -0.0013781032 -0.042212505 0.04869736 0.035107277 0.024787558 0.0011532177 -0.0060816766
-0.0211257 0.008540621 0.060305044 0.05565858 0.030921265 -0.03838564 0.01983212 0.025750073
-0.024461031 -0.006234165 -0.015459016 0.05064069 0.04751393 -0.00859738 -0.01615215 -0.0047389083
-0.012886137 0.056937706 0.033961814 0.0031904844 0.024597045 0.02587671 -0.024288228 0.033350315
-0.013367671 0.031977206 0.025428237 0.057950947 -0.04050536 0.05961689 -0.023406941 0.03859522
0.06230556 0.024325795 -0.041123167 -0.03254983 0.021558614 0.02453057 -0.022329614 -0.05212558
-0.009085343 -0.01793906 -0.06548096 -0.04042957 -0.013832699 0.004846157 -0.059114035 0.01766073
-0.017809438 -0.044785395 -0.057933893 -0.032407425 0.025760336 0.052126214 0.011976086 -0.005158463
0.052502107 -0.0038881106 -0.030706886 -0.02286828 0.038272977 0.0042344145 -0.0075843716 -0.029150262
-0.05543651 0.02748342 0.024420135 -0.013844172 0.008989425 0.055906553 0.030743849 -0.023236414
-0.023247678 0.00123968 -0.046599615 0.05789656 -0.0280141 0.05105758 0.009846433 -0.022577116
0.062278096 0.028275406 0.045868926 -0.061848976 0.03994734 -0.057234235 -0.046106815 0.030667169
0.014360996 0.033556763 0.017495083 -0.007993743 0.0030103629 0.03807589 0.028951665 -0.05336265
-0.031722236 -0.0041411044 0.029563876 -0.016121645 0.021193162 0.03513513 -0.008740664 0.0498015
0.004832619 -0.017099585 -0.053229246 0.008578252 -0.015698101 -0.055831257 -0.019436011 -0.0030757072
0.043204054 -0.014162489 0.022387048 -0.034158353 -0.04703552 0.015719738 -0.053679164 0.023137001
0.015088738 0.039665133 -0.040675778 -0.0037789578 -0.051037148 -0.026554551 0.029280202 -0.046454057
0.017908497 -0.0070563997 -0.057908736 -0.048857115 -0.038147356 -0.051728394 0.058926325 -0.038353432
0.0018834526 0.037102245 -0.026842577 -0.032071035 0.013896278 0.04487703 0.0012618706 0.005931645
00000000: 283b 713d c3be 193c aa74 0cbd 57db 3b3d
00000010: e1de 66bd 8b87 533b 0785 ad3c 07c8 ccbc
00000020: d223 cebc 768e 973c e9f5 7dbd b30d 653d
00000030: 057a eb3b adf7 8ebb 4fb8 55bd 3813 093d
00000040: 1f02 033d f8ff 713d 73cb 54bd 982f c1bc
00000050: 66e0 043d 3e78 0cbd a2bf 5a3d c875 3bbc
00000060: f6e1 20bd 62e3 7f3d 27fb 24bd 5ab9 19bd
00000070: 6e8c b23c 9572 2bbd 8d9a edbc 341e 8f3c
00000080: 5ffb 4abd 3408 43bb 7c11 36bd 34a7 9cbc
00000090: 9d43 f33c b5c9 ef3c be08 2abd 4ef1 99bc
000000a0: 3eed a83c c488 263d e5cb 0ebb bafc 15bd
000000b0: bd8c 523d 74e9 1e3d 8770 9e3c 5d2f 81bd
000000c0: ee81 1bbc 1424 363d eb4f 23bd 9025 c0bc
000000d0: c546 573d 00ef 413d 7d73 2bbd c171 1cbd
000000e0: 0c39 813d da90 483d b396 f93c 9b03 cb3c
000000f0: 5e86 69bc 12f1 c4bc 251e 293a ce27 783c
00000100: c63f b73c 9f63 08bd a6bd dc3c 0cea 5fbd
00000110: b56c 38bb 23b9 da3c cd89 d1bb b2b4 0ebc
00000120: f4d5 34bd a2c7 99bc ccf2 3fbd 8a82 7dbc
00000130: 2e46 5cbc 442c f2bc dd6f 173d a795 ecbb
00000140: 638e 843d bb13 05bc 1499 a2b8 7947 29bc
00000150: 77f3 2a3d a5b7 843c ea34 703d b0f5 afbc
00000160: bdc1 703d 4cad 85bc 6441 17bd c3f9 26bd
00000170: ad22 14bd 183d 263d f90d aebc 278f 10bd
00000180: 95ee 7fbb 6e25 d3bc 3734 d63b 3229 433d
00000190: 2fd7 793d 4d0f 3bbd cf72 0dbd 28c2 573d
000001a0: 7afe ff3a 78a1 b4ba 05e7 2cbd e276 473d
000001b0: a6cc 0f3d 470f cb3c 9127 973a cd48 c7bb
000001c0: ce0f adbc f6ed 0b3c 6c02 773d 40fa 633d
000001d0: 984e fd3c 433a 1dbd f876 a23c d1f1 d23c
000001e0: 8062 c8bc f747 ccbb d047 7dbc 9d6c 4f3d
000001f0: f79d 423d 06dc 0cbc 8451 84bc d848 9bbb
00000200: 6020 53bc 8337 693d 8b1b 0b3d 7217 513b
00000210: be7f c93c 65fb d33c 1bf8 c6bc 579a 083d
00000220: 1304 5bbc 88fa 023d e14e d03c f95d 6d3d
00000230: f3e8 25bd d730 743d eabf bfbc 0516 1e3d
00000240: 1d34 7f3d e446 c73c c470 28bd f852 05bd
00000250: b19b b03c 55f4 c83c 98ec b6bc a281 55bd
00000260: b1da 14bc f0f4 92bc e21a 86bd 7a99 25bd
00000270: 8ba2 62bc 83cc 9e3b 8f21 72bd 3cad 903c
00000280: 19e5 91bc e470 37bd 174c 6dbd a6bd 04bd
00000290: 5707 d33c 4c82 553d 5837 443c 5308 a9bb
000002a0: 730c 573d accf 7ebb 028d fbbc 4256 bbbc
000002b0: 20c4 1c3d d8c0 8a3b 5286 f8bb 88cc eebc
000002c0: 6511 63bd e924 e13c bc0c c83c aad2 62bc
000002d0: 6248 133c 45fe 643d 86da fb3c 4b5a bebc
000002e0: ea71 bebc c27c a23a 3ddf 3ebd f124 6d3d
000002f0: d37d e5bc c121 513d ef52 213c a5f3 b8bc
00000300: 5117 7f3d d3a1 e73c 0ee1 3b3d 5a55 7dbd
00000310: d29f 233d 726e 6abd 80da 3cbd b739 fb3c
00000320: 624a 6b3c d172 093d d951 8f3c 30f8 02bc
00000330: 8249 453b 77f5 1b3d 0b2c ed3c cb92 5abd
00000340: 2def 01bd 1ab2 87bb f12f f23c 8a11 84bc
00000350: 489d ad3c dbe9 0f3d 0135 0fbc a8fc 4b3d
00000360: f25a 9e3b 6e14 8cbc e906 5abd cc8b 0c3c
00000370: 4e99 80bc 51af 64bd 4538 9fbc ce91 49bb
00000380: bcf6 303d c909 68bc 0b65 b73c a1e9 0bbd
00000390: 51a8 40bd aec6 803c afde 5bbd cf89 bd3c
000003a0: c136 773c e877 223d a59b 26bd 64a8 77bb
000003b0: 540c 51bd ee88 d9bc 09dd ef3c 9c46 3ebd
000003c0: d7b4 923c 5f39 e7bb b631 6dbd 661e 48bd
000003d0: 6740 1cbd 27e1 53bd bb5c 713d 7d18 1dbd
000003e0: 2fde f63a 86f8 173d f7e4 dbbc eb5c 03bd
000003f0: 37ad 633c fad0 373d 5a65 a53a 3f5e c23b

layer2.bias f4 [128]
0.05886134 -0.05674145 0.03536284 -0.02255989 0.03042163 0.017280083 -0.05485439 -0.006181114
0.031628337 -0.0044696303 -0.0307597 0.022956956 -0.010473692 -0.05923059 0.0018309187 -0.030765535
-0.006718796 0.02706388 0.0008544674 -0.053514764 0.051380116 0.059342064 0.06329553 0.06039641
0.017441692 -0.020527028 0.044140898 -0.017993014 -0.01919808 0.057333402 -0.0012610604 0.023757564
8.999768e-05 0.05700675 0.030720884 0.04706541 -0.02714302 -0.024272623 0.031009074 -0.03717788
-0.056210987 -0.00096937927 -0.033292238 0.006365611 0.05830939 0.05078931 -0.03533678 -0.050456505
0.060795307 -0.0061576683 -0.04906809 -0.00741904 -0.04136906 0.037112754 0.048876222 -0.05513504
0.05707192 -0.013087351 -0.007218517 -0.054788724 -0.058760636 -0.00882739 0.024097612 -0.0011560234
0.02042981 -0.05725001 0.036995664 -0.029613398 0.01552928 0.029048737 0.061004084 0.053879134
-0.046686877 0.013149682 0.021017514 0.024415042 0.016154565 0.055199366 -0.021427985 -0.044686034
0.02355976 0.039538343 -0.028741349 0.04419816 0.04869986 0.035309196 -0.0550248 0.034252893
0.018891936 0.012316818 0.035753075 -0.053830493 0.05042141 -0.030272933 0.014802657 -0.01660332
-0.031106327 -0.013131502 -0.012227093 -0.06048056 0.023843084 0.04164377 -0.033231534 0.04747117
-0.047950402 0.054232545 -0.022497041 0.017438725 0.049427427 0.05202973 -0.022729563 -0.014786126
0.028707664 -0.026022412 -0.003683113 -0.018536689 0.030358309 -0.047540586 0.059903834 0.031521518
-0.056289505 -0.031698246 0.0090907365 -0.04415076 0.015218146 0.02610242 -0.046585426 0.042524405
00000000: 9718 713d b969 68bd a0d8 103d 85cf b8bc
00000010: c836 f93c f68e 8d3c ffae 60bd f18a cabb
00000020: b78c 013d fa75 92bb c4fb fbbc 3a10 bc3c
00000030: d999 2bbc c69b 72bd 70fb ef3a 0108 fcbc
00000040: 5929 dcbb 12b5 dd3c 56fe 5f3a 4c32 5bbd
00000050: f573 523d aa10 733d 16a1 813d 3a62 773d
00000060: e1e1 8e3c 4c28 a8bc 16cd 343d 1666 93bc
00000070: 4b45 9dbc 6ed6 6a3d 2a4a a5ba 399f c23c
00000080: 23bd bc38 e97f 693d 5daa fb3c a9c7 403d
00000090: 0a5b debc 61d7 c6bc be06 fe3c d547 18bd
000000a0: 7e3d 66bd f11d 7eba 715d 08bd 9e96 d03b
000000b0: d4d5 6e3d 7408 503d 4dbd 10bd 7bab 4ebd
000000c0: 8004 793d 44c6 c9bb 9ffb 48bd 6b1b f3bb
000000d0: 9a72 29bd 8b03 183d 6f32 483d 48d5 61bd
000000e0: 3fc4 693d 546c 56bc 4f89 ecbb 246a 60bd
000000f0: feae 70bd c2a0 10bc 5b68 c53c b585 97ba
00000100: 6b5c a73c fd7e 6abd c488 173d cc97 f2bc
00000110: 856e 7e3c 9ef7 ed3c 6bdf 793d 5eb0 5c3d
00000120: bd3a 3fbd c471 573c ec2c ac3c 0e02 c83c
00000130: 9456 843c bb18 623d be89 afbc b408 37bd
00000140: 6600 c13c f5f2 213d fa72 ebbc 2109 353d
00000150: 8179 473d 60a0 103d af61 61bd c34c 0c3d
00000160: 43c3 9a3c 7bcc 493c d171 123d 5d7d 5cbd
00000170: ae86 4e3d f1fe f7bc d886 723c b003 88bc
00000180: b2d2 febc 8325 57bc 2554 48bc 77ba 77bd
00000190: 9252 c33c a892 2a3d ca1d 08bd 2171 423d
000001a0: a467 44bd f222 5e3d b74b b8bc a8db 8e3c
000001b0: 6a74 4a3d 201d 553d 5933 babc 8241 72bc
000001c0: 562c eb3c f42c d5bc 6260 71bb 41da 97bc
000001d0: fdb1 f83c ebb9 42bd b95d 753d b51c 013d
000001e0: d38f 66bd 05d6 01bd 50f1 143c 6dd7 34bd
000001f0: 8855 793c bed4 d53c 5cd0 3ebd 122e 2e3d

layer3.weight f4 [30, 128]
0.029270342 -0.07961071 0.061456956 0.06492344 -0.026196564 0.06254555 -0.066760525 0.020698294
0.061025545 0.057914257 -0.008568553 -0.015098712 -0.007104954 -0.042149127 -0.06401821 -0.026499316
0.07388433 0.07151551 -0.040294714 -0.0042097587 -0.055157393 0.08188519 -0.021335188 0.00757041
0.03392493 -0.03786633 -0.011184347 -0.058989737 0.03449267 0.021118622 -0.017352145 -0.054017935
-0.0385122 0.08415584 -0.07311847 -0.061414752 0.08070326 -0.044379096 0.05574983 0.041463394
-0.03204006 0.030968845 0.0041292445 -0.05657777 -0.034685273 -0.093959756 0.08988222 0.011170764
-0.03856605 0.004188453 -0.070475884 -0.023349203 -0.06879851 0.045866735 -0.0725088 0.044040464
0.03049747 0.06982993 -0.004082547 -0.03131074 -0.07914328 0.015849391 -0.0049006823 -0.036596417
0.03945916 0.044957254 0.0067436257 0.07891377 -0.08692271 -0.06462031 -0.06294202 0.00021309264
-0.036451317 -0.07003589 0.036086246 0.039586753 -0.05097832 0.03984676 0.03307498 -0.0039215265
0.032560345 0.0649127 -0.07159431 -0.077888265 0.067453645 -0.03034477 -0.027906476 -0.021316785
-0.07529204 -0.083437294 -0.09472423 -0.032756817 0.08046189 0.07870213 0.042831156 -0.017202675
0.024167864 0.054194666 -0.015231613 0.057336908 0.042121578 0.0841749 0.031838357 -0.019961914
0.06286196 -0.06949021 0.08072529 0.0461648 0.08467925 -0.060519524 0.056019932 0.019139023
-0.071109414 0.06624287 0.0650136 0.026718752 -0.023210574 -0.04824137 -0.07470986 -0.09288248
0.05761377 0.034643367 0.0029684994 0.02423756 0.07834262 0.004031939 -0.033742536 -0.05850707
0.063495174 0.06897363 -0.025290232 -0.04633085 -0.081843995 0.027366001 -0.048693486 0.0081918435
-0.0047861338 0.03472248 0.021963468 -0.014233578 -0.056719664 -0.07135704 -0.0615912 0.06743037
0.04425448 -0.08741258 -0.045828786 -0.0697579 0.08078596 -0.07987401 -0.027413089 0.011064476
-0.07548379 -0.02892271 0.048946045 -0.042822458 -0.0651282 0.05374604 -0.08198113 0.08055529
0.043255065 0.02176979 -0.050244045 -0.08201515 0.046088345 0.07887566 -0.051811807 0.0057819523
-0.090126604 -0.06671475 -0.05552654 0.062289484 0.069457054 -0.04098851 -0.08890309 -0.05557772
-0.03949281 0.041387077 0.037692923 0.0013127299 0.021075895 -0.07800531 -0.024127295 -0.06676744
0.038702365 0.006228072 0.053690203 0.06087853 -0.058107227 0.050453648 0.0046446137 -0.0232407
-0.056739062 0.05738747 -0.073031865 0.009627112 -0.047295734 0.057053506 -0.0018629486 0.012724837
-0.065663375 0.010713289 -0.008136624 -0.03433639 0.06869192 -0.03746998 -0.009224898 0.035473492
0.085452035 0.066194676 -0.031769197 -0.019248266 0.038631767 0.042674024 0.065989114 0.054489575
0.030698573 -0.014547119 -0.02405525 0.075537816 -0.04624068 -0.059510786 0.0736412 -0.012615425
0.017075613 -0.08519448 -0.05124025 0.093061894 -0.036966853 0.078442894 -0.092077486 0.08405113
-0.017061189 0.061165996 0.05122186 0.024333557 0.016990535 0.020221476 -0.047134493 -0.083547205
-0.035913285 0.038214657 -0.067438774 -0.0523283 0.002784005 0.0102360295 0.061194826 -0.0459408
-0.08885722 -0.066687696 -0.025887854 -0.0033529415 0.048627567 0.080493756 -0.00020583397 0.0670394
00000000: 5bc8 ef3c f10a a3bd 4aba 7b3d 95f6 843d
00000010: 2d9a d6bc e217 803d beb9 88bd 788f a93c
00000020: ecf5 793d 8037 6d3d 1e63 0cbc 9760 77bc
00000030: add0 e8bb 90a4 2cbd fb1b 83bd 1815 d9bc
00000040: ab50 973d b976 923d 120c 25bd 04f2 89bb
00000050: b8ec 61bd 6cb3 a73d 22c7 aebc 3411 f83b
00000060: def4 0a3d ba19 1bbd 8d3e 37bc 399f 71bd
00000070: 3048 0d3d f600 ad3c 1626 8ebc e941 5dbd
00000080: f8be 1dbd e659 ac3d 23bf 95bd 098e 7bbd
00000090: c047 a53d dbc6 35bd ef59 643d 85d5 293d
000000a0: 703c 03bd 60b2 fd3c 9d4e 873b 17be 67bd
000000b0: 2512 0ebd f96d c0bd 2b14 b83d 9505 373c
000000c0: 6ff7 1dbd 4a3f 893b a955 90bd d446 bfbc
000000d0: 3ce6 8cbd c2de 3b3d 7e7f 94bd c663 343d
000000e0: d5d5 f93c ff02 8f3d e3c6 85bb b13f 00bd
000000f0: df15 a2bd 95d6 813c e795 a0bb 20e6 15bd
00000100: ee9f 213d 1925 383d a2f9 dc3b 8b9d a13d
00000110: 8904 b2bd a757 84bd bfe7 80bd 9f71 5f39
00000120: fa4d 15bd fa6e 8fbd 2ccf 133d b825 223d
00000130: a5ce 50bd 5b36 233d a179 073d 2680 80bb
00000140: ff5d 053d f3f0 843d 0aa0 92bd e283 9fbd
00000150: 2325 8a3d 9895 f8bc 1f9c e4bc 8aa0 aebc
00000160: b732 9abd 2ce1 aabd c7fe c1bd 032c 06bd
00000170: 34c9 a43d 952e a13d b96f 2f3d a0ec 8cbc
00000180: affb c53c 3afb 5d3d 048e 79bc 1bda 6a3d
00000190: ad87 2c3d e463 ac3d f068 023d 2b87 a3bc
000001a0: c5bd 803d e250 8ebd 4d53 a53d 4d17 3d3d
000001b0: 516c ad3d 52e3 77bd 2875 653d 71c9 9c3c
000001c0: d0a1 91bd 58aa 873d da25 853d 49e1 da3c
000001d0: 1a24 bebc be98 45bd 7c01 99bd 2b39 bebd
000001e0: 6bfc 6b3d 34e6 0d3d 288b 423b d98d c63c
000001f0: 1872 a03d 5b1e 843b 9d35 0abd 1ca5 6fbd
00000200: c209 823d 0c42 8d3d 762d cfbc 6bc5 3dbd
00000210: d39d a7bd aa2e e03c d272 47bd 1537 063c
00000220: 00d5 9cbb 2939 0e3d bbec b33c f433 69bc
00000230: e152 68bd a423 92bd 0e47 7cbd ef18 8a3d
00000240: 3044 353d 5e05 b3bd f7b6 3bbd 3bdd 8ebd
00000250: 1c73 a53d fc94 a3bd 6a91 e0bc c747 353c
00000260: 3f97 9abd 52ef ecbc a67b 483d 9a66 2fbd
00000270: ef61 85bd cf24 5c3d b9e5 a7bd 2cfa a43d
00000280: 392c 313d 8f56 b23c b3cc 4dbd 8ff7 a7bd
00000290: 22c7 3c3d 9089 a13d 9e38 54bd 8876 bd3b
000002a0: 4c94 b8bd bea1 88bd cc6f 63bd 4223 7f3d
000002b0: 803f 8e3d 91e3 27bd d312 b6bd 77a5 63bd
000002c0: 36c3 21bd 7f85 293d e563 1a3d e80f ac3a
000002d0: 5ba7 ac3c 3fc1 9fbd 9ba6 c5bc 5ebd 88bd
000002e0: 5f86 1e3d db14 cc3b 42ea 5b3d c45b 793d
000002f0: d801 6ebd 7ca8 4e3d d831 983b 4863 bebc
00000300: 3867 68bd 200f 6b3d bb91 95bd 09bb 1d3c
00000310: 2cb9 41bd f0b0 693d 2f2e f4ba d67b 503c
00000320: 857a 86bd ca86 2f3c 794f 05bc 51a4 0cbd
00000330: 59ae 8c3d 1f7a 19bd 0724 17bc a74c 113d
00000340: 7a01 af3d 1391 873d 6b20 02bd 8aae 9dbc
00000350: 583c 1e3d f5ca 2e3d 4d25 873d 7630 5f3d
00000360: 937b fb3c 0a57 6ebc 840f c5bc 92b3 9a3d
00000370: de66 3dbd 95c1 73bd 33d1 963d edb0 4ebc
00000380: 28e2 8b3c 727a aebd 4ce1 51bd 3c97 be3d
00000390: 8e6a 17bd aba6 a03d 1f93 bcbd 0023 ac3d
000003a0: e8c3 8bbc 3289 7a3d 03ce 513d 2b57 c73c
000003b0: bc2f 8b3c 82a7 a53c 1910 41bd cc1a abbd
000003c0: cf19 13bd f986 1c3d 571d 8abd 3356 56bd
000003d0: da73 363b 05b5 273c 6da7 7a3d 6c2c 3cbd
000003e0: c6fa b5bd 8f93 88bd c412 d4bc 06bd 5bbb
000003f0: b32d 473d e9d9 a43d 23d5 57b9 f44b 893d

layer3.bias f4 [30]
-0.0675741 -0.063303724 0.086737536 -0.059715517 0.069363974 -0.079756 -0.005072088 0.017697884
-0.072772436 0.040702753 -0.0021574944 0.020111293 0.07010826 -0.022290342 0.03356695 -0.045649294
-0.0051782876 0.046230905 -0.030714948 0.01759734 -0.075764194 0.074951105 0.05337315 -0.039374955
0.04375965 0.016853295 -0.040506862 0.059670113 -0.01495821 -0.0021586642
00000000: 4a64 8abd 62a5 81bd 73a3 b13d 4298 74bd
00000010: b30e 8e3d 1d57 a3bd c233 a6bb 27fb 903c
00000020: b709 95bd eeb7 263d c064 0dbb 70c0 a43c
00000030: eb94 8f3d 3c9a b6bc 807d 093d c1fa 3abd
00000040: a0ae a9bb 9e5c 3d3d ea9d fbbc 4c28 903c
00000050: 422a 9bbd f77f 993d ce9d 5a3d a247 21bd
00000060: 523d 333d ec0f 8a3c 86ea 25bd a668 743d
00000070: 4813 75bc 6078 0dbb
