project/output/models/Model_target-v1.0.0.pth (torch, 937856 bytes, 6 tensors)

layer1.weight f4 [512, 184]
00000000: 6428 c23c 32a3 00bd 7e56 4dbd 3200 abbc
00000010: cc30 713d b466 19bd 60fd 363b 6c7e 773d
00000020: 5df4 88bd 40dc 09bc 0056 263c 28de 963c
00000030: 9611 81bd fee1 92bd 4274 7fbd dcc7 52bd
00000040: 0cc0 43bd 0254 91bd 7cf1 79bd 803a 373b
00000050: 6294 ffbc 4482 fb3c f043 43bd d2ea c2bc
00000060: d3f1 83bd c0b3 6b3d 4047 703c 6193 17bd
00000070: a857 52bd 929b 4c3d 6b69 68bd fa1d 0b3d
00000080: 1429 f73c d856 633c 96c8 59bd 8c62 8abd
00000090: 184f 17bc 689d 0c3d 98d0 25bd 188c 23bc
000000a0: aec0 123d 58c6 873d 8247 90bd dc7a 6e3d
000000b0: 0000 a33b 5460 e43c f046 0c3d 4c95 7c3d
000000c0: 4826 6f3d c0d7 04bb 5a37 07bd b4bb 4d3d
000000d0: c6a1 62bd 4825 c83c ba53 60bd f43d a73c
000000e0: 4cf2 3ebd 1a97 123d 8c98 bdbc 1aa9 77bd
000000f0: d0a3 a3bc 267a 4dbd 3cf0 b13c bcbf 55bd
00000100: 2009 e03c 2264 0d3d ef95 82bd 3c5d dd3c
00000110: 1c11 923d 58dc dbbc d599 30bd 3c80 65bd
00000120: 5af0 2a3d dc17 873d e846 1abd e088 9fbb
00000130: f8bc 14bc 00e9 8e3d 0485 55bc eedd 4b3d
00000140: 3dc2 64bd 7cdc 963c 3066 6bbc 6022 e33c
00000150: abc9 22bd 7aa7 1c3d fa2b 91bd 0034 31bd
00000160: fc2b f63c 6b72 8abd a65b f7bc a6d1 1d3d
00000170: fc08 5cbc 481c 7c3c 1067 b43c b0b5 cc3b
00000180: 9cfd dcbc 0c0b 9b3c 4c22 133d 60bf 693d
00000190: 2703 41bd 4c57 42bc 9a20 0a3d 0de7 6cbd
000001a0: aebd b0bc 181b 973c 6046 dcbc 2d95 70bd
000001b0: fc07 a8bc e0a6 05bb 5a38 3ebd 8c16 d8bc
000001c0: 3e0a 853d 484f b13c ec83 a43c 14a8 6f3d
000001d0: 50dc 073d d003 623c 167d f9bc f8a6 6b3d
000001e0: a6fc 88bd ea1f 393d bc13 213d 0010 a039
000001f0: fa2e 203d f05e 9dbb 28ea 323c 9404 c63c
00000200: 0254 d4bc e06f 28bc 6ce2 ad3c 633b 6dbd
00000210: 4c15 2fbd a2c6 8a3d 982a bf3c 215a 8dbd
00000220: e413 fd3c 9477 913d f019 35bc 1099 82bb
00000230: ef13 0fbd 2417 87bd 147c 313d 14cd 29bd
00000240: 7417 743d b5da 61bd 5409 b23c e0ef 1b3d
00000250: d0ee e8bc 7446 5a3d 68aa 7e3d 2817 413c
00000260: 1510 8bbd e529 37bd d814 42bc cc27 40bc
00000270: e8ac 3ebc fdfb 62bd 29b8 68bd 8cbd 41bd
00000280: 5478 ecbc 37f2 53bd b087 503c 2059 56bb
00000290: cc29 38bd c065 853c 78fb 513c a0fd c33b
000002a0: e0d4 a23b 3034 ccbb 88cc b03c 5cd9 5a3d
000002b0: f226 41bd a44b ddbc 986c 0dbc f4fc 8e3c
000002c0: 6001 723d b6dc 0e3d 8831 263c 24d7 5dbc
000002d0: 5c30 e73c c791 22bd 7dc3 73bd 3c98 663d
000002e0: 6841 fb3c 2f8d 1ebd f21c 6abd e69c 843d
000002f0: e06d ccbc a830 d63c 74ec 9ebc 9835 aa3c
00000300: 9a4e 933d 1c10 70bd 30dc 8a3d 10bf afbc
00000310: b41e 953d 8087 31bc 3066 4f3d c329 44bd
00000320: 2abe 4a3d df26 14bd 1898 0fbc 7d07 8abd
00000330: 1055 bebb 30dd e23c 7813 ad3c 9007 7fbd
00000340: 32c2 143d 2934 8abd 1839 f13c e018 00bc
00000350: 2c14 8cbc 4c7a 8d3d be51 943d 8065 573b
00000360: 38ae 73bc 40b1 c7ba ce00 1d3d 9636 64bd
00000370: 0dd6 81bd c48e 153d b4ef 143d f833 313c
00000380: 672e 79bd ee1e 243d b816 793d 38fe 353c
00000390: dc58 5a3d 3ef4 893d ac21 893c e4a7 63bc
000003a0: f6f6 083d 0e36 10bd 3879 403d 84e8 fe3c
000003b0: 82c5 bbbc b76c 30bd f888 663d 14db 3f3d
000003c0: 0e0f 1f3d 72f8 023d d85d 113d 48b6 5f3c
000003d0: c4b4 bd3c 4c65 803d 28f1 cc3c 681a 693c
000003e0: 80cd 89bb f544 06bd 7112 06bd e8a5 50bc
000003f0: 8016 643b 6e82 0a3d 567c 0ebd b857 163d
0.0237009 -0.031405635 -0.050131314 -0.020874117 0.058884427 -0.03745146 0.002792202 0.0604233
-0.066872336 -0.008414328 0.01015234 0.01841648 -0.063021824 -0.07172011 -0.06236673 -0.051460132
-0.047790572 -0.07096101 -0.061021313 0.0027958453 -0.031198684 0.030701764 -0.047672212 -0.023793612
-0.06442609 0.05754447 0.014665425 -0.037005786 -0.051353127 0.04995305 -0.05674116 0.033964135
0.030170955 0.013875686 -0.05316981 -0.067570776 -0.009235166 0.0343298 -0.040482134 -0.009982131
0.035828285 0.06629628 -0.07044889 0.058222637 0.0049743652 0.027877964 0.03424734 0.061665818
0.058386117 -0.0020270199 -0.03301177 0.050227836 -0.05533006 0.02443184 -0.054767348 0.020415284
-0.04661779 0.035788633 -0.02314403 -0.060464002 -0.019975573 -0.050165318 0.021720998 -0.052184805
0.027348101 0.034519322 -0.06376254 0.027021997 0.071321696 -0.026838467 -0.043115456 -0.056030497
0.041733123 0.06596348 -0.037665278 -0.0048686117 -0.009078257 0.06978035 -0.013032202 0.049772196
-0.055849303 0.018415682 -0.014367625 0.027726352 -0.039743107 0.038245656 -0.07088466 -0.04326248
0.03005027 -0.06760105 -0.030195069 0.038530014 -0.013429876 0.015387602 0.0220218 0.006247245
-0.0269764 0.018926166 0.03592138 0.057067275 -0.047122147 -0.0118616335 0.033722498 -0.057837535
-0.021574821 0.018445536 -0.026889026 -0.058736015 -0.02051162 -0.0020393655 -0.04644046 -0.026377939
0.06496094 0.02164425 0.020082437 0.0585099 0.03316909 0.013794854 -0.030455153 0.05753228
-0.06688814 0.04519645 0.03932546 0.000305295 0.0391073 -0.004802577 0.010920085 0.024172105
-0.025918964 -0.010280579 0.02122613 -0.057917964 -0.04274492 0.067761675 0.02333574 -0.06901956
0.030893274 0.07102886 -0.011053547 -0.0039855316 -0.03493112 -0.065962106 0.04333122 -0.041455343
0.05959268 -0.055140216 0.021732964 0.03807056 -0.028434187 0.053289846 0.06217423 0.011785306
-0.06790177 -0.044717688 -0.01184579 -0.011728238 -0.011637904 -0.055416096 -0.056816254 -0.047299907
-0.02886597 -0.051744666 0.012727663 -0.0032706931 -0.044961736 0.01628387 0.0128163025 0.005981162
0.0049692243 -0.006231807 0.021581903 0.053429946 -0.04715628 -0.027013607 -0.008631848 0.017454602
0.059083343 0.034878455 0.010143645 -0.013540063 0.028221302 -0.039689805 -0.059512604 0.056297526
0.030670837 -0.038708862 -0.05715651 0.064752385 -0.024954736 0.026146248 -0.019399859 0.020777509
0.071927264 -0.058609113 0.06780279 -0.02145341 0.07281247 -0.010835528 0.050634563 -0.04789139
0.04949776 -0.036169883 -0.008764289 -0.067397095 -0.00580848 0.027693361 0.021127447 -0.06226307
0.03631801 -0.0674823 0.02944617 -0.007818431 -0.017099462 0.06908092 0.072421536 0.0032866895
-0.01487308 -0.001523532 0.038330846 -0.05571612 -0.06339655 0.036513105 0.03636141 0.010815613
-0.06083527 0.04006856 0.060812682 0.011107974 0.0533074 0.067360386 0.016739689 -0.013895009
0.033438645 -0.0352078 0.046990603 0.031116731 -0.022921328 -0.04307243 0.056282967 0.04683979
0.038832717 0.031975217 0.035489887 0.013654299 0.023157485 0.06269321 0.025017336 0.014227487
-0.0042054057 -0.032780606 -0.03273243 -0.012734868 0.003480345 0.033815794 -0.034786545 0.03670475

layer1.bias f4 [512]
00000000: 18bb 603d fa2d a3bc d658 37bd 7ea6 06bd
00000010: 7adb 3f3d 0cc5 813d eef3 b1bc 9601 8c3d
00000020: f522 24bd 54c0 593d 2606 30bd 9003 013d
00000030: 60cb e43b c2ce 033d 7ed5 503d 0370 06bd
00000040: 300f 823d e854 ecbc 0866 963c 1054 c1bb
00000050: 67e7 48bd 507f 2f3d 152f 2cbd 7bbe 7ebd
00000060: d4e7 a03c 807c e0bb 00cd 6bba f6b9 44bd
00000070: c045 a33c b431 883c 00df 833d f499 efbc
00000080: d09d ef3c 50cc 703d 90a9 ad3b 60a6 f3bc
00000090: c04f 393c 6074 2f3d e0e2 07bc e059 743d
000000a0: 78f1 833d 9b35 4fbd 00b2 22bc 107b 823c
000000b0: b869 d33c d47a a33c 864d 8e3d 2ebb 053d
000000c0: 108b 61bd 68bd 313c fc79 68bd 64cb 603d
000000d0: 1ce6 913d 2814 37bd 30ae 8d3c b99a 09bd
000000e0: 6a03 76bd 8099 9d3b b082 3c3d 1c75 6cbc
000000f0: b06c ebbb a094 bf3c c067 f93a ca2e 80bd
00000100: 7852 0fbd c264 dabc d030 c23b 869d cfbc
00000110: 0225 853d 7c5d 973c 10eb 99bb 8cbb 193d
00000120: 14b7 b5bc bcd8 bebc a04b 6f3c 467b 893d
00000130: 625a 80bd 788d 28bd dea2 f1bc 8c57 3cbd
00000140: 30a1 05bd 94b3 56bd f0e1 c23c c0f8 653d
00000150: 083b ef3c 1bc4 2dbd f043 a8bc 743f 573d
00000160: 9e09 423d 2cb4 503d 34d1 f53c b83e 6d3c
00000170: 2892 7c3d d058 8b3c 8293 bfbc 84c5 713d
00000180: 5c32 873d 2854 1fbd 60d0 dcbc 942b 793d
00000190: f0c4 d7bc b085 f7bb 4a8f f2bc 143c c2bc
000001a0: e865 793c 704b c83b 8366 24bd 1a8e 333d
000001b0: 20d7 203d 7061 c63c 58a5 7c3c ec43 ab3c
000001c0: 59d4 37bd b842 7cbd 9433 3f3d 309d 773d
000001d0: e23c c4bc 5c0f 533d 7274 a0bc 74cc 60bd
000001e0: f52f 62bd 4834 01bc 942f 903d 922f 833d
000001f0: 40cb 913a 84d6 8b3d f04d bdbc 0aa5 68bd
00000200: 6aa7 54bd e272 3fbd 0586 8bbd 20de 0ebb
00000210: ba25 073d ce15 0f3d 9210 93bd 2663 86bc
00000220: 75b5 94bd 522c 933d 3c48 8fbd c088 e5bb
00000230: a851 8f3d a6d2 8d3d 8f1d 6fbd 486c 573d
00000240: f067 aa3b c80d 4b3d 0485 683d 3774 8ebd
00000250: ae9a 2b3d b581 82bd c0e6 083d 0837 20bc
00000260: 2cba f8bc 84fd 703d 7aec 8b3d 94cd a7bc
00000270: 246b 503d e0a0 793d 2899 553d 4a99 8a3d
00000280: dcd3 aa3c e005 89bd e652 4b3d 8025 1bba
00000290: 123c 843d 8e3d 4dbd ac2b 6a3d c0ec eb3a
000002a0: 2b1d 72bd 0032 e6b9 c0e9 ee3a f042 333d
000002b0: 722c 963d 44c0 be3c f456 48bd ccb3 d63c
000002c0: a829 a9bc 3c1b 56bd eeb8 e7bc 7085 47bc
000002d0: 48f5 c3bc 689f 473d 9694 debc d0bf 42bd
000002e0: b885 00bc 14a2 223d 28ec 0f3c 0054 c538
000002f0: b40c 81bd 246a 4bbc 4069 9e3c 34ac 90bd
00000300: c408 853d f09a 9c3c e09a a9bc 967f 8fbc
00000310: d948 43bd 98cd 20bc a05e 6a3d 1e7a 4d3d
00000320: f087 f33c f6fb 29bd 5b93 76bd 8aff e2bc
00000330: 3015 573c 40f6 013c bc2f 563d 76e8 c2bc
00000340: fe0d 40bd 4bbf 24bd a40b 253d d8d1 5d3c
00000350: 68e1 7d3c 1c4d 903d 181c 0abd 8864 7dbc
00000360: 98db 123c a0b9 ebbb 8204 54bd 436a 70bd
00000370: 2cb8 413d 6085 2c3c b093 5c3c a60e 3bbd
00000380: ec8e 74bd 6822 273c 2464 313d d654 92bc
00000390: 3e69 1b3d 801b 23bc 8c43 0c3d 36f3 81bd
000003a0: 8425 743d b22f 4c3d b06f 613d 4a50 363d
000003b0: 505a 393d 4a74 253d 5070 823d 987a 753d
000003c0: 1830 fb3c 60ae f53c cc63 d5bc c0ac b03b
000003d0: 2e55 81bd c0e6 3fbb ee0b 18bd 907a c63b
000003e0: 6463 7f3d 6e81 86bc 10fd 093d a6b8 45bd
000003f0: 40a0 60bd e0cc 46bc 1ce2 d43c 479b 19bd
0.054865927 -0.019919384 -0.044762455 -0.032873623 0.04684017 0.06336412 -0.02172276 0.0683624
-0.0400724 0.053161934 -0.042974614 0.031497538 0.006982252 0.0321796 0.050984852 -0.032821666
0.06350553 -0.02884908 0.0183592 -0.0058999136 -0.049048807 0.042846024 -0.04203709 -0.062193375
0.019641794 -0.006850779 -0.0008995086 -0.04802891 0.01993072 0.016625263 0.06439018 -0.029248215
0.029250056 0.058788598 0.0052997544 -0.02974242 0.011310518 0.042835593 -0.008293837 0.059656024
0.06442541 -0.05058823 -0.009930134 0.015927821 0.025807247 0.01995603 0.0694838 0.03264921
-0.05506426 0.010848381 -0.05675696 0.05488147 0.07123968 -0.044696957 0.017294973 -0.03359482
-0.06006185 0.0048095584 0.04602307 -0.014432218 -0.0071845874 0.0233863 0.0019028112 -0.06258924
-0.034990758 -0.026659373 0.005926229 -0.025343668 0.06501199 0.018477194 -0.004697211 0.037532374
-0.022182025 -0.023296706 0.014605433 0.06712966 -0.06267239 -0.04115054 -0.029496606 -0.04598193
-0.032624424 -0.052417353 0.023789376 0.05614543 0.029202953 -0.04242335 -0.020540208 0.052550748
0.047372453 0.050953075 0.030006982 0.014480285 0.061662823 0.017010123 -0.023385767 0.059026256
0.06601402 -0.038898617 -0.02695483 0.060832575 -0.026339024 -0.0075537786 -0.029609341 -0.023710288
0.01522205 0.0061125085 -0.040136825 0.04383669 0.03926766 0.024216384 0.01542028 0.020906411
-0.044880245 -0.061587065 0.046680048 0.06045264 -0.023954812 0.05152832 -0.019586775 -0.05488248
-0.055221517 -0.007886 0.07040325 0.06405558 0.0011123195 0.06828025 -0.023108453 -0.05679802
-0.05191747 -0.04674042 -0.068126716 -0.0021799877 0.032994963 0.034932904 -0.07180895 -0.0164047
-0.07261173 0.07186188 -0.069961995 -0.0070048273 0.069979966 0.069249436 -0.0583778 0.0525935
0.0052003786 0.04957369 0.05676748 -0.0695576 0.04189556 -0.06372396 0.033423185 -0.0097787455
-0.030362211 0.05883552 0.06832214 -0.02048377 0.050883427 0.060944438 0.052148014 0.06767519
0.020852976 -0.06690574 0.049639605 -0.00059183687 0.0645677 -0.05010753 0.057170555 0.0017999634
-0.059109848 -0.00043906271 0.0018227622 0.04376501 0.07332696 0.023285039 -0.04891105 0.02620878
-0.020649746 -0.052272066 -0.028286424 -0.01217781 -0.02392067 0.048736006 -0.02717046 -0.047546208
-0.007844381 0.03970535 0.008784331 9.409338e-05 -0.06301251 -0.012415443 0.019337296 -0.07064095
0.064958125 0.019116849 -0.020703733 -0.017516892 -0.047676895 -0.009814642 0.057219148 0.05016529
0.029727906 -0.041500054 -0.060199123 -0.027709741 0.01312761 0.007932246 0.052291617 -0.023792487
-0.046888344 -0.040221494 0.040294304 0.0135388 0.015495636 0.070459574 -0.0337182 -0.015465863
0.008963488 -0.007193759 -0.05176211 -0.05869509 0.04729478 0.010529846 0.013462946 -0.045668267
-0.059706613 0.010201074 0.043308392 -0.017862719 0.037942164 -0.009955287 0.034244105 -0.06345217
0.05960609 0.049850173 0.055038154 0.044510163 0.045252144 0.040394105 0.06369078 0.059931368
0.030662581 0.029990375 -0.026048563 0.005391687 -0.06315075 -0.0029281825 -0.037120752 0.006057091
0.062350646 -0.016419139 0.033688605 -0.048271798 -0.054840326 -0.012133807 0.025986724 -0.0375016

layer2.weight f4 [256, 512]
00000000: 9675 25bd 28a9 88bc 28d2 a63b 0072 3fbb
00000010: 14db 72bc a600 9b3c 29ba a8bc 2e51 23bd
00000020: 10a0 80bb 8e63 f73c 82ca f23c 0061 153c
00000030: 17dd 2e3d 00f3 de39 2886 a6bb 3c98 c4bc
00000040: d603 9dbc d167 133d 0024 3f38 dfc0 083d
00000050: 7861 49bc 46f7 fdbc ad67 333d 40e2 50bb
00000060: 6cdf 32bc 0e25 d83c d033 0d3b bf39 c0bc
00000070: b0bb 573c 202c 06bc 7cd8 a0bc fa4e 82bc
00000080: 4575 0dbd 75b5 2dbd 711d 223d 887e 993b
00000090: cc27 1dbd f899 dd3b 8b83 2b3d 040d 703c
000000a0: de6d 913c 8cb2 093c 3cd2 403c af63 1f3d
000000b0: be40 6cbc 7062 2abd 40af 3f3c 0ef1 fe3c
000000c0: b7bc 1b3d dc82 e3bc 4a0f e43c 3ca9 f3bc
000000d0: 70c5 4bbc 203b 863a 00c9 0cb9 10f0 dd3b
000000e0: 70f0 f3bb 38d9 463c 6ca3 273c 6048 65bb
000000f0: 8cfa 333c e574 27bd 8577 81bc 803c 593a
00000100: d27d ae3c 7894 c4bb 6f1e 0d3d de44 843c
00000110: 26ba fc3c d8aa a4bb 5e84 843c 2a5a 03bd
00000120: 7868 b2bc fcfc 573c 4283 de3c 9272 a93c
00000130: cd46 033d bacd b03c 8345 b8bc 19f9 003d
00000140: 496e 98bc dec2 af3c 381d 593c 9db6 103d
00000150: 0a90 e3bc e49b d1bc 7d7d 31bd 1e80 75bc
00000160: f819 febc 785f ffbc 20b7 45bb 0d2e 053d
00000170: dad8 f53c 2078 f7bb d3c9 bbbc fcec 79bc
00000180: 4d54 93bc 1048 5ebc 42fa 813c f07b 033c
00000190: da89 cb3c 2d6b 0b3d dd37 303d dcdc 1b3c
000001a0: 7cb0 503c d808 30bd 1818 11bc 66e5 1cbd
000001b0: 305d 83bb 6078 10bd 6b7e 8fbc cfca 323d
000001c0: 587e 1ebd 5882 9bbb 2078 edbb 06f4 8cbc
000001d0: ba67 d23c e190 07bd 00f8 563a b2c9 fa3c
000001e0: c046 f1bb 8ae9 cb3c 8a02 873c fcb5 483c
000001f0: e019 ea3b e38b 0c3d 2c9b 8e3c 88e9 47bc
00000200: fc65 2cbd 606e 8a3a 2d25 213d 00d9 05ba
00000210: 5638 28bd 948f 3abc 97e4 063d c468 7c3c
00000220: c69f 04bd f8d1 1f3c 61ef 053d c06a 703c
00000230: b764 223d 00a4 9f39 7ece d1bc 0a6f a6bc
00000240: 6ee4 d93c 9cb2 32bc 50c7 b03b 8a9e ca3c
00000250: d08c 3e3b 6461 763c 2d3e 303d 182e da3b
00000260: e840 fdbb e787 92bc 0a31 21bd a486 2c3c
00000270: 8a0e 5fbc 5cc4 763c 8591 0abd 76d2 15bd
00000280: d813 ec3b d3da babc cce6 11bd 6468 fabc
00000290: 4044 46bc 2267 8e3c 7014 aa3b 6c4d 50bc
000002a0: 4c94 303c fca3 63bc dc54 bcbc b23b e93c
000002b0: af32 17bd f62c 8abc df09 223d 30cc d73b
000002c0: f632 9a3c a9d8 333d 38e5 b63b fe06 0cbd
000002d0: 081d efbc 024e 1bbd c24e 2bbd 2d3d 2a3d
000002e0: 449f 51bc a231 963c 5089 bb3b 8518 1dbd
000002f0: ee98 8d3c 3681 f43c 5bd1 03bd 60c2 daba
00000300: 3e75 64bc 9b29 cfbc 80de 33bc 40fa 0bbd
00000310: 5822 983b 900d f43b 704d 04bc bc1e 08bc
00000320: e690 b03c 22ac 85bc 1028 c8bc fa2c 66bc
00000330: 30f4 763c 94e8 24bd d251 5cbc c0bf f73a
00000340: 7e53 d33c 2e17 26bd 36f5 f63c 60b4 ecbc
00000350: 585f 10bc 6f14 0b3d d7c8 23bd 4e28 c73c
00000360: f8d8 b3bc f089 2bbd 7786 263d 967f f73c
00000370: 21a7 03bd f002 a43b 236e 143d 5863 003c
00000380: cf0b afbc 90c1 3e3b afb8 093d 54cf 58bc
00000390: 3823 cabb 1017 10bc 1684 dfbc e064 82bc
000003a0: 80df 09bb 68fc 08bc ab73 acbc afee 01bd
000003b0: e0a7 17bb 67e4 0b3d 52c1 ba3c bd51 18bd
000003c0: a21a 7bbc 6907 abbc e823 1ebd 2ffe 0dbd
000003d0: 181d ce3b 436c 093d 4cf4 40bc 504c 30bb
000003e0: 0a66 b93c 685a 83bc 48b8 d6bc 004a f3bc
000003f0: 768b e13c fe48 963c 384a 6cbc 664a b23c
-0.04039534 -0.016682222 0.0050909705 -0.0029212236 -0.01482274 0.018921208 -0.02059658 -0.03987234
-0.003925331 0.030198839 0.029637579 0.009117365 0.042691316 0.0004252419 -0.0050819106 -0.023998372
-0.019166868 0.03598768 4.5571476e-05 0.03338706 -0.012291305 -0.031001698 0.043800045 -0.0031873137
-0.010917526 0.026384857 0.0021545775 -0.023465035 0.013167307 -0.008189231 -0.019634478 -0.0159068
-0.034535665 -0.04240938 0.03957886 0.004684273 -0.03836803 0.0067627393 0.041873496 0.014651541
0.017752584 0.008404385 0.011768874 0.038913425 -0.014419733 -0.041597784 0.011699498 0.031120803
0.03802177 -0.02777236 0.027839322 -0.029743783 -0.0124372095 0.0010241009 -0.00013426319 0.0067730024
-0.007444434 0.01213675 0.010231834 -0.0034985766 0.010985028 -0.040882964 -0.015804062 0.0008286908
0.02130023 -0.005999144 0.03445285 0.01614612 0.030850481 -0.005025249 0.016176399 -0.03206841
-0.02177833 0.013182875 0.027162198 0.020684514 0.032049943 0.021582473 -0.022494083 0.031487558
-0.018607276 0.021455225 0.013251595 0.035330404 -0.027778644 -0.02558703 -0.043332566 -0.014984159
-0.031018242 -0.031173453 -0.0030168965 0.03251462 0.03001063 -0.007552162 -0.022923386 -0.015254255
-0.017984534 -0.013566986 0.015866403 0.0080251545 0.024846006 0.034037758 0.043022025 0.009513106
0.01273739 -0.042977184 -0.008855842 -0.03830471 -0.0040089116 -0.03527105 -0.017516335 0.043650445
-0.03869471 -0.004745763 -0.007246986 -0.017206203 0.025684226 -0.03309715 0.0008200407 0.030613754
-0.0073631704 0.024891634 0.016480703 0.01225042 0.007144198 0.034313094 0.017407976 -0.012201674
-0.042089447 0.0010561459 0.039342094 -0.0005105883 -0.04106935 -0.011386771 0.032932844 0.015405837
-0.032378934 0.00975465 0.032698993 0.014673889 0.03964683 0.00030449033 -0.025611158 -0.02031662
0.026598182 -0.010906842 0.0053948537 0.0247338 0.002907563 0.015037868 0.043028045 0.006658327
-0.0077286847 -0.017887069 -0.039353408 0.010530148 -0.013614306 0.015061464 -0.033830184 -0.036577664
0.007204514 -0.022809422 -0.035620496 -0.030567355 -0.012101233 0.017383162 0.0051904246 -0.012713771
0.010777544 -0.013894077 -0.022989683 0.028470848 -0.03691357 -0.016867142 0.039560195 0.0065856203
0.018823128 0.043907795 0.005581524 -0.034186356 -0.029188648 -0.03791619 -0.041823156 0.041562248
-0.01279432 0.018334214 0.005723156 -0.03835346 0.017284837 0.029846769 -0.03218208 -0.0016690008
-0.013943968 -0.025288394 -0.010978341 -0.034174204 0.004642766 0.007447906 -0.008075103 -0.008308109
0.021553468 -0.01631743 -0.024433166 -0.014048809 0.015072867 -0.040260866 -0.013447242 0.001890175
0.025796648 -0.04054945 0.030146223 -0.028894603 -0.008811794 0.033955034 -0.039986458 0.024311211
-0.021954045 -0.041879594 0.04065558 0.030212205 -0.03214181 0.005005233 0.036237847 0.007836185
-0.021367935 0.0029107071 0.033623394 -0.013233025 -0.006168749 -0.008794561 -0.027284663 -0.015917242
-0.0021037757 -0.00836096 -0.021051249 -0.031721767 -0.0023140833 0.03415337 0.02279726 -0.037187327
-0.015326174 -0.020877557 -0.03860846 -0.034666236 0.0062900893 0.033550512 -0.011776995 -0.0026900955
0.022631664 -0.01603432 -0.026210919 -0.029698372 0.02753232 0.018345352 -0.014421992 0.021763992

layer2.bias f4 [256]
00000000: 90da 553b 15ed 233d c39f 213d f0c1 963b
00000010: 5c24 7a3c 9e19 72bc 07f4 b5bc 76f2 c73c
00000020: f6c3 dd3c ed5c 92bc 0319 2a3d 24e5 b6bc
00000030: 7ee4 993c 14b1 2d3c 402e 733c 9ce0 403c
00000040: 15d5 193d c8f0 1ebd 36a3 a03c a05b 5d3b
00000050: bff0 243d 48c9 d63b 22c5 ad3c 108e 183c
00000060: df97 afbc 648d 38bc 648b efbc e0a6 c43a
00000070: 9025 21bb 1e58 c23c 2bc2 21bd 7da3 263d
00000080: aabd fc3c 3585 043d 69f6 2e3d adcb 073d
00000090: 01ed 303d f802 1bbc 1717 1d3d 87b5 183d
000000a0: b7cb 1abd 885e 0bbc dd35 063d 63ac 2a3d
000000b0: a6c8 2dbd dc4b 2dbc 87df 133d 85ef 2fbd
000000c0: 0053 4e3c deaa e43c 78f9 d2bb 8003 3c3b
000000d0: e2e3 90bc 1f1f 17bd d453 593c 2640 01bd
000000e0: dea4 b33c 2c11 91bc 9cb7 dcbc 87c2 0e3d
000000f0: 1e90 f2bc c356 02bd 4a1a 963c dd4e dbbc
00000100: dd6c 163d c287 ba3c c85e 48bc 601f 92ba
00000110: 2c6a 57bc d2e6 f03c b43d 7f3c 5401 42bc
00000120: aeab ac3c 8c50 02bd e71f 86bc 157f 103d
00000130: 8417 513c dead fd3c 6874 b5bc 1b27 023d
00000140: b66b 813c 471e 21bd 0e1a 99bc 6c95 f0bc
00000150: 00f7 8d3b 1983 98bc a89f f3bc aa4b be3c
00000160: 508d 2dbb c500 0e3d b809 18bc 692c 023d
00000170: a3fb d3bc 2edd 833c 1822 80bb acc1 883c
00000180: d659 bb3c 8324 afbc 28b3 5f3c a802 373c
00000190: 54a6 0fbc c57b 163d e8e7 debb 4c88 1abc
000001a0: fa2a 903c c0d1 86bc 73b0 06bd de35 a23c
000001b0: f251 ef3c e786 173d 8eb8 b9bc 905d 6e3c
000001c0: b8ff ecbb 1ea5 ba3c 0052 323b ae37 c53c
000001d0: 80bf abba 9c8f 313c f45f 563c 5ab2 e63c
000001e0: 40c1 6fbb 3037 2b3c 201d 14bb 1ca6 30bd
000001f0: b9df f6bc 3de7 05bd 467a 66bc 179e d3bc
00000200: 9ba9 09bd 00e2 83bb 107a 6cbc 60e9 77bb
00000210: 5832 1fbc b715 1d3d 8e8c cc3c 0083 a839
00000220: 2606 b93c b7fc cebc b078 dfbb 5a69 efbc
00000230: 3062 263c 5030 2ebd c2f7 62bc afb5 84bc
00000240: 363b 59bc 0bc4 9ebc 6e05 813c 481f c5bb
00000250: fad7 0bbd 78cc 4e3c 78d6 a8bb a830 29bc
00000260: 126c f53c 9db0 28bd 310d 053d e245 a33c
00000270: 6c06 14bd 508b c03b f8ff c43b 2008 20bc
00000280: 0db5 0e3d 86e8 07bd 1cde 323c fb7e 1b3d
00000290: 2540 98bc 58b2 133c 804a 1d3c b621 d2bc
000002a0: 5887 913b 1387 c9bc a043 583c 75ba 03bd
000002b0: 9167 033d 34ba bdbc 5a5d f13c a822 713c
000002c0: 1eac 93bc e0ee ad3b f55d 183d b040 083b
000002d0: f854 e53b 20e4 da3a 8cac 4f3c 8614 2abd
000002e0: 86b6 803c f86a 3f3c 831a 17bd 68e1 f03b
000002f0: ba16 08bd cca7 0bbc cc6d 7d3c 0084 3a3a
00000300: a885 12bd a447 1bbd 5c71 8f3c 9004 273c
00000310: d288 f93c 7f7c 333d 8272 c33c c3a1 8bbc
00000320: 10b7 17bb c19c dbbc 939d 8bbc dcfa 3abc
00000330: 98bb 23bd be25 863c 60f3 e9ba 5a21 5abc
00000340: d892 903c 0c45 31bd 3a6b b7bc ae7e ac3c
00000350: 39ef 323d dd6f 0f3d 1094 05bb 60c0 213b
00000360: e8f0 12bc 1509 c6bc d047 64bc 2a7c 2bbd
00000370: c1a6 083d 84d0 563c ca93 74bc 68f8 533c
00000380: d208 2dbd 1b06 023d 72cd eb3c 1ed5 25bd
00000390: acd9 0b3c aa78 d93c 1030 22bd cced eebc
000003a0: cef8 c53c 0026 d338 425d 96bc 3bdb 183d
000003b0: feaa a03c 16c9 d2bc 7918 91bc 4c97 073c
000003c0: 366c d4bc ca36 d93c 7099 d4bb 61bb e6bc
000003d0: 8004 a23b eee4 d73c 8e39 ab3c 5002 53bc
000003e0: d0cc 33bd 6d6d e5bc c8b1 00bc 25ec 313d
000003f0: 4372 c2bc 7ece ffbc 248d 11bc 3d56 b8bc
0.0032631494 0.04002102 0.039459 0.004600756 0.015267458 -0.014776615 -0.022211088 0.024407607
0.02707098 -0.017866576 0.04152776 -0.02232606 0.018785711 0.010601301 0.01484257 0.011772301
0.037556726 -0.038803846 0.019609075 0.0033776537 0.040268656 0.0065547563 0.021212164 0.009311214
-0.021434722 -0.011264179 -0.029241271 0.0015003346 -0.002458904 0.023723658 -0.039491814 0.04068326
0.030852158 0.0323536 0.042715464 0.033153225 0.043194775 -0.009461157 0.0383521 0.037282493
-0.037791934 -0.008506425 0.03276621 0.041668307 -0.04242768 -0.010577168 0.036101844 -0.042953033
0.012593031 0.027913507 -0.0064384304 0.002868861 -0.017686788 -0.036894914 0.013264615 -0.031555317
0.0219292 -0.017708384 -0.02694302 0.034853484 -0.029609736 -0.031821024 0.018323082 -0.026771003
0.036724914 0.022769812 -0.012229629 -0.0011148266 -0.013147872 0.029406939 0.015578676 -0.011841137
0.021077957 -0.031815097 -0.016372634 0.035277445 0.012761954 0.030966695 -0.022150233 0.031775575
0.01579843 -0.039335515 -0.018689182 -0.029368125 0.004332423 -0.0186172 -0.029739216 0.023229439
-0.0026481934 0.034668703 -0.009279661 0.031780634 -0.025876826 0.016096678 -0.0039103143 0.016693912
0.022869986 -0.021379715 0.013653554 0.011170067 -0.008767683 0.03673913 -0.0068025477 -0.00943191
0.017598618 -0.016457438 -0.03288312 0.019801077 0.02921388 0.036993887 -0.02267101 0.014548674
-0.0072326325 0.022783812 0.002720952 0.024074402 -0.0013103336 0.010837462 0.0130844 0.028161217
-0.0036583692 0.010450169 -0.0022600368 -0.043127164 -0.030135976 -0.03269123 -0.014067238 -0.025832219
-0.033609014 -0.004024744 -0.014433399 -0.0037828311 -0.009716593 0.038350787 0.024969365 0.0003214106
0.02258594 -0.025266988 -0.006819807 -0.02922504 0.010155246 -0.042526543 -0.013853015 -0.016199915
-0.013258746 -0.01938059 0.01574966 -0.006015692 -0.03414152 0.012621991 -0.00515252 -0.010326542
0.029958759 -0.041184057 0.032483283 0.019930784 -0.036138937 0.0058759823 0.006011959 -0.009767562
0.034840632 -0.033180736 0.010917213 0.037962895 -0.018585274 0.009014688 0.009600282 -0.02565084
0.004441183 -0.024600541 0.013199717 -0.03216024 0.03208119 -0.023160078 0.029463459 0.014717735
-0.018026408 0.005308017 0.03719898 0.002079051 0.0069986545 0.0016700067 0.012675416 -0.04152348
0.015712034 0.011683218 -0.036890518 0.0073510893 -0.0332248 -0.008523893 0.015468072 0.00071150064
-0.035771996 -0.03791012 0.017510109 0.010193959 0.030460749 0.0438199 0.023858313 -0.017044907
-0.0023149885 -0.026808145 -0.01704291 -0.011412349 -0.039973825 0.016375419 -0.0017849021 -0.013313616
0.017648146 -0.04327874 -0.022389997 0.0210565 0.04368517 0.03501879 -0.0020382442 0.0024681315
-0.008968569 -0.024174253 -0.013933137 -0.04186646 0.033362154 0.013111237 -0.014927814 0.012937643
-0.04224474 0.031744104 0.028784487 -0.040486448 0.008535784 0.026546795 -0.039596617 -0.029166125
0.02416649 0.00010068342 -0.018355016 0.03731845 0.019612785 -0.02573065 -0.017711865 0.008275818
-0.025930505 0.026515383 -0.0064880177 -0.028165521 0.004944384 0.02635428 0.020901468 -0.012878969
-0.043896496 -0.02800628 -0.007854886 0.043438096 -0.023736125 -0.031226393 -0.008883748 -0.02250206

layer3.weight f4 [30, 256]
00000000: 3c58 963c 2221 56bd 32c0 3abd b8f1 7a3d
00000010: 4876 1c3c 80e3 fc3b 08e0 42bc 90e8 973b
00000020: 0022 1abd 88ce 763c c039 4e3b 4a02 263d
00000030: 56f9 003d 14f4 1a3d 5a34 18bd f2e3 4bbd
00000040: 18dc 3dbd 8012 0a3d 04be 15bd 502b bfbc
00000050: 3891 a83c a87d 83bc 84d9 6cbd 2059 afbc
00000060: caa9 6f3d ccda 203d 20eb f33c 3cbe 2e3d
00000070: 90e3 a53b f8c3 8abc e889 183d 4e9f 3bbd
00000080: 5045 c73b 8a3e 5cbd 7053 393d 00a6 113c
00000090: 581f 073d e426 9abc 06c8 763d 6811 6ebd
000000a0: c8bd ba3c a06a 5c3b 942f 093d 989d 263c
000000b0: 1ed9 543d f878 9d3c 022c 233d 8005 90bc
000000c0: 0884 513c 84a5 673d 72d0 56bd ccb1 5d3d
000000d0: 6624 423d 7cc3 4a3d 4471 fb3c 30ae 3d3c
000000e0: a8df 56bd 2a8a 0abd 98a1 0ebd 488f 363c
000000f0: 80e0 d13c b667 2c3d 800e 3ebc ea4c 5d3d
00000100: ce77 2c3d 7083 51bc 4cda 6abd a090 31bd
00000110: 286e 823c 50f6 ddbb 14cb 593d 66de 73bd
00000120: cc47 f9bc 30e9 7c3d 160e 64bd 8087 5c3c
00000130: b0c2 38bd f456 95bc 0093 80ba d0c8 12bd
00000140: e0ff 90bc 80fc 0e3d 7e93 52bd 7848 7abc
00000150: 20b3 403d 4c05 13bd 22fc 52bd ccb2 983c
00000160: 90fb 91bc 7067 d83c 009d 37bc bc11 cfbc
00000170: 9c92 67bd b0a8 1dbd 0c12 cdbc 607c 323d
00000180: 4800 7cbd a092 0d3b 143e 1dbd ea4f 69bd
00000190: 187d 42bc 60f7 8dbc 587c 053c 109b 913c
000001a0: 00a0 80bc c8c2 cb3c c0fc fc3c d09c aabc
000001b0: 447f 08bd 3075 953b b4d1 5dbd 3e59 353d
000001c0: 10c7 e3bb 60f3 98bb 00f8 703d 64da c43c
000001d0: a8a3 7b3d 8ccb 72bd f0b3 e53b 3e3a 31bd
000001e0: 8c80 dfbc 32c4 473d 80ab b1bc 281d a53c
000001f0: 6043 c3bc 4857 64bc 0066 16bc 664b 7fbd
00000200: c834 b13c 0431 743d acca b3bc 1a71 0c3d
00000210: 0018 953b 602c 4a3b e201 533d 740f dabc
00000220: 3e4d 70bd 56b9 043d c0bf 75bd 8675 3d3d
00000230: 82c7 433d 200b 44bb b4e1 bebc 10ad 683d
00000240: d029 5d3c 7452 953c 28d0 03bd 0427 603d
00000250: 58c3 3dbd 281b a73c f6b0 0fbd 8022 903b
00000260: 6823 b53c a89b 7abc 9a1b 3cbd 7256 2fbd
00000270: 0eeb 79bd 38d7 193d 0090 6c3a f8ce ad3c
00000280: 526e 7e3d acea 613d dc17 2dbd 88e0 94bc
00000290: f639 183d 4c30 463d e27a 2c3d 4867 723c
000002a0: 266f 1cbd 404f c93b aa95 34bd 7277 74bd
000002b0: f89d d03c 1ed3 3b3d a0b3 7f3c d467 7a3d
000002c0: 5e7a 60bd dc24 053d dc88 6cbd 2419 973c
000002d0: 725b 00bd 5033 643d dc29 6b3d 60cf 19bb
000002e0: 0e7b 3dbd a867 003c d01a 0cbd f2b3 6bbd
000002f0: 009a 5a3b 0c9a fa3c 763c 6d3d e4a0 7d3d
00000300: 4c82 153d bcda bf3c 4c3b 023d 24ad 0ebd
00000310: ba0e 693d a8bd 0b3d 7cc6 58bd 7033 a53b
00000320: 6686 1a3d d45b d53c 0877 3cbc 707d 20bc
00000330: 664d 4bbd f4b7 d23c d251 78bd 0e2d 3e3d
00000340: 14bf e13c 90cf b6bc 803d b03c d49d d8bc
00000350: b0ea 0cbc fcde a43c a0fa f73c 4404 223d
00000360: 541b 44bd 182b 44bd bc2f 893c ae64 7fbd
00000370: 8c02 3fbd f09f e3bb 6c08 7b3d a240 7e3d
00000380: 78ee 75bd 0cb5 14bd e046 7c3c c0f7 123b
00000390: 28d8 743d 94c5 efbc 008d 50ba 0e4c 1a3d
000003a0: 48ab 8c3c 2010 953c 40d1 5ebc 6474 49bd
000003b0: a0e3 9f3b c0e5 ec3b 9203 5f3d e0a4 37bc
000003c0: a010 1cbc a46c 24bd 6c37 353d 0046 7d3c
000003d0: 8814 4f3d ba09 48bd 208c 84bb cebf 34bd
000003e0: 50d1 393c 60c7 4fbd e60e 6bbd 64fe 1c3d
000003f0: beb1 293d 2e40 15bd aead 52bd f8d8 013d
0.01835262 -0.05227769 -0.045593448 0.061265677 0.009549685 0.00771755 -0.0118942335 0.004635878
-0.03763008 0.015063889 0.0031467527 0.040529527 0.031487785 0.037830427 -0.0371593 -0.049777932
-0.046352476 0.03370905 -0.036558166 -0.023336083 0.020577058 -0.016051129 -0.057824627 -0.021404803
0.058511533 0.03927116 0.029775202 0.04266189 0.005062528 -0.016939148 0.037240893 -0.04580622
0.0060812607 -0.05377058 0.045245588 0.008889675 0.032988876 -0.018817373 0.06024935 -0.05812207
0.022795573 0.003363289 0.03349264 0.010169409 0.05196487 0.019222721 0.03983689 -0.017580748
0.012787826 0.056554332 -0.052444883 0.05412464 0.047397994 0.049502835 0.030693658 0.011577174
-0.05245939 -0.03382317 -0.034822077 0.011142559 0.025619745 0.042091094 -0.011600137 0.05402843
0.042106442 -0.012787685 -0.05733709 -0.043350816 0.015921667 -0.0067737475 0.053172186 -0.059538268
-0.030429743 0.061745822 -0.055677496 0.01346004 -0.045107543 -0.018229939 -0.0009809434 -0.03583604
-0.017700136 0.03490877 -0.05141019 -0.015276067 0.047045827 -0.035893723 -0.051509984 0.018639944
-0.01782015 0.02641651 -0.011206865 -0.025277011 -0.056536302 -0.03849095 -0.02503302 0.043575644
-0.061523706 0.0021602288 -0.03838928 -0.056960978 -0.011870645 -0.017329872 0.008147322 0.017774135
-0.015701294 0.024873152 0.03088224 -0.020826727 -0.033324495 0.004561089 -0.054155067 0.04427456
-0.0069512203 -0.0046676844 0.05883026 0.024029918 0.06143537 -0.05927615 0.0070099756 -0.043268435
-0.027282976 0.04877109 -0.021688223 0.020155504 -0.023835838 -0.013936825 -0.009179592 -0.062327765
0.021631613 0.059617057 -0.021947227 0.03428755 0.00454998 0.0030849203 0.051515467 -0.026618697
-0.058667414 0.032403313 -0.05999732 0.046254657 0.047797687 -0.0029913858 -0.023300983 0.05680567
0.013498738 0.018227793 -0.032180935 0.05472471 -0.046328872 0.020398691 -0.035080872 0.004398644
0.02211161 -0.0152959 -0.04592476 -0.04280705 -0.06101518 0.037558764 0.0009024143 0.021216854
0.06211693 0.05515544 -0.042259082 -0.018173471 0.03716465 0.048385903 0.042109378 0.014795132
-0.038191937 0.0061434805 -0.044088043 -0.059684224 0.02546595 0.045855634 0.015606791 0.061134174
-0.0548042 0.032505855 -0.057747707 0.018444605 -0.03133721 0.055712998 0.057412967 -0.0023469552
-0.046259932 0.007837214 -0.034205258 -0.057544656 0.0033355951 0.030591033 0.05791899 0.061921015
0.036501214 0.02341973 0.03179483 -0.03483309 0.05689881 0.034116417 -0.052923664 0.005041532
0.03772583 0.026044764 -0.011502989 -0.009795532 -0.04963436 0.025722481 -0.060624905 0.046429686
0.027556933 -0.02231577 0.0215137 -0.026442446 -0.008600876 0.020125858 0.030270875 0.03955485
-0.047877625 -0.04789266 0.016746394 -0.062351875 -0.04663329 -0.0069465563 0.06128733 0.062073357
-0.060041875 -0.036305472 0.015397757 0.0022425503 0.059776455 -0.029269017 -0.0007955581 0.037670188
0.017171517 0.018196166 -0.013599694 -0.049183264 0.00487943 0.007229537 0.054446764 -0.011208743
-0.009525448 -0.04014267 0.044242308 0.015458584 0.05055669 -0.0488374 -0.0040450245 -0.04412823
0.011341408 -0.05072725 -0.057387255 0.038328543 0.041429274 -0.03643816 -0.051435165 0.03170106

layer3.bias f4 [30]
00000000: 0073 c8ba 529b 71bd 2002 fbbc 2058 62bb
00000010: 8634 0dbd e082 3cbc 1429 7fbd 8083 e7ba
00000020: d494 353d ac8f dc3c a87e 723c a64c 0e3d
00000030: 9041 44bd 0633 52bd a6c0 663d 6c02 943c
00000040: 4c66 b33c b078 7e3d 90e7 a73c 80ff a0bc
00000050: 781d e93c bcfe a93c 3cf4 48bd 709b 063c
00000060: 74e1 69bd 0c49 1bbd c819 59bd 2464 d0bc
00000070: 6081 023d 3463 94bc
-0.0015293062 -0.058986016 -0.030640662 -0.003453739 -0.03447392 -0.011505812 -0.062295035 -0.0017663091
0.044331387 0.026923977 0.014800705 0.034741066 -0.047914088 -0.05131819 0.056336068 0.018067561
0.021899365 0.062126815 0.02049616 -0.019653082 0.028456435 0.02075135 -0.049061045 0.00821577
-0.057099774 -0.03791146 -0.053003103 -0.025438376 0.031861663 -0.01811371
