project/output/models/Model_Policy_Doubles-v1.0.0.pth (torch, 938000 bytes, 6 tensors)

layer1.weight f4 [512, 184]
000000 1f b1 36 3e 7b ec 12 3e 22 1b 25 3c 80 fe f7 3b
       0.17841004 0.14348023 0.01007727 0.0075681806
000010 20 15 26 3d c0 c2 d4 3a 2f dd 76 bd 36 bc 00 be
       0.04054749 0.0016232356 -0.06026953 -0.12571797
000020 c0 ca 52 bd ba 09 0a 3e 98 76 05 bd 73 20 96 bd
       -0.05146289 0.13480273 -0.032583803 -0.07330408
000030 13 2b ea bd 94 30 30 3d 1c b2 2f 3d f5 2e 6d 3d
       -0.11433997 0.043015078 0.042894468 0.05790611
000040 70 c3 ce 3b d7 d0 89 3d 80 87 cf bc ea e6 94 3d
       0.006309919 0.06729286 -0.025333166 0.07270606
000050 b1 6e 1a 3d ac 93 73 3d dc 50 2b bd f8 9a b3 bd
       0.03770322 0.059467003 -0.04182516 -0.08769792
000060 96 42 08 3d 9b e4 84 bd e0 3a 05 3c 48 b8 3b 3d
       0.033266626 -0.064889155 0.008131713 0.04583004
000070 3a d2 9d bc 5b 33 c1 bd 50 de 93 3d 76 35 88 bd
       -0.019265283 -0.094336234 0.07220137 -0.06650822
000080 20 80 c9 bb c0 d0 d1 3a ce 0e 44 3d 02 36 86 3d
       -0.006149307 0.0016007647 0.04786568 0.0655327
000090 a0 f9 cc bb d0 ba 26 bd 3b 70 26 ba a6 f3 eb bc
       -0.0062553436 -0.040705502 -0.0006349121 -0.028802704
0000a0 50 3a 68 3d 28 d9 93 3c 5b 8f 23 3c ac 18 c8 3c
       0.056696236 0.018047884 0.009982909 0.024425827
0000b0 2c 72 58 bd 1a c2 05 3d 1b d1 bc bc 40 29 9c 3c
       -0.052843258 0.032655813 -0.023048928 0.019062638
0000c0 40 03 6f 3b 3e 41 47 3d 3b 30 ae bd 39 14 50 3d
       0.0036470443 0.048646204 -0.08505293 0.050800536
0000d0 c6 68 b9 bc 0c 2e 12 be dc 00 88 bd 45 86 6b 3d
       -0.022632968 -0.14275378 -0.06640789 0.057501096
0000e0 88 05 87 3d 2c a7 0d 3d 50 23 bb bb ae 8c a0 3d
       0.06592852 0.034583256 -0.0057109967 0.078393325
0000f0 2c ea 46 bc 36 83 35 ba 24 e5 f2 bc b0 51 02 3c
       -0.012140792 -0.0006924154 -0.029650278 0.007954046
000100 0a e0 f8 3c f8 0b 5a bc f4 0c 5f bd e7 7a bf bd
       0.030380268 -0.013308518 -0.054455712 -0.09349614
000110 40 df 77 3d f4 45 9d 3c 70 6a f1 3c 3c c9 9f 3c
       0.060515642 0.019198395 0.029469699 0.019505136
000120 12 7d c6 bc 3c 39 e4 bd 46 73 4f 3d b8 98 6f bd
       -0.02422956 -0.11143729 0.050647043 -0.058495253
000130 d0 2b e2 bb 6e 16 6a bd b4 26 8a 3c 2e a5 dc 3c
       -0.0069021955 -0.057150297 0.016864158 0.026934233
000140 40 1b 50 3c a4 29 19 3d e6 aa b8 3d 71 9d 85 bd
       0.012701809 0.037393227 0.09016971 -0.0652417
000150 8a 25 24 bd 63 6c 25 bd 92 e8 7f 3d 44 34 80 3d
       -0.040074863 -0.04038657 0.062477656 0.06259969
000160 dc fd 3e bd 46 00 73 bd b8 f7 cf bc f5 83 2b be
       -0.046628818 -0.059326433 -0.025386676 -0.16749556
000170 64 53 7d bc 59 52 29 bd b4 41 a1 3c 94 82 6b 3d
       -0.015461776 -0.0413383 0.01968465 0.057497576
000180 d0 1d 2b bc fa fc 30 bd 28 59 b1 bc 6a 21 62 bd
       -0.01044412 -0.043210007 -0.021648958 -0.055207647
000190 7c 97 86 bd 7a f3 2b bd 40 98 8c ba e4 dc 40 bd
       -0.06571862 -0.041980244 -0.0010726526 -0.047085658
0001a0 c8 f3 bb 3c 2c 5f a6 3c ec 02 93 3c 20 e9 b3 bb
       0.022943392 0.020309053 0.01794573 -0.005490437
0001b0 0c 3c 8e bd 7c ec 3d 3d 4a 97 14 3d d4 c1 eb 3c
       -0.06945047 0.046368107 0.036277093 0.028778948
0001c0 64 af fb 3c 14 3f 56 3d 54 c6 75 bd 1e 31 d0 bc
       0.030723281 0.05230625 -0.060003594 -0.025414046
0001d0 d0 1e 30 3c f6 83 60 bd de 22 31 3d c4 d2 44 3d
       0.010749534 -0.054813348 0.043246143 0.048052564
0001e0 6c 8d 42 bd e8 80 22 3d 64 11 92 3d 0c bd 9a 3c
       -0.04749815 0.039673716 0.07132223 0.018888973
0001f0 73 90 2e bd 78 30 89 bc f4 77 fb 3c 20 d4 60 3d
       -0.042618226 -0.016746745 0.030696847 0.0548898
000200 a0 be 6f 3d 6a 14 53 bd 0b 35 86 bd 4c 2b a8 3c
       0.058531404 -0.05153314 -0.06553086 0.020528458
000210 00 45 46 3b 04 f3 86 3d da de 64 bd dc 4e 93 3c
       0.003025353 0.0658932 -0.05587659 0.017981939
000220 df 07 92 bd 24 d0 6d 3d 70 0c 81 3b 56 2b 60 bd
       -0.071304075 0.058059826 0.0039382502 -0.05472883
000230 20 f4 53 3c 00 9a b1 3c b0 f7 5c 3d 40 c9 fc 3a
       0.012936622 0.021679878 0.05394715 0.0019286051
000240 00 71 d6 3b f4 88 9c 3c 2a 87 18 3d a0 10 e4 3c
       0.0065442324 0.019108273 0.037238277 0.027839959
000250 e8 41 35 bc 30 55 83 bc 72 35 4a 3d 00 5c a3 3c
       -0.011063077 -0.016031832 0.049367376 0.01994133
000260 9c 0d 82 3c 00 c6 62 3b 00 9d 82 3d fb 92 67 bd
       0.01587563 0.003460288 0.063776016 -0.056536656
000270 ec 44 67 3d 1a 09 5f bd e4 74 ab 3c e8 99 8f 3c
       0.056462213 -0.05445204 0.020929761 0.017529443
000280 00 16 21 bc 20 47 3b 3b f6 e3 83 bd 60 83 3f 3c
       -0.009831905 0.002857633 -0.064399645 0.011689037
000290 28 0b 95 3d 38 ac 83 bc d0 96 8e bd 36 9e 00 bd
       0.072775185 -0.016073331 -0.06962359 -0.03140088
0002a0 db f7 7b bd 86 79 32 3d 5c 38 0b 3d 56 a6 8d 3d
       -0.06151567 0.043572925 0.033989295 0.06916492
0002b0 40 e7 7d 3d 1e a2 03 bd 2e 6e 0d 3d 40 70 b9 ba
       0.061988115 -0.03213703 0.034528904 -0.0014147833
0002c0 60 23 e8 3c c0 d0 d8 bb 50 46 00 3d 08 fd e1 bc
       0.02833718 -0.006616682 0.031317055 -0.027586475
0002d0 44 2e 88 3c 7c 3a 8d 3c 8e a5 09 3d c4 e8 85 bd
       0.016623624 0.017239802 0.03360515 -0.06538537
0002e0 c5 e7 2d 3c 5c 3b a4 be fe 12 05 bd e0 56 0a bb
       0.01061434 -0.32076538 -0.032488815 -0.002110891
0002f0 f4 e6 69 3d b8 79 19 3c b6 40 c4 bd 55 ce da bd
       0.05710502 0.009367399 -0.09582655 -0.10683886
000300 bf 7f db bd 3b 1d 93 bb 0a 20 92 3d 24 d1 9b bd
       -0.10717725 -0.0044895685 0.07135017 -0.0760825
000310 73 63 89 bd b0 95 e9 3b a0 59 1e bd 18 fb 95 3d
       -0.067084216 0.00712844 -0.03865969 0.07323283
000320 a0 4d 85 3d bc eb 69 bd 94 80 8b bc d0 90 5b 3d
       0.065089464 -0.05710958 -0.017029084 0.0536049
000330 4f 4f 8b 3d 1c 70 96 bd 3d a4 ad bd 7e 45 19 3c
       0.06802236 -0.07345602 -0.084785916 0.009354947
000340 70 94 e8 bb e8 69 36 bd 62 30 01 bd f4 dc 76 3d
       -0.0070977733 -0.044534594 -0.031540282 0.06026931
000350 68 7d 54 3d 17 1e 0d bb 5c 12 69 3d ea b4 4e 3d
       0.05187741 -0.0021532828 0.056902274 0.0504655
000360 3c 28 3f 3d 5e ac b1 bc 74 79 3d 3d 80 72 10 3d
       0.04666923 -0.021688636 0.046258405 0.035265446
000370 fa 56 85 3d bc da 5c bd 9a d3 84 bc 24 14 18 3d
       0.0651073 -0.05391954 -0.01621418 0.037128583
000380 bc 21 85 bd c9 c6 15 bd e7 90 21 3d cc c4 0d 3d
       -0.06500575 -0.03656653 0.03944483 0.03461151
000390 84 80 58 bd c0 12 6f bd 28 5a bc ba 52 fc 83 3d
       -0.052856937 -0.05836749 -0.001437013 0.06444611
0003a0 aa 65 1b bd ae 2d 56 bd bc c5 94 bc ad 49 0b 3d
       -0.03793875 -0.052289657 -0.018160693 0.03400581
0003b0 e4 71 5a 3d 08 34 f6 bd 22 12 3a 3d 8c cb 10 3d
       0.05333127 -0.12021643 0.04542745 0.035350367
0003c0 b8 61 1a 3d 10 fa 94 3d 00 12 32 b9 2b a6 48 3d
       0.037690848 0.07274258 -0.00016982108 0.048986595
0003d0 26 db 8e bc e5 ff 35 3d 93 f9 17 bd 1b 1f 79 bd
       -0.017438482 0.044433493 -0.037103247 -0.06082068
0003e0 31 25 24 3d 02 4c 88 bc 1f 07 36 bb c6 8e 59 3d
       0.04007453 -0.016637806 -0.002777524 0.053114675
0003f0 c5 35 91 bd a0 4c da bb 68 2c 16 3c 64 82 cb 3c
       -0.07090334 -0.0066619664 0.009165861 0.024842449

layer1.bias f4 [512]
000000 11 9f 70 bd 27 30 8f 3d 4c 83 67 3d ca 50 57 bd
       -0.058745448 0.06991606 0.0565217 -0.05256728
000010 f6 e3 27 bd 0d 0a 63 bd 20 af 2c bd 94 49 3c bc
       -0.040988885 -0.055429507 -0.0421592 -0.011492152
000020 b6 e4 de 3d bf 25 a1 3d 63 05 33 3e c8 af 43 3d
       0.10883467 0.078685276 0.17482524 0.04777506
000030 36 7a 12 3e a5 77 07 3e 61 e6 db bb 36 d9 0b 3e
       0.14304432 0.13229235 -0.006710813 0.13657078
000040 3b 28 bc 3d 6b 6d d3 bb 96 10 aa 3d 46 59 0e bb
       0.09187361 -0.0064522526 0.08303945 -0.0021720692
000050 dc 79 2d 3e 82 1d f2 3c 97 bc c8 3d aa 49 35 3e
       0.16941017 0.029555086 0.09801596 0.17703882
000060 52 47 c4 3c d9 4d a4 3c d7 86 e8 3d 31 ce b6 3c
       0.02395979 0.020056652 0.11353844 0.022315117
000070 52 0f 10 bd 22 09 1d 3c b7 3c 46 bc 28 65 8a 3d
       -0.03517086 0.009584697 -0.0120994365 0.06757575
000080 1f f0 2b bd 10 9f 28 bd ae 85 21 3d dd 4c aa bb
       -0.041977044 -0.04116732 0.039434128 -0.005197151
000090 a2 7f f2 bc be 09 3f bd 06 ff cf ba 6c 5c 93 bc
       -0.029601876 -0.04664015 -0.001586885 -0.017988406
0000a0 78 d9 a6 3c 2b bd 35 3d 03 21 f8 3c e2 b5 4a bd
       0.020367369 0.044369858 0.030289179 -0.049489863
0000b0 a5 13 7d bc 31 24 17 3e a2 b8 c6 3d 3d 20 fa 3d
       -0.015446578 0.147599 0.09703185 0.1221318
0000c0 44 8d ea bc 06 66 09 3e ef 7a bf 3c fe 7f 09 bd
       -0.028631814 0.13417825 0.023374049 -0.03356933
0000d0 88 55 07 bd 69 d3 a2 3c f5 1e 32 3c 7b a4 ee 3d
       -0.033040553 0.019876199 0.010871639 0.11652466
0000e0 9b 80 a2 bc c2 03 5f bd 74 8c 95 3d 7b 18 ec 3d
       -0.019836714 -0.054446943 0.0730218 0.11528107
0000f0 6f 3d 9c b7 8a 71 57 ba 39 c1 06 3e a4 aa 05 bd
       -1.8625256e-05 -0.0008218518 0.13159646 -0.03263344
000100 f0 0c 2a 3e 16 0b 3c 3e 42 52 7f 3d 09 24 ec b9
       0.16606498 0.18363604 0.062334307 -0.00045040276
000110 ff 00 b4 3c b9 3d dd bc 52 14 a7 3d 90 be 98 bc
       0.021973131 -0.02700697 0.08158173 -0.018645555
000120 66 19 14 3e d6 5b fa 3d af d3 09 bd 57 89 e1 3d
       0.14462814 0.122245476 -0.033649143 0.110125236
000130 f6 8a 8e bd 0b 31 1f 3e 24 04 c3 3d d1 9a ac bc
       -0.069600984 0.15546052 0.09522274 -0.021069916
000140 74 57 cb 3c 17 fe da bb 76 90 9f bd 5f 30 18 3e
       0.024821974 -0.006683122 -0.077912256 0.14862202
000150 12 0b df 3c b1 dc 9a bc 1a 25 ef 3d 48 7a ba 3b
       0.027226958 -0.018904062 0.116769984 0.0056908466
000160 2c 6a 14 bd bb 93 ef 3c 6d ae 39 3c 7c 8c 12 3e
       -0.036234066 0.029245248 0.01133309 0.14311403
000170 91 b9 21 bc 45 5b 2a 3b 59 68 c4 3d 6a 50 18 bd
       -0.009870903 0.0025994342 0.09590215 -0.037186064
000180 41 56 08 3d 3c d6 54 bd 4e b2 21 3d 79 2f 45 3d
       0.033285383 -0.051962122 0.039476685 0.048140977
000190 1a 32 22 3d 0e 52 1c 3d 56 38 86 bc 69 20 19 3d
       0.03959856 0.03816419 -0.016384285 0.037384424
0001a0 de 44 09 3e fa 79 20 3e f8 f4 3e 3d 8f 78 93 bc
       0.13405177 0.1567153 0.04662034 -0.018001823
0001b0 13 5a 56 3d da c7 86 bc 2a 87 8f 3d 79 a6 ec bc
       0.052331995 -0.016452719 0.070082024 -0.028887974
0001c0 03 51 55 bd 9a 75 7d bd 99 48 85 3c 07 f4 3d bd
       -0.052079212 -0.06187973 0.016269969 -0.0463753
0001d0 85 07 94 bd 4d 65 d9 3d 93 b9 7a bd 73 1a ca 3c
       -0.07227997 0.10615025 -0.061212134 0.024670815
0001e0 79 7f f9 3d 21 79 be bc a0 6b ea 3d 68 02 88 3c
       0.121825166 -0.023251118 0.11446309 0.01660271
0001f0 f8 5a a3 3c a2 e5 87 3d 62 5f 20 bd 40 5a c6 3b
       0.019940838 0.06635596 -0.039153464 0.006053239
000200 92 24 97 3c 0f 62 51 ba 7b 8a 8b 3d 0c a5 97 3d
       0.018450055 -0.0007987329 0.068135224 0.07404527
000210 0a 55 ba 3d 4b e2 57 bc f6 99 ce bc e5 69 a0 3c
       0.09098251 -0.013176511 -0.025219899 0.019581744
000220 0b 76 92 3c 7a b7 2c 3d e7 f2 30 3d 6c 32 c8 3c
       0.017878553 0.042167164 0.0432004 0.024438106
000230 9a 97 1c 3b 0e 7f 44 bd 28 37 b9 3b 1a f8 a6 3c
       0.0023894073 -0.04797273 0.005652327 0.020381976
000240 5e 11 05 3d bf b5 fe 3d d0 a1 96 3d cf 4c 9f 3c
       0.032487266 0.12437009 0.07355082 0.019445805
000250 94 04 61 3e fc e0 f6 3c 12 71 b2 3c 34 06 20 3e
       0.21974403 0.030136578 0.021782432 0.15627366
000260 53 0e 65 3d 05 63 56 3d 92 50 95 3d 15 b0 59 bd
       0.055921864 0.052340526 0.07290758 -0.05314644
000270 63 a5 c9 3d b4 b9 11 3e 15 77 05 3e 71 a4 03 3e
       0.09845998 0.14230996 0.13033707 0.12855698
000280 56 a6 e2 3d 9f 28 24 3e 53 27 12 3e cd e6 af 3c
       0.11066882 0.1603112 0.14272813 0.02147236
000290 be 83 49 3d ad 2e cd bc d3 65 90 bd 65 3a 37 3d
       0.049197905 -0.02504667 -0.070506714 0.044733424
0002a0 4e df 28 3e 62 97 fc 3d 93 d1 de 3d 4d 00 b7 3d
       0.16491434 0.123335615 0.10879817 0.08935604
0002b0 54 c6 44 bd db 9d 69 3d 8b e7 d6 3d 45 bb 85 3d
       -0.048040703 0.05703531 0.10493382 0.065298595
0002c0 68 c2 00 3d 8a f6 41 bd 5f 2e 41 3e 74 6d 5e 3d
       0.0314354 -0.04735426 0.18865345 0.0543036
0002d0 8c 8a 2c bd 18 63 39 3d 98 bd ef 3d f8 d9 9d bd
       -0.042124316 0.04526052 0.11706084 -0.0770759
0002e0 9b f7 b4 3d 1d dd c4 bc 34 d8 0e 3d ba ce 9f 3d
       0.088362895 -0.024031216 0.034874156 0.07803102
0002f0 b3 88 15 3e b1 08 31 3d 25 67 24 3e 9a a4 1b 3c
       0.14602928 0.04322118 0.16054972 0.009499693
000300 d9 6b 49 3e 64 fd bc 3d 74 72 06 3e 61 89 a7 3d
       0.19670047 0.09228018 0.13129598 0.081805
000310 04 09 1d 3d 6f 21 7a 3d 96 df a7 3d 17 3d a3 3b
       0.038338676 0.06106704 0.081969425 0.0049816477
000320 69 5a 9e 3c c4 0c 08 3e 49 f8 4b 3d 3b d9 78 3d
       0.01933022 0.1328612 0.04979733 0.060754042
000330 1e 0c 14 bd e2 4a 5d bb 3c 50 1b 3e e0 d3 f1 3d
       -0.03614437 -0.0033766557 0.15167326 0.1180799
000340 1e 1a aa bc 30 a3 18 3e 04 7d b0 bc 56 1a 24 3e
       -0.020764407 0.14906001 -0.021543987 0.16025671
000350 dd b6 56 bd 92 03 a9 3d ca 15 60 3d bd 81 86 3d
       -0.052420486 0.08252634 0.05470828 0.06567714
000360 1c 37 42 3b fd a0 5b bd 50 f8 c2 3d 4f 4c 18 3d
       0.0029634899 -0.053620327 0.09520018 0.03718215
000370 f9 fa 91 bd b3 27 56 3d 69 a4 c1 3d 79 f3 39 3e
       -0.07127947 0.052283954 0.09455187 0.18159284
000380 8b dd 3a 3d a3 72 30 bc 8c 46 15 3e ea 7c cf 3d
       0.045621436 -0.010769519 0.14577693 0.10131247
000390 55 48 69 bc 66 e6 8d 3c c4 52 cc 3d 2b 2f 45 3d
       -0.014238437 0.017321777 0.09976724 0.048140686
0003a0 43 ae c5 3b 4f 8e 95 3c 82 0f 81 bc 43 5e dc 3d
       0.0060327365 0.018256335 -0.015754465 0.107601665
0003b0 06 65 6d bd bc 39 ce 3d db 2a 81 3c e4 93 8d bd
       -0.05795767 0.10069606 0.015767505 -0.069129735
0003c0 02 22 2b 3e d9 20 53 3d 90 91 fd 3c 10 91 00 bd
       0.16712192 0.051544998 0.030953199 -0.031388342
0003d0 43 94 d5 3d d9 d1 1a 3d e2 f9 47 3d d1 9a 43 3e
       0.10428669 0.037797783 0.04882229 0.19102027
0003e0 0b 49 cc 3c ac 8f 87 3d 6e cc 1f bd 9d 40 c0 bd
       0.024937173 0.066192 -0.03901332 -0.09387324
0003f0 60 90 11 bd d6 58 1b 3e f0 3b 01 bd c0 ca 2d bc
       -0.035538077 0.15170607 -0.0315513 -0.010607421

layer2.weight f4 [256, 512]
000000 68 5c 6e 3d f5 99 4c 3d 10 78 23 3c 0a f1 85 bc
       0.058193594 0.049951512 0.009977356 -0.016350288
000010 f1 26 8d 3d 68 4f 04 3d d5 49 62 3d cd 79 92 bd
       0.06892193 0.03230229 0.055246193 -0.07152138
000020 e2 91 44 be de f7 80 bd ad f7 0d bc b9 14 b7 bc
       -0.19196275 -0.06297277 -0.008665008 -0.022348749
000030 d7 1a 31 3d 72 5e e3 3c cc 1c 9f 3d b3 05 81 3b
       0.043238487 0.027754996 0.077691644 0.003937447
000040 9c 4c 2a bd 8e 52 23 3c 97 5a 6d be 21 a8 9b bb
       -0.041576967 0.009968413 -0.23179089 -0.004750267
000050 51 ac cf bb 13 d0 39 3e 2c 3b d0 bd ae b7 1e 3d
       -0.0063376804 0.1814578 -0.10167536 0.03874939
000060 94 86 ad 3d 58 57 ac 3c 40 7b 9d bd c9 04 88 3d
       0.08472934 0.021037742 -0.07689524 0.06641538
000070 78 6c 86 3d 35 5c e7 bd fd cb b0 3d d4 4c 21 3e
       0.065636575 -0.11296884 0.08632658 0.15751964
000080 37 f6 d2 bd a9 5b 59 bc 68 62 5d 3d 6a 63 1f 3e
       -0.10300868 -0.013266482 0.054048926 0.15565267
000090 64 70 04 bd bd 2f ae 3d e3 fe 82 3e 6c 58 59 3d
       -0.032333747 0.08505199 0.25585088 0.05306284
0000a0 b4 6f b7 3d ae 24 aa 3d ac a0 93 3c e2 b9 47 3b
       0.089568526 0.08307777 0.01802095 0.0030475785
0000b0 39 67 5f 3c 39 ea 14 bd d2 22 99 bc fa 1f 6a be
       0.01363545 -0.036356185 -0.018693361 -0.2286376
0000c0 b7 72 cb bc ef fb 22 bc f6 25 4b bc b5 79 7f 3d
       -0.024834974 -0.009947761 -0.012399187 0.06237193
0000d0 36 ae 7e 3c 0b be 81 3d d3 93 93 3d c7 8a ea 3c
       0.015544465 0.06335076 0.072059296 0.028630627
0000e0 c9 7d a8 3d 39 03 ca 3d 5d ff 39 bd 94 e6 3e be
       0.082271166 0.09863896 -0.04540955 -0.18642646
0000f0 c9 4a 0e 3b 43 72 df 3d 54 21 84 3d 6b e5 a9 3d
       0.0021712056 0.109104656 0.06451669 0.08295711
000100 1e 1c 8b 3a 2e b3 2d 3d 35 dd 37 3d 6c 8f 8d 3c
       0.0010613238 0.042407207 0.044888694 0.017280303
000110 e3 c1 d2 3c 82 4f a2 3d 32 18 19 bd 6c 7d f8 3c
       0.025727218 0.07925321 -0.03737659 0.030333243
000120 a8 78 95 be 50 98 9b bc e6 1a 04 3d 36 a2 8d bc
       -0.29193616 -0.018993527 0.032252215 -0.017289262
000130 3c d9 a3 bc 15 80 da bb 13 54 1d be 37 2b 8f 3d
       -0.020001046 -0.0066681006 -0.15364103 0.069906645
000140 a8 7a 7e 3d 3c a2 c1 3d fd 2d af 3d 0c 8f f2 bd
       0.062128693 0.09454772 0.085536934 -0.1184369
000150 80 91 51 bc 1a 40 12 3e 15 e6 bc 3e 0f fe f1 3c
       -0.012791038 0.14282265 0.3689429 0.02954009
000160 6c e5 5c 3e 2a f9 f5 3d 6b ec a0 3d c3 f7 f0 bd
       0.21571892 0.12010415 0.07857593 -0.11766007
000170 d6 9d a7 3c 99 58 72 3d 16 60 7d bd b3 5d ad bc
       0.020461004 0.059166525 -0.061859213 -0.021162843
000180 e3 87 d0 3b 04 f7 58 bc 55 7d 7f 3d 4a eb 11 3d
       0.006363855 -0.013242487 0.062375385 0.03562478
000190 c4 19 90 3d 44 46 0a bd c2 d6 94 3d ec 17 d1 3d
       0.070361644 -0.033758417 0.07267524 0.10209641
0001a0 43 b3 bf 3c 85 77 87 be 06 77 d1 bc 0d a1 3c 3d
       0.023400908 -0.26458374 -0.02556945 0.046052027
0001b0 bd fc 02 bd 8f 62 9a 3c 9d 62 02 3d 98 21 47 3a
       -0.03197931 0.018845825 0.031832326 0.00075962534
0001c0 9f 4f da 3d fe a0 10 3c b1 60 22 bd 7c 25 d2 3a
       0.10659718 0.008827446 -0.039642993 0.00160329
0001d0 a8 15 aa 3c 94 0d 1b bc cf 1f 0e 3d 6b 8f ff 3d
       0.02076228 -0.0094636865 0.034698304 0.12478527
0001e0 78 a3 89 3d be 44 61 3d c2 9b 9b 3e d6 5e 36 3d
       0.06720632 0.0549972 0.3039227 0.044524036
0001f0 59 91 31 be 82 b4 a0 3d 6c 30 56 be cb d2 c7 3d
       -0.17340602 0.07846929 -0.20916909 0.097570024
000200 53 fd 7d bd ad 42 1a 3e d3 0e 46 bc ea 59 eb 3c
       -0.062009167 0.15064497 -0.012088495 0.028729398
000210 55 8d 3c be d2 e4 9c 3b a7 0d 81 bb 5d 5a d2 3b
       -0.18413289 0.0047880197 -0.003938395 0.0064194635
000220 a0 6c 9c bb 1a 7e f2 3d 96 b9 a1 3c d8 ba 92 3d
       -0.0047736913 0.11840458 0.019741815 0.07164544
000230 20 b5 54 3d f3 58 29 3e 09 b4 ef bd 5a 2e c1 3e
       0.051930547 0.16537838 -0.11704261 0.37730676
000240 f3 84 db 3a 58 4d 3c 3c fc 40 8b bb b4 e5 bd 3c
       0.0016747996 0.01149305 -0.00424969 0.02318082
000250 49 fc 64 3d 4e f0 1d 3d 41 c9 ce 3e fe db 27 bd
       0.05590466 0.03855925 0.4038792 -0.040981285
000260 01 c4 fc 3c 2c d1 86 3d 04 db 08 be 2e c3 10 bd
       0.03085518 0.06582865 -0.13364798 -0.035342388
000270 aa a5 0e 3c 3b 5f 13 3c 18 57 6b 3d 45 66 64 3d
       0.00870649 0.008994873 0.057456106 0.055761594
000280 83 a9 74 3b 2e 32 39 3d b1 77 09 bd 5a a6 9f 3e
       0.0037332482 0.04521387 -0.033561412 0.31181604
000290 e5 13 46 3d 2f 73 03 3e 51 47 03 3d dc 15 dd 3d
       0.048358817 0.12836908 0.032050434 0.10795185
0002a0 97 b4 63 bc ac cb c6 3c 1e 8d 2c be 70 75 be bd
       -0.013898036 0.02426704 -0.16850707 -0.09299743
0002b0 30 f9 c5 39 80 df f1 3d 3b 93 ad bd 1e 4e 2a 3d
       0.00037760427 0.11810207 -0.084753476 0.041578405
0002c0 7f 97 cd bc 40 e7 4b 3d 1a 73 5b 3c b9 77 66 3d
       -0.025096653 0.049781084 0.013394142 0.05626652
0002d0 3f eb 00 bd 01 16 cd 3c 52 8a c6 3c a2 37 87 3d
       -0.03147435 0.025034906 0.024235878 0.06602408
0002e0 6e 90 2d 3e cb 73 db 3d 43 4f 5b 3e 71 f9 b6 3c
       0.16949627 0.10715445 0.21416955 0.02233574
0002f0 b3 2e 26 bc 2c 14 df 3d 15 df 67 bc 4b 2c fc bc
       -0.01014297 0.10892519 -0.014152308 -0.03078284
000300 7e e8 fe 3c 17 92 41 3c df 9f 48 3d b7 bd 38 3d
       0.03111672 0.011814616 0.04898059 0.0451028
000310 a4 c1 15 bd 50 e2 06 bd 5a ae 9f 3e a7 27 ab 3d
       -0.036561623 -0.032930672 0.31187707 0.083571725
000320 28 03 a2 3d 7d 32 19 3d 72 d1 b9 3e fa 2a bf bc
       0.07910758 0.037401665 0.36292607 -0.023335923
000330 51 6d b3 3c 7f 56 9c 3e 0f 4e 67 bc 1b bc 09 be
       0.021902712 0.3053474 -0.014117732 -0.13450663
000340 8e 99 e3 bd 77 e8 54 3d 82 72 be 3d 4d 56 23 bc
       -0.111132726 0.05197951 0.092991844 -0.009969306
000350 f7 72 27 bd 8c f2 a2 3e ba 99 6f 3c bc 26 6e 3d
       -0.040881123 0.31825674 0.014624054 0.05814241
000360 34 c9 eb 3c 6f f8 99 bc 09 34 82 bd 22 97 c4 3d
       0.028782465 -0.01879522 -0.06357581 0.09599139
000370 9b 31 52 3a df 70 86 bd 40 b0 9a 3d 82 aa 02 3d
       0.0008018256 -0.06564497 0.07553148 0.03190089
000380 b3 ac 2b 3d d2 7c b6 3d 62 67 6a 3d a8 4e 65 bb
       0.041912746 0.08910526 0.0572275 -0.003498951
000390 63 06 b4 3c da e1 c0 ba b9 dd 35 ba d8 52 a0 3e
       0.021975702 -0.0014715747 -0.00069376413 0.31313205
0003a0 52 26 a8 3d 09 43 11 3c 5f e7 ed 3c 67 c1 a7 bc
       0.08210434 0.00886608 0.02904099 -0.020477964
0003b0 5e ac fa b9 57 68 0e 3d 75 ef 6b 3d f4 8f 64 3c
       -0.0004781214 0.034767475 0.05760141 0.013950337
0003c0 d8 f7 b1 3c 8f 50 0f bd 2d 75 3d bd 3c 10 c8 3d
       0.021724626 -0.034988936 -0.046254326 0.097687215
0003d0 ba 01 e1 3b bd 3d 14 3c 3f 29 ea bc 86 2a c4 3c
       0.006866661 0.009047923 -0.02858412 0.023946058
0003e0 dc fb 87 3d a5 ba 44 3e 5b c7 4f bc fa 7b ca 3d
       0.06639835 0.19211824 -0.012681807 0.09886928
0003f0 74 a3 b9 bd 8f 0f 0f 3d 10 c5 42 bd 06 ea 20 bd
       -0.09064379 0.034926947 -0.047551215 -0.039285682

layer2.bias f4 [256]
000000 05 30 6e bb d8 b7 69 3d 46 7c 1c bd 1a 0e 04 3e
       -0.003634454 0.057060093 -0.038204454 0.12896004
000010 e6 62 e5 3c 8b bb 1e 3d 4b 40 19 bd 23 62 e7 3c
       0.02800126 0.038753074 -0.03741483 0.028245037
000020 90 1c ae bc 8a 1a 0b 3b 53 55 26 3d 50 58 49 3d
       -0.021253854 0.0021225535 0.040608715 0.049156487
000030 6b b8 85 3c a4 ac f4 bc da f2 1f 3c 8c 98 23 3d
       0.016323289 -0.029867478 0.00976249 0.039940402
000040 0b ea 15 bd de 01 e8 3c 2f 12 4b 3d 20 ab 46 3a
       -0.036600154 0.028321203 0.049577888 0.00075786
000050 08 55 4f 3d 3a 6e 67 bc 20 52 89 bb 9c 7c 3b bc
       0.0506182 -0.014125401 -0.0041906983 -0.011443283
000060 a6 5c e6 bc c7 22 cc bc 25 c8 a6 3c 47 bd 01 3d
       -0.02812035 -0.024918927 0.020359108 0.03167465
000070 e1 6a 0d bc bc cd 0a 3d 48 ff 40 bb cf b4 69 3d
       -0.008631439 0.03388761 -0.0029449034 0.057057198
000080 0f 93 b5 3d 5f dc fc 3c 6f 40 0a bd f1 1b c9 3c
       0.0886594 0.0308668 -0.033752855 0.024549456
000090 b6 66 98 bc b4 1a 8a bc 35 8c 1e 3d aa ae 1d bc
       -0.018603664 -0.016858436 0.03870793 -0.009624163
0000a0 88 37 2c 3d a0 01 91 3c 34 cb 58 3d ee db 03 3d
       0.042045146 0.01770097 0.052928165 0.032192163
0000b0 ec bb a0 3c f8 c6 fb 3d 55 52 33 3d 20 89 eb 3c
       0.019620858 0.1229381 0.04377969 0.02875191
0000c0 43 7a 89 bc 23 b1 82 3c d3 25 92 3c 11 5b 5f 3c
       -0.016781932 0.015953606 0.017840302 0.013632552
0000d0 8e 51 b8 bb d7 9e 21 3c ed 14 82 3c 8e ab f6 bc
       -0.0056249565 0.0098645305 0.015879119 -0.0301111
0000e0 77 86 91 3d 09 7a c0 3c c3 0a 8e 3c 95 9f 7f 3c
       0.07105725 0.02349569 0.017339116 0.015602012
0000f0 30 03 a7 3c c7 74 92 3c 12 fa b5 3c 00 a4 5d 3c
       0.020387262 0.01787795 0.02221397 0.01352787
000100 41 35 82 bb 82 53 8e 3d ec 45 05 3d 3b 76 35 3d
       -0.0039736335 0.069495216 0.032537386 0.044302206
000110 1d 61 3f bc a4 c5 33 3d fe e0 72 3c cd d3 f4 bc
       -0.011680868 0.043889657 0.01482415 -0.02988615
000120 34 93 b6 3d 28 fb 87 3c c7 0b ce bc a2 37 85 3d
       0.089147955 0.016599253 -0.0251521 0.06504752
000130 5e fd 5a 3c 44 4b 31 bc 31 02 df bc b7 57 db 3d
       0.0133660715 -0.010821167 -0.027222725 0.1071009
000140 52 23 16 3d 91 c3 1b 3c a4 fe 93 3d 49 00 a3 3d
       0.036654778 0.009507076 0.07226303 0.07959039
000150 80 9e 74 3d cc 4a 27 3d c2 47 1b 3d 64 99 02 3e
       0.05972147 0.040842816 0.03791023 0.12753826
000160 f7 70 14 bb 85 89 50 3d 1d 63 7e 3c 22 b8 39 bd
       -0.002265034 0.0509124 0.01552656 -0.04534162
000170 8a b2 90 3b 82 78 c7 3d 56 f1 a5 3b c5 82 d8 bc
       0.0044158148 0.09739782 0.00506417 -0.026429543
000180 6e b8 1a 3e 7d e8 70 3d 4b 44 4f 3d d5 2b f2 3a
       0.15109417 0.058815468 0.05060224 0.0018476198
000190 96 b9 d6 bc 0f d6 b9 3d 88 b0 5a 3c dd 77 30 bd
       -0.026211541 0.090740316 0.013347752 -0.04308306
0001a0 00 cf e9 bb 35 a1 16 3d 26 61 25 3d 13 a2 28 3d
       -0.007135272 0.036774833 0.04037585 0.04117019
0001b0 3a 05 83 bc b7 d6 80 3d 18 0c 11 3e c8 ea 05 3c
       -0.015993703 0.062909536 0.1416477 0.008173652
0001c0 23 2e 74 3d b2 32 31 bd 2f 69 8d 3d 23 6e 12 bd
       0.059614312 -0.043261237 0.06904828 -0.035749566
0001d0 ed d4 04 3b f0 5e 1a bc d2 b2 02 3d a8 8d 15 bc
       0.0020268515 -0.009422049 0.031908818 -0.009128012
0001e0 25 ab 0c bd f3 be 0f bd 42 0f 77 3d 43 6b d2 bc
       -0.034342904 -0.035094213 0.060317285 -0.025685912
0001f0 75 72 59 ba 70 90 96 3d 9b 96 da 3d a9 37 7a bc
       -0.00082949485 0.07351768 0.10673257 -0.0152720595
000200 1c f7 be ba d0 45 76 3d 75 76 3a bc a6 67 86 bc
       -0.0014569494 0.060125172 -0.011380781 -0.016406845
000210 fa c3 cb 3d 59 ed 89 3b 82 71 63 3d 8a 23 05 3d
       0.09949489 0.0042092022 0.05552817 0.032504596
000220 d2 52 58 3d cb 6e e8 3c 8e 9d 1e bc df 07 e6 3c
       0.05281336 0.028373143 -0.009681119 0.028079925
000230 e2 13 b9 bc 86 c2 3a 3d e2 b6 52 3b 98 d0 ad bc
       -0.022592489 0.04559567 0.0032152464 -0.02121763
000240 d0 a5 0f bd f6 64 9a 3d 5a 04 29 bd c7 1f a4 3c
       -0.03507024 0.07538788 -0.041263916 0.020034684
000250 69 1b a3 ba 42 34 5d 3c bc 6c 91 3d 82 ae 90 bc
       -0.0012444082 0.013501229 0.071008176 -0.017661337
000260 2c 73 64 3d 01 26 c1 3c c6 91 6b 3b 9e ba 4c 3c
       0.0557739 0.023577692 0.0035945042 0.012495665
000270 dc 6f 31 bd 09 46 83 bc cc 7d f5 3c 69 83 1b 3d
       -0.043319568 -0.016024606 0.029967211 0.03796712
000280 c3 55 5e 3a b3 8b 9e 3c c1 57 1d 3c 5b 21 0a 3c
       0.00084814074 0.019353723 0.009603442 0.008430804
000290 8d 32 1b 3d d0 3c 81 3d 3f 2a 2d 3d 7f 01 79 3d
       0.037890006 0.06310427 0.042276617 0.060792442
0002a0 c6 6b ec 3c 87 7c 27 bd c4 0a 6d bc bf 09 4e 3d
       0.028859984 -0.040890243 -0.014467899 0.050302263
0002b0 1b 44 96 3a 75 65 3b 3d 6f e2 4e 3c d5 71 13 3d
       0.0011464389 0.045751054 0.012627228 0.03599723
0002c0 80 18 70 bc 52 61 10 3d 52 28 9d 3c b5 bf e9 3d
       -0.014654279 0.035249062 0.019184265 0.11413518
0002d0 ad 8c 5a 3d b8 55 5a 3d 89 ee 4e 3d 21 35 73 3d
       0.053356815 0.053304404 0.050520454 0.05937684
0002e0 13 70 47 3c 6f 44 91 3d 37 ca dc 3d a5 43 7b 3d
       0.012172717 0.07093131 0.10780757 0.061343808
0002f0 b7 23 99 3c 55 68 35 bd af f5 24 3d 75 45 34 bd
       0.018693788 -0.044288952 0.040273365 -0.044011552
000300 a1 ea fa 3c f3 79 90 bc aa 90 6d 3c 99 96 3a 3d
       0.030629458 -0.017636275 0.014499823 0.045553777
000310 96 3a b1 3d 23 93 c8 3c a6 90 8a 3d 9f 71 38 3b
       0.086537525 0.024484223 0.06765871 0.0028143895
000320 42 7b a2 3b e0 6e 31 bd 9c 62 1b bd 3b 33 a3 3d
       0.004958541 -0.04331863 -0.037935838 0.07968756
000330 82 e2 ea 3c c5 72 8f 3c c8 e5 53 3d e9 64 c9 3c
       0.02867246 0.017510781 0.05173281 0.02458425
000340 d2 25 56 bc 98 f8 dc 3b 69 33 87 3d f5 0b 55 bc
       -0.0130705405 0.006743502 0.066016026 -0.013003339
000350 e3 69 21 3d a0 27 1e 3d b7 12 9c 3b 3b 6f ce 3c
       0.039407622 0.038612008 0.004762973 0.025199523
000360 a3 30 ee 3d 24 8e 2d 3d 36 ba d4 3b 7c 35 ca bb
       0.116303705 0.042371884 0.0064919246 -0.0061709266
000370 75 4d 17 3d 33 62 ef bc cb ba 01 bd d8 94 3a 3d
       0.036939103 -0.02922163 -0.03167228 0.045552105
000380 96 f6 19 bb 9a ed 07 bd 36 fd 0e bd 0f f8 8e 3d
       -0.0023492924 -0.03318558 -0.03490945 0.06980907
000390 ca b2 b1 3c 38 12 ad 3c ad f9 91 3d 6e 3e a0 bc
       0.021691699 0.021126851 0.071277 -0.019561019
0003a0 39 d2 97 3d 95 81 16 3e 66 a1 65 3d b2 74 b1 3c
       0.07413144 0.14697869 0.056062125 0.02166209
0003b0 22 30 ab 3a a4 f8 cc 3c 12 ed 1f bd 94 0b e1 3c
       0.0013060609 0.025020905 -0.039044447 0.027471341
0003c0 6f f6 38 3d 55 c5 13 3d cd 0b 25 3d 15 f2 99 3c
       0.045156892 0.036076862 0.040294457 0.018792192
0003d0 ba 29 a2 bc c3 77 ae 3c 60 a2 06 3d 16 7e 67 3d
       -0.019795287 0.021297341 0.032869697 0.05651673
0003e0 01 8d 27 3d db 35 96 bb 31 04 e0 bc b9 05 42 3d
       0.040905956 -0.004584057 -0.027345749 0.04736874
0003f0 4a d1 24 bd 90 5c 2d bd f1 e8 b9 3d 7b ce 2c 3d
       -0.040238656 -0.042324603 0.09077633 0.042189103

layer3.weight f4 [30, 256]
000000 5a e3 1b 3d e1 e7 a0 3d bb 92 7c bd 8c ab d9 bd
       0.038058616 0.078567274 -0.06166337 -0.10628423
000010 55 cc 81 bc d4 b3 8e 3a 90 02 13 bd 72 64 d0 bd
       -0.015844503 0.0010887333 -0.035891116 -0.101754084
000020 e0 39 69 3c 19 46 96 3d cc 3c 20 3e 58 17 a5 3c
       0.01423499 0.07337589 0.15648192 0.020152733
000030 d4 12 7c 3c 3c 09 6d bd 44 08 03 be 1c 33 05 3e
       0.015385348 -0.057870135 -0.12796122 0.13007778
000040 c0 11 fe bb 92 5c f4 bc 08 44 74 3c 70 79 ff 3d
       -0.007753581 -0.029829297 0.014908798 0.12474334
000050 5a d6 72 bd 1a f1 ba 3d 7d ef 94 bc b2 7d 14 bc
       -0.059286453 0.09128018 -0.018180603 -0.009063171
000060 12 ed 0a be 9c 8a 58 bd a4 f9 6d bb b5 df cd 3d
       -0.13566998 -0.052866563 -0.0036312127 0.10052434
000070 45 ab 48 bd 77 76 3b 3d e7 f8 b5 bd de b4 92 bd
       -0.04899146 0.045767274 -0.08885365 -0.07163404
000080 8b cd fd bd 9b e9 86 3d 18 fd 80 bc 67 50 3b 3e
       -0.1239272 0.065875255 -0.015745685 0.1829239
000090 2e 90 c0 bc ce fb 35 3d 89 76 4e 3d 2b 34 d5 3d
       -0.02350625 0.044429593 0.050406013 0.10410341
0000a0 4d 10 ba 3d 54 dd b5 bd 9c 0d 59 bd 33 14 15 3e
       0.090851404 -0.088801056 -0.052991495 0.14558487
0000b0 2a 4c 12 3c 4e c4 4d be 28 96 dd 3b 9f 30 a3 bd
       0.008929292 -0.20094416 0.006762285 -0.07968258
0000c0 1c 3d 53 bd e9 f9 17 3b 5a 74 98 3d 51 6b 8b ba
       -0.05157195 0.002318973 0.07444067 -0.0010636841
0000d0 36 e1 4d 3e 6d 39 0d be c4 6c f7 bd 3b ec e5 bc
       0.20105442 -0.13791437 -0.12081292 -0.028066745
0000e0 ff 92 39 bd ad de 87 bd d5 f9 a7 bd 4b 5a 11 3d
       -0.045306202 -0.06634269 -0.082019486 0.0354865
0000f0 20 a1 f2 3d 73 32 f4 b9 5e 5c 84 3d c2 58 eb 3d
       0.118471384 -0.00046576894 0.0646293 0.114915386
000100 0a 39 68 3c 98 4e aa bb c5 35 cb 3d c1 83 35 3e
       0.014173755 -0.0051973574 0.09922365 0.17726041
000110 94 df f5 3c 8f e3 f6 bd 45 38 2c 3e 96 6f 84 bb
       0.030013837 -0.12055122 0.1681834 -0.0040416224
000120 6a 99 8d bc 9e c4 04 3a 62 db 38 bd 4e 87 75 bd
       -0.017285068 0.00050646986 -0.045131095 -0.05994349
000130 50 06 f5 3c 86 05 19 3e 23 70 06 3d 4a ec 06 be
       0.029910237 0.14943513 0.032821786 -0.13176075
000140 54 48 da 3d 6e 81 d2 bd 4f 26 98 bd bc 48 65 bd
       0.10658327 -0.10278593 -0.07429182 -0.055977568
000150 1e 22 ca bd 06 ab 6e 3a 14 ae 4e bd 47 a5 2b be
       -0.098697886 0.0009104464 -0.050458983 -0.16762267
000160 58 90 ec bd b9 a5 a8 ba ce 58 5c bb 0e 27 4f 3d
       -0.11550969 -0.0012866772 -0.0033622268 0.050574355
000170 3e 4a c5 bc 44 66 03 be 39 87 fc 3c 07 e6 4a bd
       -0.024083253 -0.1283198 0.030826198 -0.049535777
000180 22 62 1b be aa e9 2e bd 3b ab bf bd 09 b9 17 3e
       -0.15174153 -0.04270331 -0.093588315 0.14816679
000190 c8 bb 60 3d 1f 51 d3 bd 7d 2a ab 3c 34 38 cf 3c
       0.054866582 -0.10318207 0.020894283 0.025295354
0001a0 81 f7 53 bd c8 b8 86 3d 0c db 95 bd d4 10 ce bd
       -0.05174971 0.06578213 -0.073171705 -0.100618035
0001b0 cb d9 7d bd a9 72 05 bc cf 5b 2d be 0a 8e b8 3d
       -0.06197528 -0.008145013 -0.16929553 0.09011467
0001c0 2e 62 01 be 00 67 7a bc fe c1 91 bd 0a 9e 7d 3d
       -0.12635109 -0.015283346 -0.07117079 0.061918296
0001d0 d4 d8 11 3d 5a f2 f5 3d 3a 6f a8 bd 71 2c ce 3c
       0.035607174 0.120091155 -0.0822434 0.025167676
0001e0 50 5a 0f 3d 38 d0 bd bc e4 6a 3f bd 4e 88 42 bd
       0.034998238 -0.023170575 -0.0467328 -0.04749327
0001f0 56 97 b2 3d 89 a2 04 bb da 00 01 be 1b 00 cd 3d
       0.08720271 -0.002023848 -0.12597981 0.10009786
000200 7e 48 6b bd ab 50 aa bd 28 72 89 3d 07 39 b5 3d
       -0.05744218 -0.083161674 0.06711227 0.08848768
000210 45 49 39 be 89 0a bf 3d 03 43 97 bc f3 5a 68 bd
       -0.18094356 0.09328181 -0.01846457 -0.05672736
000220 71 14 81 3d fc 4a 65 bd e9 09 ca 3c b3 39 e4 3c
       0.06302727 -0.055979714 0.024662929 0.027859544
000230 55 1a b3 bd 16 9b a5 bc f0 86 b3 3c c4 15 5f bd
       -0.08745257 -0.020215552 0.02191493 -0.054464117
000240 c2 16 d5 bc ef 18 bc bc 16 f0 6d bd 11 f5 0c 3b
       -0.026011828 -0.022961108 -0.058090292 0.0021508376
000250 f3 fa 48 3d 56 e2 93 ba 8f 5c fd bd 3e b9 e5 3d
       0.04906745 -0.0011282663 -0.1237117 0.11216973
000260 b8 c7 5b 39 7b 34 d7 3d 89 a2 d1 bd 68 4c 2d 3e
       0.00020959869 0.10508057 -0.10236079 0.16923678
000270 bf f6 62 bd a4 2d 5d 3d 5b 35 d7 bd 67 e5 b4 bd
       -0.055411097 0.053998604 -0.105082236 -0.088328175
000280 d5 0a a8 3c 9e 74 27 3d 43 09 96 bd c8 df eb 3c
       0.020512978 0.0408827 -0.07325985 0.02879323
000290 f1 f4 c5 bd a6 e9 cc bd d5 4a 29 bc d0 db 22 bd
       -0.096658595 -0.100055024 -0.010332783 -0.03976041
0002a0 3f c5 fb 3d aa 1f 97 bd d9 0f 19 3d fd ed 2a bc
       0.12293481 -0.07379086 0.03736863 -0.010432717
0002b0 4d c8 34 bd 7a 60 a7 bd ac 2e bc 3d 9d 62 35 bd
       -0.044136334 -0.08172698 0.091885895 -0.044283498
0002c0 85 a9 f1 bc ce d0 d6 3d 4a 30 a1 3d a1 c6 e0 bd
       -0.029499779 0.10489045 0.078705385 -0.109753855
0002d0 80 03 94 bc a0 4b 04 3e c6 df 2d be 01 3b cc bd
       -0.018068075 0.12919474 -0.16979894 -0.099721916
0002e0 5d 9c fe 3c 01 a7 73 bd 84 95 a4 bd 73 54 d6 bd
       0.03108042 -0.05948544 -0.0803633 -0.10465326
0002f0 e3 e8 2c 3d 70 e6 91 3b b6 05 22 3d 40 70 7a bd
       0.042214286 0.004452519 0.039556228 -0.061142206
000300 eb 31 88 bd 5e 24 93 3d 9f 9b b6 bc 52 6a ca bd
       -0.06650146 0.07184671 -0.022291003 -0.0988356
000310 d0 2a 15 be ef 78 9f bd 71 3e 23 be 96 54 7e 3d
       -0.14567113 -0.07786738 -0.15941788 0.062092386
000320 2d 09 82 bc 70 e1 17 bd 88 e1 0b 3c 03 0f d9 bd
       -0.015873516 -0.03708023 0.008537658 -0.105985664
000330 50 35 cb bd c5 38 ef bd 57 0a b0 bc cc 76 07 3b
       -0.09922278 -0.1168075 -0.021489305 0.0020670174
000340 b1 9f 1a 3d c5 a1 58 bd 76 eb 93 bd ee 21 47 bd
       0.03774995 -0.05288865 -0.07222645 -0.048616342
000350 42 7c b4 bd b1 c7 aa bd 81 65 41 3c e9 64 6f bd
       -0.08812763 -0.08338869 0.011803986 -0.058445845
000360 80 89 0b be 7b a3 28 3d 69 3c f0 3d 7f 19 b3 bc
       -0.13626671 0.041171532 0.11730272 -0.021862743
000370 a8 d4 20 3d f0 c3 82 bb 35 26 09 be 10 71 da 3d
       0.039265305 -0.0039906427 -0.13393481 0.10666096
000380 0b fa 19 bd b6 35 16 bd 70 46 bc bc 67 c3 04 bd
       -0.037591975 -0.036672316 -0.022982806 -0.032412913
000390 ba b6 b6 bd 4a 0a 0c 3e 9c da 95 3d a6 32 49 3d
       -0.08921571 0.136758 0.07317087 0.049120568
0003a0 03 9c af bc 24 0e 08 be b7 dc b6 3d 39 e8 1e bd
       -0.021436697 -0.13286644 0.08928817 -0.038795684
0003b0 c0 56 83 bb c0 36 c8 b9 dc 89 57 3d 81 4c d4 bd
       -0.004008144 -0.00038187765 0.052621707 -0.103661545
0003c0 05 e8 bb 3d e6 9b c6 bd 1f 07 a9 bd 74 59 94 3a
       0.091751136 -0.09697704 -0.08253311 0.0011318163
0003d0 9e 23 39 3e 54 b3 35 3c db 74 a7 bc 09 5e 04 3e
       0.18079993 0.011090118 -0.020441463 0.12926497
0003e0 8b db 8f 3d 3b 0d 3f bd b0 ee d6 3c 5a 97 1b 3d
       0.070242964 -0.046643477 0.026236862 0.037986137
0003f0 ae ef 68 3d 6a bc 33 bd fc e7 78 bc 77 7c 3d bd
       0.0568692 -0.043880858 -0.015192028 -0.046261277

layer3.bias f4 [30]
000000 7e 9e bd 3c 0a 22 e6 3b e5 07 c2 3c 2d 3a 32 bd
       0.023146864 0.0070231007 0.023685405 -0.043512512
000010 e4 46 3e bd e2 63 d2 ba 56 78 12 bd be 63 fa bc
       -0.046454325 -0.0016051496 -0.035759293 -0.030565139
000020 a5 2c b4 3c ef e0 61 bd 24 f0 cd bc 4a 33 64 3d
       0.021993944 -0.055146154 -0.025138922 0.055712976
000030 23 00 ef 3c 51 12 e3 3c c1 33 5d bc 25 4f d7 3c
       0.02917487 0.027718695 -0.013501109 0.026282856
000040 b9 c0 c8 bc a4 6b 91 3d d3 15 02 3d e9 8b e6 3b
       -0.02450596 0.07100609 0.031759094 0.0070357216
000050 96 66 01 3c 5e d8 2a bd 5d cf 9e 3c 3e 07 ab bc
       0.007897994 -0.04171025 0.019385988 -0.020877477
000060 d5 f7 ba 3c 2a 66 a3 bc ea 88 d0 3c 0e 52 50 3c
       0.022823254 -0.019946177 0.02545591 0.012714876
000070 b4 b6 f5 3b 54 db ba 3c
       0.0074985866 0.022809662
