project/output/models/Model_target-v1.0.0.pth (torch, 245120 bytes, 6 tensors)

layer1.weight f4 [256, 92]
000000 59 b5 15 3e dc 68 b6 3d 05 ce 53 3e 13 52 0e 3e
       0.1461996 0.08906719 0.20684059 0.13898496
000010 30 4a 88 3c d6 3a 01 bd 51 2c a2 3c ae e0 23 bd
       0.016636938 -0.03155025 0.019796522 -0.040009193
000020 77 ef c0 3d 20 bf 98 bc 6a 05 dc 3d 8e 56 14 3d
       0.09420674 -0.018645823 0.1074322 0.036215357
000030 ab fb b3 3d f4 0b 07 bd b3 04 98 3d 90 09 cd bc
       0.08788236 -0.032970384 0.07422771 -0.025028974
000040 4b 6e 80 3b e6 76 0a bd 18 24 18 3c f2 a5 e8 bd
       0.003919398 -0.033804797 0.009285949 -0.113597766
000050 60 38 65 3c 9c e1 b7 bc 62 e8 0b 3d c0 69 5e 3b
       0.013990492 -0.022446446 0.034157164 0.0033937544
000060 86 97 91 3d a8 98 72 3c ae 44 19 bd cf 3e 09 3c
       0.07108979 0.014806904 -0.037419014 0.008376791
000070 32 2c 19 3d b5 bf 8c bd ac 04 b3 3d 2f e3 86 3d
       0.037395664 -0.06872503 0.087411255 0.065863006
000080 7b 36 a6 3d 72 4b b2 bd be f9 73 3d 93 71 86 3c
       0.0811586 -0.08705796 0.059564345 0.016411578
000090 a0 5d e9 bc c0 73 a7 bc e3 1c 51 3b b8 6f 34 3c
       -0.028487027 -0.020440936 0.0031908087 0.011012964
0000a0 64 25 56 3d b3 ae 7d 3c f6 7a bb 3d 34 5a 24 bd
       0.052281752 0.015483546 0.09154312 -0.040125087
0000b0 ce 12 9c 3c 6c da c4 3c 6e d3 f7 bd 00 c4 07 b9
       0.019051936 0.024029933 -0.12100874 -0.00012947619
0000c0 80 83 a6 3a 66 d2 c4 3c 82 d6 21 3c 4c 3e d5 3c
       0.0012703985 0.024026107 0.009877803 0.026030682
0000d0 b4 52 3c bd d9 aa be 3d 88 85 f2 bc f5 49 28 bd
       -0.04597731 0.0930993 -0.029604688 -0.041086156
0000e0 5d 42 97 3d 5b 26 8e bd 80 99 96 ba 17 f3 b4 bd
       0.07385705 -0.069409095 -0.0011489838 -0.08835428
0000f0 a3 d0 aa 3d 82 35 5f bd 60 79 a7 bc e7 f5 3e bd
       0.083405755 -0.05449439 -0.020443618 -0.04662123
000100 ec 76 ce 3c 3d d1 c6 3d 25 6c 94 bd 1c 09 bc bd
       0.02520319 0.09707878 -0.072471894 -0.09181425
000110 3c b9 88 bd 8c 83 84 bc a0 3f 84 bc b5 55 8a 3c
       -0.06675956 -0.016176008 -0.01614362 0.016886571
000120 f0 fe ff 3b 9f 63 d3 3d 40 8e 3c bc 3a 51 83 bd
       0.0078123733 0.103217356 -0.011508524 -0.06411977
000130 7d c8 71 3d 98 b8 95 bc d6 be 61 bd 81 7c cb bd
       0.05902909 -0.018276498 -0.055113636 -0.099358566
000140 5a c2 74 bd 68 14 c7 bc b9 42 80 bd b8 24 27 3d
       -0.05975566 -0.024301723 -0.06262726 0.040806502
000150 a8 fa 3f 3d 0e 47 a8 bc 00 0e fa ba 0c a2 df 3d
       0.046869904 -0.020541694 -0.0019077659 0.1091958
000160 84 e1 b0 bc 7a c3 4f 3c 03 2a c2 bd d0 47 15 3c
       -0.02159191 0.012680883 -0.09480669 0.00911136
000170 2f d4 22 bc a2 e7 d2 bd f9 74 1c be 41 0b 94 bd
       -0.009938284 -0.10298087 -0.15278997 -0.07228709
000180 49 43 20 bd a3 e9 5f bd 03 2a f6 bc 36 54 26 3d
       -0.039126668 -0.054666173 -0.03004933 0.040607654
000190 71 cf 1f 3d 60 73 39 3b e5 07 18 3d c0 40 de bc
       0.03901619 0.0028297529 0.037116904 -0.027130485
0001a0 b4 9a 9f 3c 9c 7f f8 bc 02 54 9d bd 46 3d 54 3d
       0.019482948 -0.030334286 -0.07682039 0.051816247
0001b0 cb 0e a5 bd f1 f4 a1 3d 72 49 02 bd a7 3b a8 bd
       -0.08059462 0.07908047 -0.031808324 -0.08214503
0001c0 25 32 cb 3d de d6 47 3d 20 b3 45 3c d0 ab 96 3b
       0.09921674 0.048788898 0.0120666325 0.0045981184
0001d0 07 70 cf bd 73 a1 a1 3d 8c c1 fd bc a3 39 9e 3d
       -0.101287894 0.07892122 -0.03097608 0.07725837
0001e0 80 5d 57 3a 53 2a 99 3d 78 b9 4e bd 1c fd c4 3c
       0.00082155317 0.07478776 -0.050469846 0.024046473
0001f0 b8 e8 81 bc 60 16 cb bd 60 a2 ba bb b8 84 ba 3c
       -0.01585804 -0.09916377 -0.005695626 0.022768363
000200 c0 95 00 bb 95 31 b9 3d 4f 4b 1f 3d 2a 83 89 bd
       -0.0019620508 0.0904266 0.03889018 -0.06714471
000210 51 1b a9 3d 8e fe ac 3d ae df 47 3d c0 3f be 3b
       0.08257163 0.0844699 0.048797302 0.0058059394
000220 43 9d 9c bd d8 0d 01 bc 60 46 55 bc e3 13 86 3d
       -0.07647183 -0.007876836 -0.013017267 0.06546762
000230 c8 99 06 bc d9 02 5b bd 9b 5d 4c 3c e8 6b a5 bd
       -0.008215375 -0.053469513 0.012473489 -0.08077222
000240 dd f6 8b bc 05 f9 07 3d 7a dc 0d 3d 2c 06 bb bd
       -0.017085487 0.033196468 0.03463409 -0.091320366
000250 62 08 9a 3d 1e fa 83 3d 80 9e f9 ba 68 90 f4 3d
       0.0752113 0.064441904 -0.0019044429 0.11941606
000260 30 b3 81 bb 00 9f b3 b9 dd 56 8e 3d e6 35 41 bd
       -0.0039581284 -0.00034260005 0.069501616 -0.047170542
000270 b0 56 c9 3b c7 6a a2 3c 7c fb 30 bc c4 39 e1 3c
       0.006144367 0.019826306 -0.010802146 0.027493365
000280 df 6b 6e 3d cb a0 a7 3d b4 3e c0 3c 6d 82 10 3d
       0.058208343 0.08184966 0.0234674 0.035280634
000290 e4 f9 bc bd a0 2e 32 3c 56 83 9e 3d 32 87 a6 bd
       -0.0922735 0.010875374 0.07739894 -0.08131255
0002a0 37 bc 23 3d 59 d9 b8 3d 5a 3a 00 3d af fe aa 3d
       0.039974418 0.09025831 0.03130565 0.08349358
0002b0 97 ad 96 3c 06 b9 66 3d 43 43 5c bb 05 db 94 3c
       0.018393321 0.056328796 -0.0033609427 0.018170843
0002c0 ea 74 97 ba c2 b8 81 bd 3d 32 c0 bd 7f 3d c9 3d
       -0.0011555229 -0.06334068 -0.09384582 0.098261826
0002d0 ba 3c 62 bd 64 30 d3 bd 1a a2 26 3b 09 39 92 3c
       -0.055233695 -0.10311964 0.002542621 0.017849462
0002e0 da cf d6 bd e5 56 92 bc 1f 13 83 bd 55 6d d2 bd
       -0.10488863 -0.0178637 -0.064001314 -0.1027476
0002f0 ac b6 cd bd d8 69 21 3d f4 c0 a7 3c 29 98 80 3d
       -0.100446075 0.03940758 0.02047775 0.06279022
000300 aa ac 8b 3d 2a 9f 2f 3d 06 03 4d bd 9b 90 83 3d
       0.068200424 0.0428764 -0.05005171 0.06424066
000310 0d 0e 0e bd b2 97 13 3d ba 9c 0e 3d 20 f1 1a bb
       -0.03468137 0.03603334 0.034817435 -0.0023642257
000320 8a ac 55 3c ec d1 f1 bc fc c8 8c bd 9d 86 38 3d
       0.013041625 -0.029519044 -0.06874272 0.045050252
000330 60 df ed bc 97 7d 92 3d c2 7d 33 bd 02 24 04 bd
       -0.029037178 0.071528606 -0.043821104 -0.032260902
000340 18 01 ab bd 72 32 33 3d 17 97 c7 3d 45 05 cc 3d
       -0.08349818 0.04374928 0.09745615 0.099619426
000350 b1 38 a5 3d fb 52 be 3d 3b bc 7f 3b be bb bf bd
       0.08067454 0.09293171 0.0039022106 -0.09361981
000360 ed 83 85 3d 47 a8 82 3d 80 a0 73 bb 4a db 6e 3d
       0.065193035 0.063797526 -0.0037174523 0.0583146
000370 a7 af 52 bd 6e 05 51 3d be 82 3d 3d cf 91 29 3d
       -0.051437046 0.05103057 0.046267264 0.04139882
000380 ef 8c 78 bd 97 c9 43 3d 47 a4 01 bd b6 a0 ba bd
       -0.06068128 0.047799673 -0.031650808 -0.091126844
000390 1b 93 87 3d 84 64 fd bc 5e d1 65 3d 10 d9 83 3b
       0.06619855 -0.030931719 0.05610787 0.0040236786
0003a0 00 8b 1c 3b d1 ce 0d 3d e1 97 2c 3d 10 f6 3b bd
       0.0023886561 0.034621064 0.04213703 -0.04588896
0003b0 af 7f da bc 34 e7 f1 3c 41 5f 42 bd 6a a4 76 3c
       -0.026672212 0.029529192 -0.047454122 0.015053848
0003c0 34 ff e9 bd e1 0f 45 bb aa 02 1c 3d 5e 12 86 3a
       -0.11425629 -0.003006928 0.03808848 0.0010228863
0003d0 18 ac ed bc e4 ca bb bd f5 16 9a bd 18 5a a0 bd
       -0.029012725 -0.09169558 -0.0752391 -0.07829684
0003e0 09 51 97 3d bc bf 23 3d aa f2 3d 3d fd bc 9d 3d
       0.07388503 0.039977774 0.046374 0.07702062
0003f0 fc d8 17 be 21 68 2c bd 39 7c 40 3c 0e ee 6f 3d
       -0.14828867 -0.042091493 0.011748367 0.058576636

layer1.bias f4 [256]
000000 d8 47 95 3d a7 f1 a9 3d 08 df 14 bd 6f ae 06 3d
       0.07289094 0.08298045 -0.03634551 0.032881197
000010 08 bf ca 3d f6 08 97 3c 81 95 de 3d 92 30 62 3d
       0.098997176 0.01843689 0.10868359 0.0552221
000020 52 24 a1 bd 53 83 de bc 88 b8 44 3d 11 2c 80 3d
       -0.07868256 -0.02716223 0.048027545 0.06258405
000030 93 f5 c8 bc 24 c0 63 bc 07 87 42 3d d0 c5 98 3c
       -0.024531161 -0.01390079 0.047492053 0.018649012
000040 14 b7 db bc ee 24 05 bd 35 de 90 3d ea a7 09 3d
       -0.026820697 -0.032505922 0.07073633 0.0336074
000050 9f 38 be 3d d7 be 1e 3d 7f 21 f5 3d c7 44 17 3b
       0.09288143 0.038756218 0.119692795 0.0023081766
000060 20 25 85 bd 90 92 99 3d 07 01 c4 bd c6 a9 82 bd
       -0.06501222 0.07498658 -0.095705085 -0.06380038
000070 d6 de a0 3d 7a 1d b0 3d a3 a7 d4 bc 4b 8f be 3d
       0.078550026 0.08599372 -0.025958842 0.09304675
000080 5e 80 d3 3d f8 02 b1 3d 23 77 a0 bb 59 de c7 bd
       0.103272185 0.08643144 -0.0048970147 -0.09759206
000090 ac 20 8d 3d 9f f5 a1 3c 1f c2 93 bd 78 f7 16 bd
       0.06890997 0.019770442 -0.0721476 -0.0368571
0000a0 cd e5 b2 bd 58 70 9c bb b5 f9 3e 3d 9f 29 10 bc
       -0.08735237 -0.0047741346 0.046624858 -0.008798986
0000b0 18 fe 4c bd 62 19 0c bd c7 3c 11 3d 7c 68 53 3c
       -0.05004701 -0.034203894 0.035458352 0.012903329
0000c0 fa a6 4e bd f8 2b 23 3d 6e a1 8a 3d 98 f0 4c bd
       -0.05045221 0.039836854 0.067690715 -0.050034136
0000d0 3b c3 0f bd 09 91 4c 3d 83 39 bc bd e5 39 55 3d
       -0.035098296 0.049943004 -0.09190657 0.052057166
0000e0 53 a0 90 bc 69 d3 ef bc b8 fe 91 3d 47 c4 b6 bd
       -0.017654574 -0.029275613 0.07128662 -0.08924156
0000f0 78 59 98 3d a0 58 cf 3c 82 37 59 bd e9 2f 7b 3d
       0.0743894 0.025310814 -0.053031452 0.061324988
000100 03 f0 79 3d 3d 34 1f bc ae c6 5c bd 6b aa 70 bc
       0.06101991 -0.009717044 -0.053900413 -0.014689068
000110 e5 f1 8e bd 10 76 ac bc ea 72 3f 3c f0 a6 bf 39
       -0.069797315 -0.02105239 0.0116851125 0.00036554737
000120 23 ae 05 bb 53 37 ec bc 58 ee 90 bc ce d1 dd bb
       -0.0020397983 -0.028834974 -0.017691776 -0.0067693954
000130 b2 de 88 ba 58 a2 83 bd 09 19 87 3c c7 9a f7 3c
       -0.0010442345 -0.06427449 0.01649143 0.03022517
000140 6f ef 06 bd 3e e2 fe bc 84 0e 63 3d 7f ab e3 3d
       -0.032943185 -0.03111374 0.055433765 0.11116695
000150 a3 b3 07 3b c2 2a 3a 3c e1 28 71 b9 8e 44 40 bc
       0.0020706437 0.011362733 -0.0002299878 -0.011735095
000160 f4 79 91 3d eb 0f 3d 3d 6a 5f 1a 3c 28 62 50 3c
       0.07103339 0.04615776 0.009422163 0.012718715
000170 01 c4 5b 3d 44 b8 28 bd d2 77 c0 3d df a0 9f bd
       0.05365372 -0.041191354 0.09397854 -0.077943556
000180 28 0a e9 3d f8 64 fc bc 19 a5 94 3c 9f 51 ad 3d
       0.1137889 -0.030809864 0.018145131 0.084628336
000190 8d b2 07 bd d5 78 0c 3c ad 12 92 bb 0f ec cf 3c
       -0.033129264 0.0085737305 -0.0044577927 0.025381116
0001a0 3f 49 a5 bd eb 9f 85 bd 3d c4 96 bd 81 41 59 3d
       -0.08070611 -0.065246426 -0.07361648 0.053040985
0001b0 5b ba 7d bd f7 63 c9 3c 18 f4 9c bc 53 71 98 3d
       -0.0619453 0.0245838 -0.019159362 0.0744349
0001c0 78 0f 66 bd 7f 68 b0 bc 38 d3 99 3d d4 96 59 bc
       -0.056167096 -0.021534203 0.0751099 -0.013280589
0001d0 7d 15 b9 3d 3c 9d 91 bd 21 5a 91 3d 28 1d 85 3d
       0.09037302 -0.07110068 0.07097269 0.06499702
0001e0 c2 01 8c 3d 7b ac c3 3d 1b ab 3e 3a 7b 59 ac bd
       0.06836273 0.095543824 0.00072734215 -0.084155045
0001f0 11 e3 59 bd 02 7e 03 ba e9 c4 c4 bd 90 3f b8 3d
       -0.053195063 -0.000501603 -0.0960787 0.089964986
000200 38 11 62 3d d6 1f 45 bd 74 0c 03 3b 5b c7 bf 3d
       0.055192202 -0.048126064 0.0019996436 0.09364196
000210 a0 93 62 bd 33 0e ac 3d fc 5b 0d bb 40 c0 08 bc
       -0.055316567 0.08401146 -0.002156972 -0.008346617
000220 a3 5e 45 3d 54 13 72 bd 54 68 a6 bc 2c eb 7f 3b
       0.048185956 -0.059100464 -0.02031342 0.0039050085
000230 a4 42 89 bd 4a e9 f9 bc f6 58 13 3d 63 a9 4e bd
       -0.06702164 -0.030506749 0.03597351 -0.05045451
000240 e4 a0 c7 3c 8d cb fc 3d 02 95 9a bc 45 b3 1c bc
       0.02436871 0.12343512 -0.01886988 -0.009564226
000250 57 2a 37 3c 74 ec 7b 3c 52 d1 a2 3d 8d a6 bc bd
       0.011179528 0.015376199 0.07950081 -0.092114545
000260 84 bc 90 3a ac 05 d8 38 e3 b5 8b bd db be e4 bc
       0.001104251 0.00010300739 -0.068218015 -0.027923038
000270 11 a0 80 bd 23 97 8b 3d 44 2f 92 bc 54 e6 80 3d
       -0.0628053 0.068159364 -0.017844804 0.062939316
000280 03 52 91 3d 05 52 7a bd 5d 62 ca 3d 05 8a 64 bd
       0.070957206 -0.061113376 0.098820426 -0.05579569
000290 e9 dc 2a 3c 79 0b 83 3b 76 8f de 3c 8f c7 16 bd
       0.010428646 0.0039991704 0.027168017 -0.036811408
0002a0 5b da 46 bc cc 6c b0 bd 87 3d 6a 3d e5 e8 d2 3d
       -0.012137021 -0.08614501 0.057187583 0.10298327
0002b0 25 f1 18 3d 33 2a b2 3d 13 da aa bc 82 34 84 3d
       0.03733935 0.08699455 -0.020855939 0.064553276
0002c0 b6 e0 ad bd 50 cb bb 3d f3 1a 3a 3c 38 4c af 3a
       -0.08490126 0.09169638 0.011358964 0.0013374155
0002d0 5c 96 0f 3d 76 a0 41 bc 46 45 19 bd 59 6e 89 bd
       0.035055503 -0.011818042 -0.03741958 -0.067105
0002e0 89 3a c9 bd 07 e3 8f bc 7b f8 4e 3d 8b 26 c2 bc
       -0.09825618 -0.01756431 0.05052994 -0.02370002
0002f0 c2 d7 bc 3d 96 4d ec bc cf dc ba bd fc 2e fc bb
       0.0922084 -0.02884559 -0.09124147 -0.0076960307
000300 e7 5f b0 bd c1 2f 68 bc bf 2e d3 bc f8 06 2e bd
       -0.08612042 -0.014171542 -0.025779126 -0.042487115
000310 6a cf b3 3d 30 a5 bb 3d 67 31 b1 bd 3c b9 0b bd
       0.087797955 0.091623664 -0.08652001 -0.0341122
000320 14 64 4a bb 76 e8 4e 3d 43 f8 ff 3d 71 e8 9b 3d
       -0.0030882405 0.05051466 0.12498524 0.07612694
000330 40 32 58 3c cc 1d 73 bd eb 7a c2 3d 1f 49 ae bd
       0.013195574 -0.05935459 0.09496101 -0.085100405
000340 e0 ef 34 3d f4 a7 a0 bd df 8e 62 3d 79 88 22 bd
       0.044174075 -0.078445345 0.055312034 -0.03968093
000350 e8 77 95 bd ef ae b6 3c 03 6d 94 3d c8 0a d3 3d
       -0.07298261 0.022300212 0.07247355 0.10304791
000360 fe 46 e4 3c 27 c6 fe bc 67 8c 56 3d dc e4 47 3d
       0.027865883 -0.031100346 0.05237999 0.04880224
000370 04 f9 59 3d da 78 b5 3d da 88 d8 3d fe 36 4d 3d
       0.053215995 0.08860941 0.10572977 0.050101273
000380 c6 66 81 3d f0 cb 7d 3d 3c 47 ad bd 66 f2 bf 3d
       0.063184306 0.061962068 -0.084608525 0.09372406
000390 81 ab a1 bc b2 e0 c6 3c 72 d3 fd 3c ef bb ef 3d
       -0.0197351 0.024277065 0.030984614 0.11705767
0003a0 48 c9 16 3c bf 78 1f bd 81 e9 b4 bc 08 fd a6 3d
       0.009203263 -0.03893351 -0.022084 0.08153731
0003b0 c9 e2 88 3d 4e ac 79 bd 4e b2 08 bd 0c 7d fe 3c
       0.06683881 -0.06095534 -0.03337317 0.031065486
0003c0 b2 94 18 bd ee 20 81 bd c2 6d 5b 3c 1a 81 58 bc
       -0.037251182 -0.06305109 0.0133928675 -0.013214374
0003d0 43 d6 64 bd 42 3b 90 3c cd 1a 7e 3d a6 5f 14 bd
       -0.0558684 0.017606381 0.062037278 -0.03622403
0003e0 2e 6e 5b bd 89 3e 87 3d 55 87 87 3d 9b 32 29 3d
       -0.053571872 0.066037245 0.066176094 0.041308027
0003f0 d8 03 48 3d 6a 6b c9 3d 39 46 a0 bc ea aa 5a 3d
       0.04883179 0.09834941 -0.019564735 0.053385653

layer2.weight f4 [128, 256]
000000 b8 6b 61 3d 5a 05 91 bb dc 0a c2 ba 82 9d 48 3d
       0.05503437 -0.004425687 -0.0014804262 0.048978336
000010 7f 4b 98 bd 75 10 78 3c e3 0a c8 3c 3e 85 05 bd
       -0.07436275 0.015140642 0.024419254 -0.032597773
000020 37 2e cf bc 36 6b 70 3d 9e 71 25 bd b2 7f c8 3d
       -0.025290592 0.058695994 -0.040391557 0.09789981
000030 fb e5 93 bb 3c c4 3c 3b 71 1f 43 bd bc 6f 91 3c
       -0.0045135 0.0028803488 -0.047637407 0.017753474
000040 8f f6 24 3d 43 be 5b 3d eb 1b 49 bd 72 3a 99 bb
       0.0402742 0.053648245 -0.04909889 -0.0046761567
000050 76 a5 4d 3d ce 68 b6 bc 8e 36 66 3d db e0 d4 bc
       0.050206624 -0.022266772 0.05620437 -0.025986126
000060 1e cd a7 bc 11 7c 98 3d 5e 14 47 bd 84 2b b0 3b
       -0.02048355 0.07445539 -0.048603408 0.005376281
000070 11 d2 9e 3c cb 19 80 bd 74 58 bb bc 03 9d 3d 3c
       0.019387277 -0.062549196 -0.022869326 0.011573079
000080 72 cd 2c bd 70 f3 1c 3c d2 55 36 bd 2f b8 8d bc
       -0.042188115 0.009579524 -0.04451544 -0.01729974
000090 c2 00 9b 3c 98 fd eb 3c f1 07 97 3c ac 8c 1a 3b
       0.01892126 0.028807446 0.018436404 0.0023582382
0000a0 55 a4 9e 3b a9 cc 58 3c f4 85 8d bb 0e 82 fc bc
       0.0048413672 0.0132323885 -0.004318947 -0.030823734
0000b0 60 44 51 3d 1c ed 4e 3d 46 8d 07 3d 8e bb ad bd
       0.051090598 0.050519094 0.033093713 -0.08483039
0000c0 ee 19 9c bd cf 20 41 3d d4 05 57 bd a6 8a ab bc
       -0.07622133 0.04715043 -0.052495793 -0.020940136
0000d0 3e a9 6e 3d 04 85 1f 3d 55 63 72 bd a8 02 3d bd
       0.05826687 0.038945213 -0.05917676 -0.04614511
0000e0 d1 8b 92 3d 0b c4 45 3d 1c a4 21 3d 58 bc 3d 3d
       0.07155574 0.048282664 0.039463148 0.046322197
0000f0 78 d6 e3 bc 61 a4 a0 bc a6 c4 3e 3b 8e b1 96 3c
       -0.027812228 -0.019609632 0.002910891 0.018395212
000100 65 f7 cf 3c d3 52 72 bc 4e 4d 1e 3d cc e3 5d bc
       0.025386522 -0.014790255 0.038647942 -0.013543081
000110 10 12 cb bb d5 3a c9 3c d5 c6 9a 3a 3e 63 22 bc
       -0.0061972216 0.024564186 0.0011808524 -0.0099113565
000120 06 87 93 bd 3d 79 47 bd ec 11 af bc d5 85 02 3d
       -0.07203488 -0.048699606 -0.02137085 0.031865913
000130 93 d8 54 bc fa 39 2b bc f1 c7 d3 3c 94 ce 8b bb
       -0.012991088 -0.010450834 0.025852175 -0.0042665694
000140 d4 7a 8c 3d 07 be b5 3b 4f 46 53 bd 9e 2f 2e bc
       0.06859365 0.0055463347 -0.051580723 -0.01063147
000150 a8 20 4c 3d d2 4c 6b 3c a7 a0 a3 3d e9 e6 32 bd
       0.04983583 0.014361577 0.079896264 -0.043677244
000160 ba 39 55 3d 80 e8 97 bc fe 6d 58 bd 62 34 13 bd
       0.052057005 -0.018543482 -0.05283927 -0.035938628
000170 f9 bc 2b bd b6 11 24 3d b5 55 94 bc 75 07 e4 bc
       -0.041928265 0.040055953 -0.018107275 -0.027835587
000180 66 b0 4b 3c 96 c8 db bc 48 66 fe 3b 14 74 c3 3c
       0.012432193 -0.026829045 0.0077636577 0.023859061
000190 fc 9d 81 3d 07 b5 22 bd 5a bc f5 ba 0b 6e 2d 3d
       0.06328961 -0.039723422 -0.001874815 0.042341273
0001a0 11 7c 56 3c 5b bc e1 bb f8 9f b3 bc 8a 32 3a 3d
       0.013091103 -0.006888909 -0.021926865 0.045458354
0001b0 1d 24 13 3d 2c f6 09 3d 3b 20 9d bb 3a 05 ab 3b
       0.035923112 0.033682033 -0.004795102 0.005219129
0001c0 75 bc 79 bc ba df 86 bd 53 67 76 3d 21 37 36 3d
       -0.015242686 -0.06585641 0.06015713 0.04448617
0001d0 e4 dd bc 3c 19 7c 5d bd 3b 8f 46 3d ef 1e 51 3b
       0.023055024 -0.054073427 0.04847644 0.0031909307
0001e0 b1 88 b5 bc a8 f0 4e 3c 41 8d 1a 3b 80 f9 13 3d
       -0.022159906 0.012630619 0.002358273 0.036126614
0001f0 27 0d 76 3d ac 8f af bc 24 e9 77 bd ad 1b a6 bc
       0.060071137 -0.021430813 -0.060525075 -0.020276869
000200 05 4b d0 bb 8d 26 78 3d 0e 0d f1 3c 00 54 f2 39
       -0.0063565993 0.06058364 0.02942517 0.00046220422
000210 2c a6 01 3d 90 a1 c3 3b 30 52 75 3c aa 6d e8 3c
       0.031652614 0.0059701875 0.014973208 0.028372604
000220 5a b3 74 bb 66 a2 e4 3c a0 4a 95 3c 3c e5 66 3d
       -0.0037338347 0.027909469 0.01822406 0.05637096
000230 d0 a0 ac bd 19 c7 71 3d e8 a2 01 bd 7e 65 22 3d
       -0.0842911 0.059027765 -0.0316495 0.03964757
000240 1b 04 2b 3e 8f a5 eb 3c 19 0c a5 bc df 5c ac bc
       0.16700785 0.028765468 -0.02014737 -0.021040378
000250 99 a6 ef 3c 22 93 19 3d d5 34 3c bc e4 ca 4d 39
       0.029254245 0.037493832 -0.0114872055 0.00019625906
000260 a2 27 42 bc 91 63 c1 3b 4a c4 ce bd 71 eb b3 bc
       -0.0118502695 0.005901762 -0.10096033 -0.021962853
000270 6f 50 08 bd 6e 1d d7 3b b6 6a 54 bd ae ef 93 3c
       -0.033279832 0.0065647876 -0.05185958 0.018058624
000280 bb 59 ce bb 32 78 25 bd 30 d3 07 bd 47 3e 5a bd
       -0.006297318 -0.04039783 -0.03316039 -0.05328205
000290 10 4e ec 3c 13 e4 1b 3d 05 88 7d 3b da de a5 bb
       0.028845817 0.038059305 0.003868581 -0.0050619664
0002a0 e4 8e db 3d 31 d7 4e bd 20 8f cc 3b ca 17 da bc
       0.107206136 -0.05049819 0.0062426478 -0.026622672
0002b0 ef ca 5d 3d cd 11 63 3b e7 5b fe bb a5 ab 9b bc
       0.05414861 0.0034648061 -0.0077624205 -0.019002745
0002c0 3a fb 5b bd ee c4 4c 3d 0e fe d5 3c 88 c2 94 bc
       -0.053706385 0.049992494 0.02612212 -0.018159166
0002d0 34 c9 80 3d 47 0c 9b 3d 62 83 8a 3c 8c bf d0 bc
       0.062883765 0.07570701 0.016908351 -0.025481962
0002e0 4f e9 03 bc cb df d4 bc f0 db 02 bd dc d0 55 3d
       -0.008051231 -0.025985619 -0.03194803 0.052201137
0002f0 4d 00 e7 bc 10 a2 88 3d 68 28 01 b9 80 a1 8e bc
       -0.028198386 0.06671536 -0.00012317451 -0.017410994
000300 13 b4 8a 3d 91 72 1d 3d fa 7b 73 3d 93 8f 7e bd
       0.06772628 0.038439337 0.059444405 -0.06214864
000310 fc 3c 8d 3d fc 33 4c bd d3 8e 09 bd 10 80 d3 3c
       0.068963975 -0.049854264 -0.033583473 0.0258179
000320 5f 18 39 3c 22 d8 26 3d 8d 0e 9a 3c 93 1c bc 3b
       0.011297314 0.040733464 0.018805766 0.005740711
000330 57 b6 0c 3c 8f 41 9a 3c b5 03 21 3d bc 85 fd 3b
       0.008588395 0.018830089 0.039310176 0.0077368896
000340 3c f3 23 bd a1 1f 3e 3c 29 39 d5 3c 2d 84 c7 3c
       -0.04002689 0.011604221 0.026028233 0.024355019
000350 f8 1f 14 3d 8b 84 ad 3c 52 e3 b3 bc 7f 09 87 3d
       0.0361633 0.021181365 -0.02195898 0.06593608
000360 0d 13 6a 3d 2a 4b 7b bd 65 41 80 bd 64 52 25 3c
       0.057147074 -0.06135098 -0.06262473 0.010090444
000370 a7 77 51 bc 11 43 54 bd f1 fa a5 bc 33 63 80 3b
       -0.012784875 -0.051821772 -0.02026126 0.0039180755
000380 53 43 e7 3c 58 1d b8 bc 1b 1b 13 3d b3 1a 0e bd
       0.028230345 -0.02247493 0.03591452 -0.03469343
000390 b3 7c 48 bd d1 67 78 3c 1f 27 0a bd d0 02 05 3d
       -0.048947047 0.0151614705 -0.033728715 0.032473385
0003a0 c4 0b 5b bc 58 e6 17 3d b9 5d 58 bd dc 9c b7 bb
       -0.013369504 0.037084907 -0.052823756 -0.005603416
0003b0 7c c7 8c bd ea 68 00 bd c9 76 e8 3c be 40 26 bd
       -0.06873986 -0.031350054 0.028376954 -0.040589087
0003c0 04 de b2 3c 1e af b8 bc 71 5c bb bd 93 fb 34 bd
       0.02183438 -0.02254444 -0.09148491 -0.044185232
0003d0 6f 98 cf bc da 2b cf bc 84 5b 74 3d 73 be 67 3c
       -0.02534124 -0.025289465 0.05965759 0.014144528
0003e0 e9 32 cf 3b 34 b1 27 3d fb 7c 9e bc 7f 70 c3 bc
       0.0063232076 0.04094048 -0.019346705 -0.023857353
0003f0 6a 06 94 3c a9 25 40 3d 88 c0 5e bd 58 1b 44 bb
       0.018069465 0.046910916 -0.05438283 -0.0029923525

layer2.bias f4 [128]
000000 41 36 79 3d 2d 4f 60 bd 89 1c 0f 3d 33 36 a0 bc
       0.060842756 -0.054763008 0.034939323 -0.019557094
000010 31 82 49 3d 1c 8d 93 3c b0 a3 64 bd 59 84 17 bc
       0.049196426 0.018011622 -0.055820167 -0.009247863
000020 f2 97 20 3d 6d bd b6 ba 3b 65 ba bc 9c 78 07 3d
       0.039207406 -0.0013941951 -0.022753349 0.033074006
000030 67 b4 ba bb 37 6e 39 bd cc 67 86 3c fe e0 9d bc
       -0.005697775 -0.045271125 0.016406916 -0.019272324
000040 8f 8e 49 bb 78 fb ff 3c 0c cd 12 3c 3e 8d 1e bd
       -0.0030755138 0.03124784 0.00896002 -0.038708918
000050 26 e0 84 3d 03 42 6e 3d 60 52 94 3d 9c db 80 3d
       0.064880654 0.058168422 0.07242274 0.06291887
000060 13 09 9f 3c 2b 26 0b bc e1 dd 38 3d b3 e3 aa ba
       0.019413507 -0.008492987 0.045133475 -0.001303783
000070 41 54 ac bc 69 0f 79 3d d9 8a 80 3c 56 1c 11 3d
       -0.02103627 0.060805712 0.015691208 0.035427414
000080 f9 f5 0e 3c 69 08 6a 3d e6 e3 30 3d 59 37 82 3d
       0.008725637 0.057136927 0.04318609 0.06358213
000090 10 b5 cc bc ba 3c 85 bc f4 77 0c 3d a7 15 0d bd
       -0.024988681 -0.016264308 0.034294084 -0.034444477
0000a0 36 e8 1e bd 24 ca 2b 3b 00 4d ab bc 2d 21 9a 3c
       -0.038795672 0.0026213014 -0.02091074 0.018814648
0000b0 7e fb 87 3d f9 34 80 3d 78 66 01 bd 40 19 3e bd
       0.06639765 0.06260104 -0.031591862 -0.0464108
0000c0 c9 80 9b 3d 99 26 95 bb d4 ec 11 bd ba f0 14 3c
       0.07592923 -0.0045517203 -0.035626248 0.009090597
0000d0 c7 82 c4 bc 70 9d 2b 3d 2b 89 5e 3d 80 04 70 bd
       -0.02398814 0.04189819 0.054330032 -0.05859804
0000e0 71 e9 70 3d 2d 4c 22 bc ed 14 91 ba b2 c0 3f bd
       0.058816377 -0.009905857 -0.0011068858 -0.046814628
0000f0 fe ae 70 bd c0 f8 ab bb b8 ef 07 3d e0 d6 34 3c
       -0.058760636 -0.005248159 0.033187598 0.011037558
000100 fd c4 df 3c b7 12 62 bd 07 9e 1d 3d 4f 32 cd bc
       0.027315611 -0.05519363 0.038480785 -0.025048403
000110 1f 56 c5 3c 7f e5 50 3d 7a 7e 91 3d 10 3a 77 3d
       0.024088917 0.051000115 0.071042016 0.060358107
000120 14 1d cf bc da f7 cb 3c ff 2c 8f 3c b8 83 c9 3c
       -0.02528242 0.024898458 0.01747751 0.024598941
000130 9a 7c 03 3d 17 8c 56 3d 33 99 a5 bc a9 2e 1a bd
       0.03210125 0.052379694 -0.020214653 -0.037642155
000140 b9 42 e7 3c e2 d5 26 3d db 38 91 bc 7d b1 75 3d
       0.028230058 0.04073132 -0.017727306 0.05998372
000150 92 5c 49 3d fc 1d 3a 3d a0 b9 2c bd 28 68 30 3d
       0.049160548 0.04543875 -0.042169213 0.04306808
000160 9e 04 0a 3d 40 6a 5e 3c b4 b6 32 3d 27 7c 26 bd
       0.03369581 0.013575137 0.04363127 -0.040645745
000170 85 a6 51 3d 6d 46 eb bc b5 00 87 3c 31 97 30 bb
       0.051184196 -0.028720105 0.01647983 -0.0026945586
000180 17 ec f6 bc 23 60 46 bc 97 19 e1 b9 6b 98 59 bd
       -0.030141873 -0.012107882 -0.0004293441 -0.053123873
000190 8b ca bc 3c 1f d2 2d 3d 44 5b d1 bc 40 b4 5b 3d
       0.023045799 0.042436715 -0.025556214 0.053638697
0001a0 40 3a 4a bd 6a bf 54 3d e8 97 95 bc 12 ff 92 3c
       -0.049371958 0.05194036 -0.018260911 0.017943893
0001b0 77 d8 4a 3d f3 19 82 3d 50 8d ab bc cb cf 82 bc
       0.049522843 0.06352606 -0.020941406 -0.015968224
0001c0 00 cb 24 3d 95 ab b1 bc 1a 77 04 3a 29 92 72 bc
       0.04023266 -0.021688262 0.0005053148 -0.014805355
0001d0 2d ae de 3c 49 a1 f0 bc 52 6d 93 3d e7 43 13 3d
       0.027182663 -0.029373782 0.071985856 0.03595343
0001e0 64 5a 5f bd dc 70 e8 bc 90 ec 35 3c d1 33 2e bd
       -0.054529563 -0.028374128 0.011103764 -0.042529885
0001f0 9e b0 79 3c 54 4b 06 3d 0b 3e 17 bd a7 1e 5c 3d
       0.015239863 0.032786682 -0.036924403 0.05374017

layer3.weight f4 [30, 128]
000000 27 75 4c 3d 3e ec 45 be 14 0d b3 3d 14 1c dc 3d
       0.049916413 -0.193284 0.08742729 0.10747543
000010 9a c4 36 be ba 6f d1 3d 3a e6 11 be 5f 06 bf 3d
       -0.17848435 0.10226388 -0.1424798 0.09327387
000020 ee 63 df 3d 65 be c9 3d 2e 39 00 bd 07 68 41 bd
       0.10907732 0.09850768 -0.03130453 -0.04721835
000030 d3 d0 04 3d 4d e1 35 be f1 ba d1 bd d0 10 75 bd
       0.032425713 -0.17761727 -0.10240734 -0.059830487
000040 48 a8 f3 3d a8 42 e2 3d 74 48 ad bd 3d cb 16 be
       0.118973315 0.1104787 -0.08461085 -0.14725967
000050 92 4f b3 bd d2 00 e0 3d aa 8a 6a bd a1 f6 12 3e
       -0.08755411 0.109376565 -0.057261147 0.14351894
000060 c1 33 91 3d 23 f3 a9 bd 37 4c 0e bd 64 88 6a be
       0.070899494 -0.08298328 -0.034740653 -0.22903591
000070 b1 f8 e7 3d 2b b7 29 3d db 9c 22 be 42 9e c0 bd
       0.11326731 0.04143445 -0.15880148 -0.09405185
000080 e9 0b ae bd 17 4e fa 3d f4 fe e8 bd 29 7a 4e be
       -0.084983654 0.12221926 -0.113767534 -0.20163788
000090 5c dc fd 3d cd bc 97 bd ed 92 cd 3d c3 b9 03 3e
       0.12395546 -0.07409058 0.100377895 0.12863831
0000a0 0b 8c 30 be 53 2d 99 3d 85 0f ea bc 5a e4 41 be
       -0.17240922 0.07479348 -0.028571853 -0.18934765
0000b0 74 10 87 bd fa 65 10 be 07 ea 06 3e d8 b6 10 3d
       -0.06594935 -0.14101401 0.13175212 0.035330623
0000c0 35 33 a8 bd ef 07 77 3c 10 a4 d8 bd c2 97 49 3c
       -0.08212892 0.015077575 -0.105781674 0.012304248
0000d0 87 7d 65 be 4e a7 0c 3e 3c 6a 01 be 4e 50 09 3e
       -0.22411166 0.13735697 -0.12638181 0.1340954
0000e0 3d ce 6b 3d 51 af f2 3d 4b de f7 3c 87 43 16 be
       0.05756973 0.11849845 0.030257365 -0.14674197
0000f0 df 15 a2 bd d0 12 0e 3e fe f2 1b bd 99 91 97 bd
       -0.07914328 0.13874364 -0.038073532 -0.074008174
000100 46 e4 70 3d 13 3b a3 3d b1 a1 dc 3d 30 05 fb 3d
       0.05881145 0.07970252 0.10773028 0.12256849
000110 2f d8 08 be 0a d2 61 be cf 45 e3 bd 44 5f c9 3c
       -0.13363717 -0.2205278 -0.11097299 0.024581559
000120 48 f9 57 be c6 4a e1 bd e2 c8 0d 3e 26 4e 9a 3d
       -0.21091187 -0.1100059 0.13846162 0.07534437
000130 1d 59 59 be c4 f1 d9 3d 6b 00 86 3d 02 40 53 bc
       -0.212254 0.10641816 0.065430485 -0.012893679
000140 18 59 8b 3d 0f 07 bb 3d c9 59 e7 bd 42 b3 71 be
       0.06804103 0.09132206 -0.11296422 -0.23603538
000150 28 53 c5 3d 46 31 82 bd b1 c1 11 be 08 06 81 bd
       0.096350014 -0.063570544 -0.14234044 -0.062999785
000160 66 26 79 be cc dd 25 be 89 49 6b be 73 83 4f be
       -0.24331054 -0.1619789 -0.2297727 -0.20264988
000170 44 95 23 3e 82 c9 00 3e 18 17 92 3d d0 49 4c bd
       0.15974909 0.12576869 0.07133311 -0.04987508
000180 c8 fa 74 3d 54 bd a3 3d 67 43 82 bd b1 01 d0 3d
       0.059809476 0.07995096 -0.06360512 0.101565726
000190 c0 2b 22 3e 64 55 e8 3d 89 77 f6 3d 4a 04 48 bd
       0.15837002 0.11344412 0.12034518 -0.048832215
0001a0 89 a3 a6 3d 2e 63 8c bd 76 86 f7 3d ed 6e 9d 3d
       0.081366606 -0.068548545 0.12086193 0.07687173
0001b0 9a 0c 53 3e 99 46 ca bd af 62 e4 3d 2c 63 94 3c
       0.20610276 -0.09876747 0.11151635 0.018113695
0001c0 f2 b1 f5 bd b2 78 e8 3d 25 db cd 3d 59 29 76 3d
       -0.11996831 0.11351146 0.10051564 0.060098026
0001d0 7a ad d3 bd 11 32 67 be 33 e4 f2 bd c7 22 1c be
       -0.103358224 -0.22577693 -0.11859932 -0.15247642
0001e0 53 cd c0 3d 4e 51 ab 3d da 71 90 3d 49 06 b3 3d
       0.094141625 0.08365117 0.070529655 0.08741433
0001f0 de e1 e3 3d ef ea 8b 3c 78 88 85 bd 13 27 38 be
       0.11127065 0.017079799 -0.0652017 -0.17983656
000200 d4 17 92 3d 7a 60 19 3e 25 53 b8 bc 7f 59 30 bd
       0.07133451 0.14978209 -0.022500584 -0.0430541
000210 18 43 47 be 0b 62 32 3d 26 ca 39 be 48 ac 75 3d
       -0.19459188 0.043550532 -0.1814352 0.059978753
000220 60 1a 56 ba 11 bb 52 3d 30 63 0a 3d 8e 03 e8 bc
       -0.00081673823 0.05144793 0.033786 -0.028322008
000230 87 24 82 bd cd 4a 0c be 9e 74 9f bd bf 14 83 3d
       -0.06354623 -0.13700409 -0.07785915 0.064004414
000240 a2 d1 76 3d c2 e5 d3 bd ee b5 5d bd 88 3c 2d be
       0.060258515 -0.10346557 -0.05412858 -0.16917622
000250 e9 32 a8 3d 0d 52 a1 bd 90 1c 27 bd 4c 6f 75 3c
       0.08212835 -0.07876978 -0.040798724 0.0149801485
000260 39 65 b2 bd 6b 98 1c bd 56 6c 89 3d 32 98 e7 bd
       -0.08710713 -0.038231295 0.067101166 -0.11308326
000270 59 fa e8 bd 7b d5 99 3d 19 6b 42 be 99 a2 ae 3d
       -0.11375875 0.07511421 -0.18986167 0.08527107
000280 fa 11 73 3d 33 f1 bc 3c ce d6 75 bd 70 09 28 be
       0.059343316 0.023064232 -0.060019307 -0.1640985
000290 6b c5 48 3d 90 45 c1 3d 34 b9 77 bd f3 c1 34 3d
       0.049016397 0.09437096 -0.060479358 0.044130277
0002a0 c8 ba 23 be d7 a5 95 bd 94 80 9f bd d7 6c eb 3c
       -0.1598922 -0.07307022 -0.07788196 0.028738422
0002b0 24 d6 b9 3d 1a 08 56 bd 88 d3 d4 bd ed 59 00 bd
       0.09074047 -0.05225382 -0.10391909 -0.03133576
0002c0 5f 69 34 bd a1 18 86 3d 07 f1 10 3d 79 2a ba bd
       -0.044045802 0.06547666 0.03538611 -0.09090132
0002d0 19 ac b3 3c d9 7c 1d be 36 e2 aa bc f3 19 64 bd
       0.021932648 -0.15379657 -0.020859819 -0.05568881
0002e0 0e 31 86 3d 9c ee 62 3c 17 ba 10 3e 3b 0b ba 3d
       0.06552325 0.013850834 0.14133488 0.09084173
0002f0 d8 01 6e bd 09 5f fb 3d 66 0b dd bb 72 84 18 bd
       -0.058107227 0.12273986 -0.0067457436 -0.037235685
000300 49 22 c5 bd a4 5b 87 3d ec cc 4e be f0 92 98 3c
       -0.0962568 0.06609276 -0.20195359 0.018624753
000310 31 80 56 bd bc 10 76 3d 4c f4 33 bc c4 99 be 3d
       -0.052368347 0.060074553 -0.010983538 0.09306672
000320 d9 03 40 be 33 d2 ec 3b 7e 05 8b bd 28 a6 de bc
       -0.18751468 0.007227206 -0.06788157 -0.027178839
000330 4b 36 70 3d 9c 31 72 bd e9 85 ea bb 0c 1f 71 3d
       0.058645528 -0.059129342 -0.0071570766 0.0588675
000340 6e 37 e6 3d 70 ee ac 3d ac ef 0d bd 14 61 c6 bd
       0.11241041 0.08443916 -0.034652397 -0.09686485
000350 44 6e 4a 3d b5 db 1e 3d 16 8c 07 3e 56 39 7c 3d
       0.049421564 0.038783748 0.13237032 0.061578117
000360 e6 93 fe 3c de 92 a9 bd a7 04 71 bd 56 19 16 3e
       0.031076383 -0.08279966 -0.058842327 0.14658102
000370 c0 54 ff bd 44 70 8b bd 6b f3 ab 3d cb aa c4 bc
       -0.12467337 -0.06808522 0.08396038 -0.024007222
000380 ba 5b af 3c 03 c8 c8 bd 11 d9 a5 bd e3 b3 08 3e
       0.021406043 -0.09803774 -0.08098043 0.13349871
000390 b8 68 cf bd ad 3a bb 3d f3 6d 4b be b9 da e1 3d
       -0.101273954 0.09142051 -0.19866161 0.11028046
0003a0 80 89 d6 bc 32 89 7a 3d 98 d0 73 3d 40 3d 42 3d
       -0.026188612 0.061165996 0.059525102 0.047421694
0003b0 61 e2 c0 3c 50 fe 67 3c 39 ba b1 bc 7f 9e ab bd
       0.023545446 0.014159754 -0.021695243 -0.0837984
0003c0 3b 72 30 bd e1 a3 6f 3d 27 36 8c bd 05 d6 ab bd
       -0.04307769 0.058505896 -0.06846266 -0.0839043
0003d0 ba e6 76 bc 9b 75 54 bd c1 dc 83 3d f4 c0 c1 bc
       -0.015069658 -0.05186997 0.0643859 -0.023651578
0003e0 90 e9 d3 bd 38 0a b1 bd ce c8 de bd 3a cc 1d be
       -0.10347283 -0.08644527 -0.10878144 -0.15409938
0003f0 0f 48 81 3d 4b a6 ed 3d 8c a8 b0 3b 0a 65 cd 3d
       0.06312572 0.116039835 0.005391186 0.10029037

layer3.bias f4 [30]
000000 a9 07 9c bd c3 35 83 bd 12 34 a9 3d 46 c8 78 bd
       -0.076186486 -0.064067386 0.08261885 -0.06073787
000010 cf f5 9b 3d 95 16 85 bd 06 12 a7 3b b2 49 b9 3c
       0.07615244 -0.06498448 0.005098584 0.022618148
000020 d1 66 7a bd ee b7 26 3d c0 64 0d bb 70 c0 a4 3c
       -0.06113321 0.040702753 -0.0021574944 0.020111293
000030 eb 94 8f 3d 3c 9a b6 bc 80 7d 09 3d c1 fa 3a bd
       0.07010826 -0.022290342 0.03356695 -0.045649294
000040 a0 ae a9 bb 9e 5c 3d 3d ea 9d fb bc 4c 28 90 3c
       -0.0051782876 0.046230905 -0.030714948 0.01759734
000050 42 2a 9b bd f7 7f 99 3d ce 9d 5a 3d a2 47 21 bd
       -0.075764194 0.074951105 0.05337315 -0.039374955
000060 52 3d 33 3d ec 0f 8a 3c 86 ea 25 bd a6 68 74 3d
       0.04375965 0.016853295 -0.040506862 0.059670113
000070 48 13 75 bc 60 78 0d bb
       -0.01495821 -0.0021586642
