project/output/models/Model_Policy_Doubles-v1.0.0.pth (torch, 938000 bytes, 6 tensors)

layer1.weight f4 [512, 184]
000000 82 6d c4 3d b6 5a cf 3d 1c 3b 03 3d 80 fe f7 3b
       0.095911995 0.101247236 0.032038793 0.0075681806
000010 20 15 26 3d c0 c2 d4 3a 6d 7b 57 bd cd b3 d0 bd
       0.04054749 0.0016232356 -0.052607942 -0.10190544
000020 2d eb 31 bd 87 d8 ee 3d 98 76 05 bd 03 9e 7f bd
       -0.04343717 0.11662393 -0.032583803 -0.06240655
000030 7c 06 7b bd 94 30 30 3d 1c b2 2f 3d cf 4d 4f 3d
       -0.06128548 0.043015078 0.042894468 0.050611313
000040 70 c3 ce 3b 4d 00 b4 3d 80 87 cf bc ea e6 94 3d
       0.006309919 0.0878912 -0.025333166 0.07270606
000050 61 68 08 3d ac 93 73 3d 8d 54 7f bd 1c ea a3 bd
       0.03330267 0.059467003 -0.062336493 -0.08003637
000060 96 42 08 3d 9b e4 84 bd e0 3a 05 3c 48 b8 3b 3d
       0.033266626 -0.064889155 0.008131713 0.04583004
000070 3a d2 9d bc da 8a 53 bd 50 de 93 3d 76 35 88 bd
       -0.019265283 -0.05164609 0.07220137 -0.06650822
000080 20 80 c9 bb c0 d0 d1 3a ce 0e 44 3d 88 8a 6e 3d
       -0.006149307 0.0016007647 0.04786568 0.058237582
000090 a0 f9 cc bb d0 ba 26 bd ad 2d f2 3b a6 f3 eb bc
       -0.0062553436 -0.040705502 0.007390699 -0.028802704
0000a0 50 3a 68 3d 28 d9 93 3c ce d0 f8 3c ac 18 c8 3c
       0.056696236 0.018047884 0.030373003 0.024425827
0000b0 2c 72 58 bd 1a c2 05 3d c3 cf 20 bd 40 29 9c 3c
       -0.052843258 0.032655813 -0.039260637 0.019062638
0000c0 40 03 6f 3b 3e 41 47 3d 21 0b 87 bd c4 00 63 3d
       0.0036470443 0.048646204 -0.065939195 0.055420652
0000d0 c8 a6 85 bc 79 67 3a bd dc 00 88 bd 08 09 8f 3d
       -0.016314879 -0.045508835 -0.06640789 0.069841444
0000e0 8f 29 56 3d 2c a7 0d 3d 50 23 bb bb 38 87 6d 3d
       0.052285727 0.034583256 -0.0057109967 0.057990283
0000f0 2c ea 46 bc 65 a7 bb bc 24 e5 f2 bc b0 51 02 3c
       -0.012140792 -0.022906968 -0.029650278 0.007954046
000100 dd 74 31 3d f8 0b 5a bc 43 69 23 bd c7 55 98 bd
       0.04332434 -0.013308518 -0.039895307 -0.07438236
000110 40 df 77 3d f4 45 9d 3c 70 6a f1 3c 3c c9 9f 3c
       0.060515642 0.019198395 0.029469699 0.019505136
000120 12 7d c6 bc 59 f0 e1 bd 46 73 4f 3d b8 98 6f bd
       -0.02422956 -0.11032171 0.050647043 -0.058495253
000130 d0 2b e2 bb 6e 16 6a bd b4 26 8a 3c 68 02 d6 3b
       -0.0069021955 -0.057150297 0.016864158 0.0065310486
000140 40 1b 50 3c a4 29 19 3d aa 9b c5 3d 71 9d 85 bd
       0.012701809 0.037393227 0.09648831 -0.0652417
000150 8a 25 24 bd 63 6c 25 bd f6 3f 97 3d 44 34 80 3d
       -0.040074863 -0.04038657 0.073852465 0.06259969
000160 dc fd 3e bd 46 00 73 bd 96 bb 81 bc a3 b1 c0 bd
       -0.046628818 -0.059326433 -0.015836518 -0.094088815
000170 64 53 7d bc 59 52 29 bd b4 41 a1 3c 94 82 6b 3d
       -0.015461776 -0.0413383 0.01968465 0.057497576
000180 d0 1d 2b bc fa fc 30 bd 28 59 b1 bc 6a 21 62 bd
       -0.01044412 -0.043210007 -0.021648958 -0.055207647
000190 7c 97 86 bd 7a f3 2b bd 40 98 8c ba e4 dc 40 bd
       -0.06571862 -0.041980244 -0.0010726526 -0.047085658
0001a0 c8 f3 bb 3c 2c 5f a6 3c ec 02 93 3c 20 e9 b3 bb
       0.022943392 0.020309053 0.01794573 -0.005490437
0001b0 0c 3c 8e bd 7c ec 3d 3d 4a 97 14 3d d4 c1 eb 3c
       -0.06945047 0.046368107 0.036277093 0.028778948
0001c0 64 af fb 3c 14 3f 56 3d 54 c6 75 bd 1e 31 d0 bc
       0.030723281 0.05230625 -0.060003594 -0.025414046
0001d0 d0 1e 30 3c f6 83 60 bd de 22 31 3d c4 d2 44 3d
       0.010749534 -0.054813348 0.043246143 0.048052564
0001e0 6c 8d 42 bd e8 80 22 3d 64 11 92 3d 0c bd 9a 3c
       -0.04749815 0.039673716 0.07132223 0.018888973
0001f0 73 90 2e bd 78 30 89 bc f4 77 fb 3c 20 d4 60 3d
       -0.042618226 -0.016746745 0.030696847 0.0548898
000200 a0 be 6f 3d 6a 14 53 bd 0b 35 86 bd 4c 2b a8 3c
       0.058531404 -0.05153314 -0.06553086 0.020528458
000210 00 45 46 3b 04 f3 86 3d da de 64 bd dc 4e 93 3c
       0.003025353 0.0658932 -0.05587659 0.017981939
000220 df 07 92 bd 24 d0 6d 3d 70 0c 81 3b 56 2b 60 bd
       -0.071304075 0.058059826 0.0039382502 -0.05472883
000230 20 f4 53 3c 00 9a b1 3c b0 f7 5c 3d 40 c9 fc 3a
       0.012936622 0.021679878 0.05394715 0.0019286051
000240 00 71 d6 3b f4 88 9c 3c 2a 87 18 3d a0 10 e4 3c
       0.0065442324 0.019108273 0.037238277 0.027839959
000250 e8 41 35 bc 30 55 83 bc 72 35 4a 3d 00 5c a3 3c
       -0.011063077 -0.016031832 0.049367376 0.01994133
000260 9c 0d 82 3c 00 c6 62 3b 00 9d 82 3d fb 92 67 bd
       0.01587563 0.003460288 0.063776016 -0.056536656
000270 ec 44 67 3d 1a 09 5f bd e4 74 ab 3c e8 99 8f 3c
       0.056462213 -0.05445204 0.020929761 0.017529443
000280 00 16 21 bc 20 47 3b 3b f6 e3 83 bd 60 83 3f 3c
       -0.009831905 0.002857633 -0.064399645 0.011689037
000290 28 0b 95 3d 38 ac 83 bc d0 96 8e bd 36 9e 00 bd
       0.072775185 -0.016073331 -0.06962359 -0.03140088
0002a0 db f7 7b bd 86 79 32 3d 5c 38 0b 3d 56 a6 8d 3d
       -0.06151567 0.043572925 0.033989295 0.06916492
0002b0 40 e7 7d 3d 1e a2 03 bd 2e 6e 0d 3d 40 70 b9 ba
       0.061988115 -0.03213703 0.034528904 -0.0014147833
0002c0 60 23 e8 3c c0 d0 d8 bb 50 46 00 3d 08 fd e1 bc
       0.02833718 -0.006616682 0.031317055 -0.027586475
0002d0 44 2e 88 3c 7c 3a 8d 3c 8e a5 09 3d c4 e8 85 bd
       0.016623624 0.017239802 0.03360515 -0.06538537
0002e0 0f 9f da 3c 8e 4d f8 bd 30 e9 91 bd e0 56 0a bb
       0.026687173 -0.121241674 -0.07124555 -0.002110891
0002f0 f4 e6 69 3d b8 79 19 3c 00 fc 91 bd cf 4b 87 bd
       0.05710502 0.009367399 -0.07128143 -0.06606256
000300 a3 d5 b8 bd 2b 33 43 3d 0a 20 92 3d d4 b0 f4 bc
       -0.09025123 0.04765622 0.07135017 -0.029869474
000310 26 83 41 3c b0 95 e9 3b a0 59 1e bd b6 ff 7b 3d
       0.011811053 0.00712844 -0.03865969 0.06152316
000320 a0 4d 85 3d f0 6e 62 bd 94 80 8b bc d0 90 5b 3d
       0.065089464 -0.05528158 -0.017029084 0.0536049
000330 4f 7d ab 3d 1c 70 96 bd 2b f4 0c bd 9f da 0a 3d
       0.0837351 -0.07345602 -0.034412544 0.0338999
000340 70 94 e8 bb e8 69 36 bd 62 30 01 bd f4 dc 76 3d
       -0.0070977733 -0.044534594 -0.031540282 0.06026931
000350 68 7d 54 3d 7d d7 14 3b 5c 12 69 3d ea b4 4e 3d
       0.05187741 0.002271145 0.056902274 0.0504655
000360 3c 28 3f 3d 5e ac b1 bc 74 79 3d 3d b6 f8 c0 3c
       0.04666923 -0.021688636 0.046258405 0.023556095
000370 fa 56 85 3d bc da 5c bd 7c a6 3a 3a 24 14 18 3d
       0.0651073 -0.05391954 0.0007120145 0.037128583
000380 bc 21 85 bd c9 c6 15 bd 15 59 64 3d cc c4 0d 3d
       -0.06500575 -0.03656653 0.055749018 0.03461151
000390 84 80 58 bd c0 12 6f bd 0d 65 82 3d 52 fc 83 3d
       -0.052856937 -0.05836749 0.0636693 0.06444611
0003a0 aa 65 1b bd ae 2d 56 bd d5 19 62 bc ee 9b 94 3c
       -0.03793875 -0.052289657 -0.013800104 0.01814076
0003b0 86 77 ab 3d 3a c0 ad bd 22 12 3a 3d 0d c4 94 3c
       0.08372407 -0.0848393 0.04542745 0.01815989
0003c0 f4 dd 87 3d 10 fa 94 3d 00 12 32 b9 fe ff 22 3d
       0.06634131 0.07274258 -0.00016982108 0.039794914
0003d0 26 db 8e bc ca 14 88 3c 93 f9 17 bd 1b 1f 79 bd
       -0.017438482 0.016611475 -0.037103247 -0.06082068
0003e0 b6 f1 8f bb 02 4c 88 bc d4 70 21 bc 4c 6b 6b 3d
       -0.004392828 -0.016637806 -0.0098535605 0.057475373
0003f0 c5 35 91 bd a0 4c da bb 68 2c 16 3c 64 82 cb 3c
       -0.07090334 -0.0066619664 0.009165861 0.024842449

layer1.bias f4 [512]
000000 34 81 49 bd 74 ad 81 3d f9 15 1a 3d 4d 5c 92 bc
       -0.049195483 0.06331912 0.03761861 -0.017866278
000010 03 87 b5 bc 0f 0b 1e bd 41 0e 51 bd fa 80 01 bc
       -0.022159105 -0.038584765 -0.051038984 -0.007904286
000020 13 ed bd 3d 6d 80 7e 3d 9c 40 cf 3d a9 27 19 3d
       0.09273734 0.062134195 0.10119745 0.03739134
000030 be 8d e9 3d 37 1e e1 3d db 85 71 bc db 70 c9 3d
       0.11403988 0.10992091 -0.014741386 0.098359786
000040 63 51 79 3d d2 72 8c bb 85 30 55 3d 63 23 d0 3c
       0.060868632 -0.0042861486 0.052048225 0.025407499
000050 12 d9 00 3e 94 e9 ff 3c aa 6d 6b 3d d1 14 e4 3d
       0.12582806 0.031239308 0.05747763 0.11136783
000060 57 36 70 3c fb 86 ff 3b 40 28 e9 3d d5 26 c7 3c
       0.014661393 0.0077980733 0.1138463 0.024310509
000070 c4 b7 42 bc e6 46 aa 3c 9a 18 8e 3c f2 ed 59 3d
       -0.011884633 0.02078576 0.017345715 0.053205438
000080 8a 6a 41 bd 1e 23 33 bc 80 8a 30 3d 19 72 8f 3b
       -0.047220744 -0.010933666 0.043100834 0.004377615
000090 62 1a e1 bc ff 68 c7 bc 3f b7 c4 bc 96 ca dd bc
       -0.0274784 -0.024342058 -0.02401316 -0.02707414
0000a0 e4 a8 13 3d 63 65 65 3d a5 02 00 3b 81 58 b1 bc
       0.03604974 0.056004893 0.0019532826 -0.021648647
0000b0 58 6b ad 3c 87 c9 d5 3d c3 d7 a9 3d 3f 84 cc 3d
       0.02116935 0.10438829 0.082931064 0.099861614
0000c0 53 f9 ef bc 48 77 a8 3d 68 bf 2a 3d 75 a7 64 bc
       -0.029293692 0.08225876 0.041686445 -0.0139559405
0000d0 c6 f7 ce bc 03 0b d1 3b ff 66 9a 3c ff 18 90 3d
       -0.025264632 0.0063794865 0.01884794 0.070360176
0000e0 1c 32 c1 bc 4c e5 01 bd 87 69 6c 3d 9b 47 e8 3d
       -0.023583464 -0.031712815 0.057717826 0.11341783
0000f0 b6 2f b0 3c 60 12 46 bc 54 ff bc 3d 3d e1 8d ba
       0.021507125 -0.012089342 0.092283875 -0.0010824573
000100 28 9b 01 3e 37 23 fc 3d 9c 90 66 3d 4a 40 f4 bc
       0.12656844 0.12311404 0.056290254 -0.029815812
000110 63 00 1a 3d 86 7d 26 bc 03 b5 63 3d 0f 36 97 3b
       0.037598025 -0.010161763 0.055592548 0.0046145986
000120 73 c3 f4 3d 9f be c7 3d 85 58 06 bd a5 aa b8 3d
       0.119513415 0.09753155 -0.032799263 0.09016923
000130 72 bc e1 bc a4 aa d5 3d 0c a8 a7 3d d9 f0 83 bb
       -0.027555678 0.10432938 0.08186349 -0.004026514
000140 96 00 27 3d 62 82 29 bc 58 d1 43 bd 43 fa cf 3d
       0.040772043 -0.010346027 -0.047807068 0.101551555
000150 a7 36 3a 3d e0 0d c9 bb 35 82 a3 3d c1 d7 05 3b
       0.045462277 -0.006135687 0.079838194 0.0020422789
000160 cc ed 3a bd 5c a9 a9 3c 69 64 9b bc af 0c e0 3d
       -0.045636937 0.02071064 -0.018968778 0.10939919
000170 de d3 01 bd 8b 52 34 3d 01 9c 5b 3d 08 be a7 bc
       -0.031696193 0.04402403 0.053615574 -0.020476356
000180 2d ba cd 3c c3 14 4f bd 21 1c e9 3c a2 57 e0 3c
       0.02511319 -0.05055691 0.028455796 0.027385537
000190 cf 72 d7 3b f2 8a ca 3c d6 8a a8 3b b2 9f 48 3d
       0.0065749655 0.024724457 0.0051435037 0.048980422
0001a0 24 eb b8 3d 9c f1 0a 3e 6e 8e 39 bc 96 20 4c 39
       0.090292245 0.13568729 -0.011325462 0.00019467095
0001b0 e3 a2 57 3d 60 8e ad bc 50 a1 e5 3c 3a de 74 bc
       0.052645575 -0.021186054 0.028031021 -0.014945561
0001c0 0c 3e 0a bd 0e d3 01 bd 7a e5 40 bd fc 08 f8 bc
       -0.03375058 -0.031695418 -0.047093846 -0.030277722
0001d0 3b c3 59 bd fb 5e 86 3d 93 b9 7a bd ed e2 cd 3c
       -0.053164702 0.06561085 -0.061212134 0.02513262
0001e0 2c ca 6a 3d fc 5a 6c 3c e4 b2 aa 3d 08 c6 05 3d
       0.057321712 0.014425989 0.08334902 0.03265956
0001f0 e2 2d 0c 3c 54 a1 7f 3d 5a 37 45 bd fc e8 da b9
       0.008555861 0.062409714 -0.04814849 -0.00041753787
000200 e3 15 8b 3b 2f 8b 27 bd 89 3e 11 3d 52 11 0c 3d
       0.0042445525 -0.04090422 0.03546003 0.034196205
000210 66 15 93 3d 82 c3 43 bc 19 5c c0 bb 4f 6a a4 3c
       0.07181816 -0.011948468 -0.005870354 0.020070223
000220 20 89 38 bc 9a e3 ef 3c 2e 51 56 3d ea b1 38 3c
       -0.011263162 0.029283334 0.052323513 0.011272887
000230 2c 4a cb 3b ac 90 58 bd b9 4a 2c bd 4f 11 36 bc
       0.0062039103 -0.052872345 -0.04206345 -0.011112525
000240 33 b2 07 3d 91 ee 65 3d 2b 97 8f 3d 7f 83 1b 3d
       0.03312893 0.056135718 0.07011255 0.0379672
000250 0e 9d f3 3d 4c c1 7f 3d df 5c 65 bb 68 a0 df 3d
       0.1189519 0.0624402 -0.0034997982 0.10919267
000260 39 0c a1 3c 0b d2 0b 3d 90 5e 62 3d 4c 3b 38 bd
       0.019659149 0.03413586 0.055265963 -0.044978425
000270 4f 8f 3b 3d 9c 2d c8 3d 2a f6 a5 3d c7 a8 4d 3d
       0.045790967 0.09774324 0.08103593 0.050209787
000280 84 dc 68 3d a1 80 e2 3d ea cb ad 3d db ad f3 bc
       0.056850925 0.1105969 0.08486159 -0.029745987
000290 97 7d 31 3d bd 7c c7 bc 1f 62 fe bc b8 2d 20 3d
       0.043332662 -0.024351472 -0.031052647 0.0391061
0002a0 94 11 f3 3d d0 3f 8c 3d d3 bd a6 3d 93 9d bb 3d
       0.11868587 0.06848109 0.08141675 0.09160914
0002b0 74 77 8d bc fd 82 39 3d 7f 85 6b 3d b5 6f 46 3d
       -0.017268874 0.045290936 0.05750036 0.048446376
0002c0 5f 4e 4d 3d 30 2e c2 bc 44 03 e7 3d 3e 4a 14 3d
       0.05012357 -0.023703665 0.1127992 0.036203615
0002d0 a0 6c c7 bc 3d 32 1b bc 61 12 b3 3d da 56 56 bd
       -0.024343789 -0.009472427 0.0874374 -0.05232892
0002e0 a9 88 80 3d d2 61 fc bc 3b 91 28 3c 40 72 4e 3d
       0.06276066 -0.030808363 0.010288532 0.050401926
0002f0 18 85 d8 3d 4c 86 6b 3d 21 2a f0 3d fb 0d 65 3c
       0.105722606 0.057501122 0.117267855 0.013980384
000300 12 5e d9 3d e1 a8 5d 3d 83 9a 8d 3d bc 49 35 3d
       0.106136456 0.054116134 0.069142364 0.04425977
000310 e5 cf 95 bb d8 93 36 3d bb 56 7c 3d 0f 33 29 bc
       -0.004571902 0.04457459 0.06160615 -0.010327115
000320 7b 12 c7 3c 1b ae bb 3d 1d 0d 5a bc 09 de 9b 3c
       0.024300804 0.09164067 -0.0133087905 0.019026773
000330 0d 44 7c bd 3a b6 21 bd d0 2d a4 3d a9 e2 a4 3d
       -0.061588336 -0.039480425 0.080165505 0.080510445
000340 18 eb 62 bc 39 b8 cd 3d ec f3 00 bc b1 5a f5 3d
       -0.013849996 0.10044903 -0.0078706555 0.11980189
000350 cb 2f 4a bd ee 23 47 3d d1 90 02 3d e7 ab f4 bb
       -0.049361985 0.04861825 0.03187639 -0.0074667814
000360 7e ca d6 3c d0 57 99 bc 64 2f af 3d 68 60 73 3d
       0.026219603 -0.01871863 0.08553961 0.059418112
000370 d5 81 5e bd 68 de be 3c 46 3c 12 3d 76 4f bd 3d
       -0.054323036 0.023299411 0.035702012 0.092436716
000380 66 f3 48 3d f0 c4 fe 3b 24 45 95 3d cc ec 8c 3d
       0.049060248 0.0077749416 0.07288578 0.06881103
000390 cb c3 93 3c 1d f6 ff 3c ff b9 a5 3d 5f 74 d9 3c
       0.018037697 0.031245286 0.080921166 0.026544748
0003a0 76 04 99 3b f8 66 ef 3b f3 b8 b5 bc cc 0b 72 3d
       0.0046697212 0.007305976 -0.022182917 0.05909328
0003b0 7c 04 02 bd bd 19 be 3c 08 61 22 3c f5 58 34 bd
       -0.031742558 0.023205632 0.009910829 -0.04403015
0003c0 b6 36 d3 3d bd 92 10 3d 4a dd b6 3c 1b 83 5a bd
       0.1031317 0.03529619 0.022322316 -0.05334769
0003d0 81 dd 6b 3d a8 63 90 3c 10 c3 08 3d 8a 3f df 3d
       0.05758429 0.017625645 0.03338915 0.10900791
0003e0 99 ad 4a 3c 2c da 94 3d 64 3f 24 bd f0 34 96 bd
       0.0123704905 0.072681755 -0.040099517 -0.07334316
0003f0 58 43 b9 bc d3 c7 dc 3d b2 14 16 bd c0 ca 2d bc
       -0.02261512 0.10780301 -0.03664083 -0.010607421

layer2.weight f4 [256, 512]
000000 a7 bf d2 3c 03 3a 33 3c 66 70 0f 3c 28 e6 9c 3a
       0.025726153 0.010939124 0.008754825 0.0011970447
000010 42 56 7b 3d ed 16 bd 3c 68 9b 60 3c 83 1e d6 bd
       0.06136156 0.02308222 0.013708927 -0.104550384
000020 58 53 78 bd 86 84 e4 bc b2 1b 4b bc da be 1f bd
       -0.060626358 -0.027895223 -0.01239674 -0.03900037
000030 a6 bd f3 3c 05 18 71 3b 9e 51 fc 3c af 68 4b bc
       0.029753517 0.0036787998 0.030800637 -0.012415095
000040 f5 72 e4 bb f0 1c 62 3c 95 80 7c 3b 2c 14 c0 bb
       -0.0069717118 0.013800845 0.003852879 -0.0058617797
000050 47 e9 71 bc 9e 8c 8d 3b 6e cf 59 3c 42 96 25 3d
       -0.01476509 0.0043197414 0.013294084 0.0404265
000060 3f 17 8d 3d dc 3b 38 3d a2 d9 95 bc a6 61 ba 3c
       0.068891995 0.04497896 -0.018292252 0.02275164
000070 c0 9f 3e 3d ea fe 87 bd 15 5a 6f 3d 85 17 a3 3d
       0.04653907 -0.06640418 0.05843552 0.0796347
000080 42 0c 4f bd 7d 47 08 bd 6a 44 93 3d c1 b3 c7 3d
       -0.0505488 -0.0332713 0.07190783 0.09751082
000090 a8 ce e9 bc d1 dc a7 3d 3f 31 77 3c 1c 08 8c 3d
       -0.028540924 0.08196414 0.015087425 0.06837484
0000a0 a9 6c d2 3d c0 b1 8a 3d 15 c4 bf 3c 31 69 09 bd
       0.102746315 0.06772184 0.023408929 -0.033547584
0000b0 30 53 42 3d b1 6e e4 bc 43 8f 73 3d 14 e2 1e bd
       0.047442615 -0.027884813 0.059462797 -0.038789824
0000c0 63 55 aa ba 18 5b 4b bc b4 1a bc bc b6 16 ce 3c
       -0.0012995418 -0.012411855 -0.022961952 0.025157314
0000d0 13 86 88 bc 6b da 91 3d 76 6d 97 3d d4 90 ab 3c
       -0.016665494 0.07121738 0.07393925 0.020943083
0000e0 34 62 45 3d 26 e9 5e 3d 85 c4 58 3d 89 dc 71 bd
       0.048189357 0.054421566 0.05292179 -0.05904821
0000f0 2c 93 49 bb ad b9 3c 3d f7 e3 91 3d 39 a5 92 3d
       -0.0030757887 0.04607551 0.07123559 0.0716042
000100 87 57 9b b9 07 8a 1d 3d 92 82 d6 3b 2a 07 6b 3c
       -0.00029629117 0.03846171 0.006546327 0.01434497
000110 90 12 56 3c b2 a3 6c 3d 18 11 57 bd 2f 7b ff 3c
       0.013065949 0.0577733 -0.052506536 0.031186668
000120 28 48 7d bd c2 da 2f bd f3 f2 c9 3c c2 26 f6 bb
       -0.06183639 -0.042933233 0.02465198 -0.0075119445
000130 f0 43 03 bd 5a 94 6e 3a 18 db 35 bd da 8c 97 3d
       -0.032047212 0.00091010856 -0.044398397 0.07399912
000140 9f 5e 8e 3d 2a b7 ce 3d 35 89 6a 3d 1a a8 95 bd
       0.06951641 0.100935295 0.057259757 -0.073074535
000150 7a d9 44 bd b1 10 b6 3d d0 73 bb 3d b7 2c 98 bc
       -0.048058964 0.088899024 0.09152949 -0.01857601
000160 61 7b 0f 3e 09 5c 8e 3d 33 30 3d 3c f4 fd 35 3d
       0.14011909 0.06951148 0.011547136 0.04443164
000170 42 e5 b6 3c 4c c7 77 3d f6 d3 22 bd 0e 50 1a bc
       0.022326116 0.0604928 -0.039752923 -0.009418501
000180 9d a5 9a bc 24 2b 2a bc 4b ff 8d 3c 2f f3 6f 3c
       -0.018877799 -0.010386262 0.017333647 0.014645382
000190 a2 6c 2d 3d c4 b1 e1 bc 72 f0 82 3d a3 8b 97 3d
       0.04233993 -0.027550586 0.063935176 0.073996805
0001a0 09 2c 86 3d da 97 3c bd 51 c0 9d 3c 25 26 0f 3d
       0.06551368 -0.046043254 0.019256743 0.034948487
0001b0 6b 97 ba 3c ed bd 57 3c 6b bd 7e 3d 21 05 0e bc
       0.02277728 0.01316784 0.06219236 -0.008668215
0001c0 12 0b b0 3d 7d 60 11 bd 9b 78 60 bd 8c 3b 7a bc
       0.085958615 -0.03549241 -0.05480252 -0.015272986
0001d0 79 ed 68 3a 76 17 2a 3d cf 1f 0e 3d 10 cb 97 3d
       0.0008885484 0.04152628 0.034698304 0.07411778
0001e0 40 2b 8f 3d 8a b1 eb 3c ab 1f 9f 3d f0 8b b5 3c
       0.06990671 0.02877118 0.07769712 0.022161454
0001f0 40 86 7d bd 38 50 8f 3d fe 66 ad bc 30 7a 6f 3d
       -0.06189561 0.069977224 -0.021167275 0.058466136
000200 3a 76 44 bd 36 73 38 bd 69 bd c9 3c f7 42 d4 3c
       -0.047964312 -0.04503175 0.02462645 0.025910838
000210 ad 5a 55 bc 8e 4a 1a 3c f6 fb 55 bc 7d 95 d0 bc
       -0.013022107 0.009417189 -0.01306056 -0.025461907
000220 ad 7c 2e bd 6d 15 87 3d e3 46 e2 bb b6 db b7 3d
       -0.04259937 0.065958835 -0.006905423 0.089774534
000230 56 1b 93 3d 69 0c cf 3d 5e ab 13 bd 62 5e a9 3d
       0.07182948 0.10109789 -0.0360521 0.08269955
000240 66 4b 26 3c 68 ca 45 3c 85 3f 41 bc fc 5b cd 3c
       0.010149812 0.012072183 -0.011794929 0.025068276
000250 e0 80 5a 3d a9 2e 11 3d 0e 94 2f 3d 69 14 0a bc
       0.05334556 0.03544489 0.042865805 -0.008427718
000260 24 3d f9 3c f6 0b 9c 3d 41 a8 a4 bc 60 d0 66 bd
       0.030424662 0.07619469 -0.020099761 -0.056351066
000270 58 b1 35 bb 7e f4 09 39 49 84 6d 3d 51 c2 52 3d
       -0.0027724113 0.00013156419 0.057987485 0.051454846
000280 3e d8 da 3b e9 1e 40 3d d9 53 b7 bc e2 fa 2c 3d
       0.00667861 0.04690448 -0.022378849 0.042231448
000290 15 83 20 3d 73 61 58 3d e7 c3 ca 3a a7 7f 69 3d
       0.03918751 0.05282731 0.001546976 0.057006504
0002a0 ab 24 de bc 1f 05 47 3c ed 3a 70 3a 50 5b be 3a
       -0.027117094 0.012147217 0.0009164054 0.0014523063
0002b0 f3 e1 2a bd 1b 6d a2 3d 26 36 36 3d 8b bf 72 3d
       -0.04171939 0.079309665 0.044485234 0.0592647
0002c0 87 6a 10 bd 15 3c 51 3d ef 86 76 3b 04 65 8d 3d
       -0.035257842 0.05108269 0.0037617048 0.06904033
0002d0 cf b6 61 bd ac 17 9e bc 3d 12 94 3c dd 02 b4 3d
       -0.05510598 -0.019298397 0.018075103 0.08789609
0002e0 31 4e ab 3d 79 90 14 3d d9 9d ba bc 56 d6 78 3c
       0.08364523 0.036270592 -0.022780346 0.01518782
0002f0 8d 91 09 bd b7 ce b7 3d fc bf a5 ba 9a 60 8a bc
       -0.033586074 0.089749746 -0.0012645717 -0.016891766
000300 4e 39 18 3d c9 bc 87 3c bb d9 72 3d aa 23 4e 3d
       0.037164025 0.016569512 0.059289675 0.05032698
000310 2d e0 4c bd 65 62 67 3d 0d 47 47 3d aa df b5 3d
       -0.05001848 0.05649032 0.048651744 0.08880551
000320 85 9f 8a 3d 3f cd 2d 3d 06 c2 b8 3d f2 4f 3c bd
       0.06768707 0.042432066 0.09021382 -0.04597468
000330 d2 cf 97 3d 49 be a3 3d 76 eb 7e bb 4b 26 f0 3c
       0.074126855 0.079952784 -0.003889767 0.029315135
000340 8c 5e ef bb ff 96 2b 3d e5 f5 92 3d fb cb 16 bc
       -0.007304972 0.041892048 0.07175807 -0.009203906
000350 00 6b 1c bd 60 85 bc 3c 44 6f 67 3c 94 f3 4d 3d
       -0.03818798 0.023012817 0.014125649 0.050281122
000360 a8 82 67 3c 33 59 5b bc 4a fd de 3c b0 35 d8 3d
       0.014130272 -0.013387966 0.027220387 0.10557115
000370 6e 26 12 bb 4b 02 de 3c 88 d0 35 3d c7 06 e3 3c
       -0.0022300738 0.027100703 0.044388324 0.027713193
000380 7e 73 fb 3c fe 75 99 3d ba 29 47 3d e6 b0 12 bd
       0.03069472 0.07493208 0.048623778 -0.035813235
000390 18 a1 21 3a 0d e6 49 bc 8e 72 00 3d 5c c5 a2 3d
       0.00061656674 -0.012322915 0.031359248 0.079477996
0003a0 1f c9 1d bc 13 e6 99 bb 61 9e 60 bb 3c 07 12 bd
       -0.009630471 -0.0046966164 -0.0034274089 -0.03565143
0003b0 30 ae b5 bc 50 cd ee 3c 3c 11 43 3d f6 78 e7 3c
       -0.022177786 0.029150635 0.047623858 0.02825592
0003c0 4d b8 83 3a 68 62 fa bc ab 17 1d bd c9 57 db ba
       0.0010049433 -0.030564502 -0.03835265 -0.0016734536
0003d0 c6 05 2e 3b 64 9a ff 3b d0 db 78 bd df b1 b4 3c
       0.0026553734 0.007800387 -0.060756505 0.022057472
0003e0 20 a8 33 3d b5 e3 e8 3c 9f 3e b3 3c 87 20 b6 3d
       0.04386151 0.028428892 0.021880446 0.08892923
0003f0 8e fe 37 bd ba 3b ac 3c bf 65 71 bd 06 ea 20 bd
       -0.044920497 0.021024574 -0.058934923 -0.039285682

layer2.bias f4 [256]
000000 6e 01 21 bc 9e ee 2a 3d c4 05 fc bc af d0 65 3d
       -0.009827001 0.04173147 -0.030764468 0.05610722
000010 e6 62 e5 3c ce b6 f6 3c 4b 40 19 bd 2f 90 9d 39
       0.02800126 0.030116465 -0.03741483 0.000300528
000020 90 1c ae bc da f0 16 bc e6 35 06 3d b1 15 26 3d
       -0.021253854 -0.009212697 0.032766245 0.04054803
000030 3e 52 85 bb b1 cd 20 bd 20 4d 0a bd 33 99 00 3d
       -0.004068642 -0.039258663 -0.03376496 0.031396102
000040 0b ea 15 bd 04 7b ad 3c ae f0 32 3d a8 2a ff bb
       -0.036600154 0.021176822 0.04368656 -0.0077870674
000050 f4 6a 3b 3d 52 54 db bc 52 27 e4 bb 01 3d 0a bc
       0.045756295 -0.026773605 -0.006962695 -0.008437396
000060 8b 88 5a bc c7 22 cc bc 61 bb c0 3c e4 41 16 3c
       -0.013338218 -0.024918927 0.02352685 0.009170983
000070 b4 9d 04 bd 64 ae 8f 3c 93 37 ff bc c4 cc 57 3d
       -0.03237696 0.01753921 -0.03115443 0.052685514
000080 99 82 7a 3d fe 60 04 3d 6f 40 0a bd 26 8d 9d 3c
       0.061159704 0.03231906 -0.033752855 0.019232344
000090 b6 66 98 bc b4 1a 8a bc 37 c4 0a 3d 61 fe c3 bc
       -0.018603664 -0.016858436 0.03387853 -0.023925008
0000a0 d8 73 03 3d 8e 46 20 3b 6a dc 2f 3d e2 1d bb 3c
       0.0320929 0.0024456116 0.042934813 0.022841398
0000b0 f3 28 cf ba c5 a9 11 3d 00 be 0d 3d de 90 bf 3c
       -0.001580505 0.035562295 0.034605026 0.023384508
0000c0 bb a9 2d bd 08 f7 04 3c 7d 40 ff 3c 38 fb ed 3b
       -0.042398196 0.008115537 0.03115868 0.0072626136
0000d0 f7 3c 44 bc 7a 4f 96 bb 2d 14 a7 3b 8e ab f6 bc
       -0.011977426 -0.004587111 0.0050988407 -0.0301111
0000e0 32 4f 6a 3d ae 13 79 3b 75 04 10 3b ed 8d a9 bb
       0.057204433 0.0038006115 0.0021975313 -0.0051743896
0000f0 28 cd fb 3b f5 eb bf 3c 4a 3d 4a 3c df 29 5c b9
       0.0076843686 0.023427943 0.012343714 -0.00020996433
000100 c3 34 83 3c ac 8c 7a 3d 12 f4 07 3c f2 38 6f 3d
       0.01601637 0.06116931 0.008297937 0.058403917
000110 1d 61 3f bc e0 9a 26 3d d6 1a 20 3c f9 39 0e bd
       -0.011680868 0.040675044 0.009772023 -0.034723256
000120 79 1a 98 3d ed de ff bb c7 0b ce bc 24 d6 68 3d
       0.07426924 -0.0078085572 -0.0251521 0.056844845
000130 dd 70 74 bb ab ce 6c bc 20 e0 98 bc 39 7f bc 3c
       -0.0037298717 -0.01445357 -0.018661559 0.023009883
000140 54 6d c9 3c 29 85 3e bc 88 5f 69 3d 76 ae 0b 3d
       0.024588265 -0.011628428 0.05697587 0.034101926
000150 fe e1 32 3d 73 83 05 3d c9 57 b5 bb e5 1c 65 3d
       0.043672554 0.032596063 -0.0055341464 0.05593576
000160 96 78 3f bb ab 9f 58 3d 49 ce 10 3c 22 b8 39 bd
       -0.0029216162 0.052886646 0.008838245 -0.04534162
000170 ec 1d 5a 3b 1b ad c4 3c 3e f8 f0 bb 58 a4 3c bc
       0.0033281995 0.024008324 -0.0073538115 -0.011513792
000180 42 ff 87 3d 6a 76 f7 3c 22 6f 14 3d 51 50 8c bb
       0.066404834 0.030207831 0.036238797 -0.0042820354
000190 96 b9 d6 bc 53 ba e8 3c f8 f2 8e 3c dd 77 30 bd
       -0.026211541 0.028409159 0.01744984 -0.04308306
0001a0 00 cf e9 bb 37 ba ca 3c 93 fe ea 3b a3 24 02 3d
       -0.007135272 0.024746997 0.007171461 0.03177322
0001b0 87 8d c2 bc 26 32 7f 3d b7 eb 8f 3d 1b a8 f0 bb
       -0.023749126 0.062303685 0.07027381 -0.0073442585
0001c0 5f 3d 7b 3d b2 32 31 bd 23 fe 92 3d 42 f1 05 bd
       0.061337825 -0.043261237 0.07177379 -0.032700785
0001d0 c2 cd 6f bc c0 60 a4 bc 23 f4 9d 3c 21 6c ab bc
       -0.014636459 -0.020065665 0.019281453 -0.020925583
0001e0 25 ab 0c bd f3 be 0f bd dd 61 5d 3d f4 d7 18 bd
       -0.034342904 -0.035094213 0.054048408 -0.037315324
0001f0 92 3d 69 bc 54 23 9d 3d ca 6c 1d 3d be 1d b9 bc
       -0.014235871 0.07672754 0.038433827 -0.02259719
000200 1c f7 be ba ae 1b 40 3d c3 16 fd bc c7 22 02 bd
       -0.0014569494 0.046901397 -0.030894643 -0.031771448
000210 b0 58 f4 3c a9 40 15 bc 85 33 38 3d c5 9d 98 3c
       0.029827446 -0.009109654 0.044971008 0.018629918
000220 b7 f2 3a 3d 73 e5 80 3c 54 1e 98 bc 87 e4 c8 3c
       0.045641627 0.01573441 -0.01856915 0.024523033
000230 84 36 08 bd 5f 09 f8 3c e2 b6 52 3b 98 d0 ad bc
       -0.033255115 0.030277906 0.0032152464 -0.02121763
000240 d0 a5 0f bd 4e 49 79 3d dd 17 23 bd ee 6d c6 3c
       -0.03507024 0.060860924 -0.03981768 0.02422234
000250 8b 46 43 bc dd c9 2a 3d d2 2f 5c 3d cc 13 e0 bc
       -0.011918674 0.041696418 0.053756543 -0.02735319
000260 35 2a 49 3d 3c 91 0f 3c ed 54 74 ba a8 f4 19 3c
       0.049112517 0.008762654 -0.0009320516 0.0093967095
000270 dc 6f 31 bd 3a 0f f0 bc 40 98 76 3c ae 84 87 3c
       -0.043319568 -0.029304136 0.015050948 0.016542759
000280 b4 0b 68 bc 01 08 24 3c f3 fd c8 3b 79 1f ae bb
       -0.0141629465 0.010011674 0.0061337887 -0.0053138104
000290 12 19 a2 3c 86 32 4d 3d 55 98 29 3d 1b e6 2f 3d
       0.019787345 0.05009701 0.04140504 0.042944055
0002a0 14 11 58 3c 3a 2e ca bc a4 ea 15 bc 6f b1 3d 3d
       0.0131876655 -0.024680246 -0.009150181 0.046311792
0002b0 53 11 cd ba 32 a7 b9 bb 32 ea 16 3b ad a6 9d 3c
       -0.0015645422 -0.005665683 0.0023027775 0.019244516
0002c0 fd 1b a1 bc 03 60 d1 3c 9e df a3 b9 dc 59 b9 3c
       -0.019666666 0.025558477 -0.0003125639 0.022625856
0002d0 97 62 37 3d 6b fe fa 3c 59 3d 13 bb fe a5 2b 3d
       0.044771757 0.030638894 -0.0022466986 0.04190635
0002e0 de e5 c3 bb 88 4f 68 3d 0d b2 54 3d 58 a2 4d 3d
       -0.00597833 0.056716472 0.051927615 0.05020365
0002f0 2b fe 4e 3c 55 68 35 bd 33 46 e9 3c 75 45 34 bd
       0.012633841 -0.044288952 0.028475856 -0.044011552
000300 38 19 f8 3c 1f 05 03 bd 0f 5b d8 3b d9 90 cf 3c
       0.030285463 -0.031987306 0.006602652 0.025337623
000310 8a dd 99 3d fc e3 8b 3c b0 07 99 3c 7a c3 e6 bb
       0.07512958 0.017076485 0.018680423 -0.0070423456
000320 4a 1c 0a bd 6f c5 06 bd 9c 62 1b bd c0 2c 79 3d
       -0.033718385 -0.03290313 -0.037935838 0.060833693
000330 7d 6f 5b 3c 7f dd 03 bc 2c 04 30 3d af 6c 6f 3c
       0.01339328 -0.008048414 0.04297273 0.0146133145
000340 01 8b e2 bc 98 f8 dc 3b b9 e4 5a 3b 46 82 22 bc
       -0.027654173 0.006743502 0.003340049 -0.009918755
000350 2c 91 e4 3c 4e 7d e1 3c 79 13 08 bc 1e ff bb 3c
       0.027901255 0.02752557 -0.008305424 0.022948798
000360 1f 6b c9 3c 20 b5 02 3d 24 bd 1f 38 1d 8e 44 3a
       0.024587212 0.031911016 3.8084705e-05 0.0007497983
000370 b1 7f 8b 3c 33 62 ef bc 17 4f 8f bc cc e2 0d 3d
       0.017028661 -0.02922163 -0.017493768 0.03464012
000380 05 c6 34 3a 9a ed 07 bd 36 fd 0e bd 38 91 6d 3d
       0.0006895962 -0.03318558 -0.03490945 0.05799982
000390 57 14 a0 3c 57 f4 67 3c 4c c2 5a 3d 8c 1e 08 bd
       0.019540949 0.014157376 0.053407952 -0.033232257
0003a0 59 c8 68 3d da a4 5b 3d 84 c4 34 3d 23 1a 3e 3c
       0.05683169 0.05362401 0.044132724 0.011602911
0003b0 12 39 8d 3b f5 23 bc 3c 12 ed 1f bd 37 74 8d 3c
       0.004309782 0.022966364 -0.039044447 0.01726733
0003c0 69 80 14 3d f2 cc 39 3d 8f 65 b9 3c 6f 73 aa 3c
       0.036255274 0.045361467 0.022631435 0.020806996
0003d0 65 cf f9 bc 4f ee f9 39 5d 5d 9d 3c a1 b8 28 3d
       -0.030494401 0.00047670535 0.019209558 0.0411917
0003e0 68 c1 02 3d cc c8 ab bb 31 04 e0 bc ee b0 e7 3c
       0.031922728 -0.0052424427 -0.027345749 0.028282609
0003f0 22 6c 43 bd 90 5c 2d bd 4f 76 a0 3d d2 b8 71 3c
       -0.047710545 -0.042324603 0.078350656 0.014753537

layer3.weight f4 [30, 256]
000000 7c 7d 75 bc 11 a0 06 bb a7 90 72 bc c8 fb 17 bc
       -0.014983531 -0.0020542184 -0.014804996 -0.009276338
000010 55 cc 81 bc 37 ba 6d bd 90 02 13 bd c9 6f 5c bc
       -0.015844503 -0.058038916 -0.035891116 -0.013454386
000020 e0 39 69 3c c8 44 62 3c d6 d3 6a 3d d5 11 12 bd
       0.01423499 0.013810344 0.05733093 -0.035661537
000030 54 6a d3 bc 22 39 cc bc 25 6d 6c bd df 72 7a 3d
       -0.025807537 -0.024929587 -0.057721276 0.061144706
000040 c0 11 fe bb c7 8b 02 3d e7 cd 6b bc c3 43 8a 3d
       -0.007753581 0.031871583 -0.014392353 0.06751206
000050 41 94 9c ba 1a f2 62 3d 80 2d 80 b8 b4 d0 ec 3c
       -0.0011946039 0.055406667 -6.111991e-05 0.028908111
000060 11 38 33 bd 9c 8a 58 bd bf 40 57 3d 8a 37 17 3d
       -0.04375464 -0.052866563 0.05255198 0.0369182
000070 09 93 b7 ba e1 1b 4a 3d 17 98 d9 bc 17 c2 22 bd
       -0.0014005612 0.049342994 -0.02656178 -0.03973588
000080 33 3c 95 bd 3e 75 28 3d 18 fd 80 bc 97 90 0b 3d
       -0.07286873 0.041127436 -0.015745685 0.03407344
000090 2e 90 c0 bc ce fb 35 3d 7e 5d 16 3d 1d 32 4a 3d
       -0.02350625 0.044429593 0.036710255 0.049364198
0000a0 4b 3c 49 3d 39 5b 0a bd 23 5b 9f bb 68 13 73 3d
       0.049129765 -0.033778403 -0.0048631593 0.05934468
0000b0 8d 7b 26 bd 48 14 6e bd 79 a6 3f bd 4a 1f eb bc
       -0.04064517 -0.05812481 -0.04678962 -0.028701443
0000c0 84 d3 f1 bb 89 6a ff 3c 4f 84 62 bc 65 b9 1e bd
       -0.007379951 0.03117873 -0.01382549 -0.038751025
0000d0 f5 4a 20 3c 52 00 a5 bd 7e f8 59 bd 3b ec e5 bc
       0.009783496 -0.08056702 -0.053215496 -0.028066745
0000e0 6a 0e 80 bb 86 55 87 3c 5c 01 3e bd 71 db 72 3d
       -0.0039079683 0.016520273 -0.046388015 0.059291307
0000f0 5e e7 76 3d 5c f5 0c 3d 64 c2 83 ba e8 66 3f 3d
       0.060279243 0.03441368 -0.001005244 0.046729
000100 1c b9 ce 3b 5e 73 2b 3d 6d ef 50 3d 73 98 4d 3d
       0.006308688 0.04185807 0.051009584 0.050194215
000110 94 df f5 3c 74 86 97 bd 0d 3f ec bb 25 78 a4 3c
       0.030013837 -0.07398692 -0.0072096647 0.02007682
000120 91 18 e7 3c 3c b4 7c 3d 62 db 38 bd e7 40 5b bc
       0.028209956 0.061695322 -0.045131095 -0.013382173
000130 26 11 40 bc 74 60 24 3d 27 87 36 3d 95 36 c3 bc
       -0.0117228385 0.040131047 0.044562485 -0.023829738
000140 07 3e 11 3d b2 53 4b bd e3 69 fa bc 9c ab b8 3c
       0.035459545 -0.049640365 -0.030568069 0.022542767
000150 d5 20 86 bc 5d cc 27 bd 06 16 e2 3c a3 77 82 bd
       -0.016373077 -0.04096638 0.027598392 -0.06370475
000160 3c 14 a2 bd 07 13 d4 3c 42 fa ba ba 0e 27 4f 3d
       -0.07914016 0.02588798 -0.0014265256 0.050574355
000170 d0 b3 59 3c eb f1 30 bd 95 66 ff bc 00 a8 17 bd
       0.0132875 -0.04319946 -0.031176845 -0.03702545
000180 19 ea 57 bd 02 65 84 3c 34 9b 29 bd 0b 13 d1 bb
       -0.052713487 0.016161446 -0.04140778 -0.006380444
000190 c8 bb 60 3d d1 a5 aa bb db da 65 3d 34 38 cf 3c
       0.054866582 -0.005207755 0.05611692 0.025295354
0001a0 81 f7 53 bd b9 b6 ec bb e7 75 e0 bc 50 f2 1d bd
       -0.05174971 -0.0072239307 -0.02739997 -0.038561165
0001b0 e2 51 d7 bc 0d 4b f8 3c 91 b8 8b bd be b1 00 3d
       -0.026284162 0.030309225 -0.068223126 0.03141951
0001c0 c0 e4 70 bd 00 67 7a bc 07 55 28 bd 0a 9e 7d 3d
       -0.058811903 -0.015283346 -0.041096713 0.061918296
0001d0 0a 72 c0 3c f9 2b 83 3d 43 52 2b bd da d0 1d bd
       0.023491878 0.064048715 -0.041826498 -0.038529254
0001e0 50 5a 0f 3d 38 d0 bd bc 12 74 28 3b 3d a0 5e 3c
       0.034998238 -0.023170575 0.002570395 0.0135880085
0001f0 e5 52 2c 3d c1 d3 07 3d 35 0b 14 3d 84 9e a7 3c
       0.042071242 0.03316093 0.0361435 0.020461328
000200 7e 48 6b bd 84 8f f9 bc 9c 8e 8b 3a 88 0e 03 3d
       -0.05744218 -0.030463941 0.0010647359 0.03199628
000210 cc 72 92 bd d8 fa 2a 3d 0e a3 3a bd 5e 69 35 bc
       -0.07150802 0.04174313 -0.045565657 -0.011072485
000220 17 57 a8 39 1d ce 5b bc 96 36 fb bc df 1a 2e 3d
       0.00032108344 -0.01341584 -0.030665677 0.042506095
000230 5e 23 3f bc 1a d4 40 3c f0 86 b3 3c c4 15 5f bd
       -0.011666147 0.011769319 0.02191493 -0.054464117
000240 c2 16 d5 bc 07 4a 02 3d 16 f0 6d bd 2d 8a bf 3c
       -0.026011828 0.03180888 -0.058090292 0.023381317
000250 28 82 13 3c b7 31 85 3b 21 46 ac bd aa 8e 85 3d
       0.0090032 0.0040647644 -0.084118135 0.06521352
000260 bf ca 34 3d ce 75 8d 3d bc 7d 2e bd 22 47 a4 3b
       0.044138666 0.06907235 -0.04260038 0.0050133625
000270 bf f6 62 bd 54 d8 d9 bc 05 b9 3f bd cc 49 0e bd
       -0.055411097 -0.026592411 -0.046807308 -0.034738347
000280 47 59 19 bd 11 04 81 3c 16 ef ed bc 51 a3 09 bd
       -0.037438657 0.01574901 -0.02904467 -0.033603016
000290 27 29 33 bd 41 43 0b bd 4a ad e5 3c 3c 16 2e 3d
       -0.043740418 -0.033999685 0.028036732 0.042501673
0002a0 05 39 42 3d cc 54 87 3c 8e 7d 91 bc 01 98 1d 3d
       0.04741766 0.016519926 -0.017760064 0.03847504
0002b0 ac 42 0c 3c c7 32 4c bb c1 0b 13 ba dd fb c3 bc
       0.008560818 -0.0031158195 -0.00056093564 -0.023923809
0002c0 e0 af 16 bd eb ef 0d 3d ec 2a 85 3c a8 b2 61 bc
       -0.03678882 0.03465263 0.016255818 -0.013775505
0002d0 09 c3 3c bd c3 8a 85 3d 29 b9 98 bd 6d c4 78 bd
       -0.046084438 0.06520607 -0.074571915 -0.0607342
0002e0 5d 1e 15 bd 63 36 70 bc 1c 92 03 3c e6 fa 5a bd
       -0.03640591 -0.014661404 0.008030441 -0.05346193
0002f0 f2 55 35 bc 70 e6 91 3b 95 dd 15 bd 40 70 7a bd
       -0.011067854 0.004452519 -0.03658827 -0.061142206
000300 5f 96 8d bb 0f ee 64 3c 66 5a a4 3c 47 81 fb bb
       -0.004320904 0.013972773 0.020062637 -0.007675323
000310 5d dc 8a bd 5c ea f0 bc aa b7 9d bd eb 71 bb 3c
       -0.06780312 -0.029408626 -0.07701047 0.022881469
000320 bf 5c 4a 3d fd 90 d8 3b 88 e1 0b 3c 08 9a 32 bd
       0.049404856 0.006609081 0.008537658 -0.043603927
000330 bb 06 69 bd a2 e0 0c bd 1e 4a ce 3c f3 d3 53 bd
       -0.056891184 -0.034393914 0.025181826 -0.051715802
000340 6a 84 03 bd c5 a1 58 bd 17 a5 79 3c ee 21 47 bd
       -0.0321087 -0.05288865 0.015237114 -0.048616342
000350 54 15 83 bd 0f e8 76 bd db 2c eb 3c 6f bd bf bc
       -0.064005524 -0.060279902 0.028707912 -0.023405759
000360 82 63 39 bd 7a d4 04 bb 64 8a 4b 3d f3 8d 63 3b
       -0.045260914 -0.0020268247 0.049692526 0.003472206
000370 93 ba b2 bc f0 c3 82 bb 97 78 e2 bc fe ea 1a 3d
       -0.021817481 -0.0039906427 -0.027645392 0.037821762
000380 0b fa 19 bd b6 35 16 bd 70 46 bc bc da d4 ab 3c
       -0.037591975 -0.036672316 -0.022982806 0.020975519
000390 5a 0e 29 bc 83 61 0f 3d 7c 72 90 3c fd 6d 18 3c
       -0.010318363 0.035005104 0.017632715 0.009303567
0003a0 98 1f cb 3c 9e 81 fe bc 8c 61 e4 3c 6d 39 42 3c
       0.024795339 -0.031067666 0.027878545 0.011854512
0003b0 c0 56 83 bb 14 17 e3 3c dc 89 57 3d 5f e4 76 bd
       -0.004008144 0.027720965 0.052621707 -0.060276385
0003c0 91 31 69 3d 62 10 66 bd 95 3f 08 bd 13 3e cd 3c
       0.056932036 -0.056167968 -0.03326376 0.025054013
0003d0 70 3d 2f 3c e1 55 57 bc 98 57 82 3d 3d 9c 7d 3d
       0.0106958 -0.013143034 0.063643634 0.06191658
0003e0 a6 3b 1c 3d f4 ab 98 bc b0 ee d6 3c 9c 41 89 bc
       0.038142823 -0.018636681 0.026236862 -0.016754918
0003f0 a3 bd 08 3b 6a bc 33 bd 3d c5 1d 3d f8 35 3c 3d
       0.0020864985 -0.043880858 0.03851818 0.045949906

layer3.bias f4 [30]
000000 16 ad 07 3d eb 3d 17 3b 75 be 41 3d 6c 6e 99 bc
       0.033124052 0.0023077677 0.047300775 -0.018729411
000010 f2 6e 0f bd c0 b3 db 3b 83 5c 1e bd 9a 58 2d bd
       -0.035017915 0.0067047775 -0.038662445 -0.042320825
000020 0e 38 91 3c bc d1 2d bd b9 cc c8 bc fc b2 6a 3d
       0.017726924 -0.042436346 -0.024511682 0.0572996
000030 d4 f1 e3 3c d8 fa ef 3c fe 2e 87 3b c0 c2 b6 3c
       0.027825274 0.029294416 0.004125475 0.02230966
000040 90 2d 90 bc 0e af 76 3d 61 94 07 3d f5 d8 78 3b
       -0.01759985 0.06022554 0.03310049 0.0037971113
000050 3c a4 5d 3c 3b f0 2a bd fe a0 cc 3c 00 02 80 bc
       0.013527926 -0.041733008 0.02497911 -0.015625954
000060 52 d3 0f 3d 66 47 e6 bc 1d 6a 2b 3d bc da c7 3c
       0.03511364 -0.028110217 0.041849244 0.024396293
000070 b3 52 d1 3c ed 72 7b 3c
       0.02555213 0.015347225
