project/output/models/Model_target_Doubles-v1.0.0.pth (torch, 938000 bytes, 6 tensors)

layer1.weight f4 [512, 184]
0	0x3e5aeddc	0.21379799
1	0x3dc011cc	0.093783945
2	0xbc6258f8	-0.013815157
3	0x3bf7fe80	0.0075681806
4	0x3d261520	0.04054749
5	0x3ad4c2c0	0.0016232356
6	0xbdaf546e	-0.085610256
7	0xbe3e1915	-0.18564256
8	0xbdc6c7be	-0.097060665
9	0x3e0de437	0.13856588
10	0xbd057698	-0.032583803
11	0xbd98a26e	-0.07452856
12	0xbe16406c	-0.14673012
13	0x3d303094	0.043015078
14	0x3d2fb21c	0.042894468
15	0x3d3c9e0f	0.046049174
16	0x3bcec370	0.006309919
17	0x3db541a2	0.08850409
18	0xbccf8780	-0.025333166
19	0x3d94e6ea	0.07270606
20	0x3da02de8	0.07821256
21	0x3d7393ac	0.059467003
22	0xbcce3130	-0.025169939
23	0xbde78094	-0.11303821
24	0x3d084296	0.033266626
25	0xbd84e49b	-0.064889155
26	0x3c053ae0	0.008131713
27	0x3d3bb848	0.04583004
28	0xbc9dd23a	-0.019265283
29	0xbdf87d5b	-0.12133285
30	0x3d93de56	0.072201416
31	0xbd883576	-0.06650822
32	0xbbc98020	-0.006149307
33	0x3ad1d0c0	0.0016007647
34	0x3d440ece	0.04786568
35	0x3d5bd9c7	0.053674486
36	0xbbccf9a0	-0.0062553436
37	0xbd26bad0	-0.040705502
38	0xbd3d5e84	-0.046232715
39	0xbcebf3a6	-0.028802704
40	0x3d683a50	0.056696236
41	0x3c93d928	0.018047884
42	0x3d13b7bc	0.036063895
43	0x3cc818ac	0.024425827
44	0xbd58722c	-0.052843258
45	0x3d05c21a	0.032655813
46	0xbce5813a	-0.028015722
47	0x3c9c2940	0.019062638
48	0x3b6f0340	0.0036470443
49	0x3d47413e	0.048646204
50	0xbdaba6bd	-0.08381412
51	0x3db54693	0.088513516
52	0x3b66d113	0.0035219833
53	0xbe27a4ab	-0.1637141
54	0xbd8800dc	-0.06640789
55	0x3dbfc54b	0.093638025
56	0x3d51152a	0.051045574
57	0x3d0da72c	0.034583256
58	0xbbbb2350	-0.0057109967
59	0x3d8bfb3b	0.06835028
60	0xbc46ea2c	-0.012140792
61	0xbdaf5ebb	-0.0856299
62	0xbcf2e524	-0.029650278
63	0x3c0251b0	0.007954046
64	0x3c0e4f0d	0.008685839
65	0xbc5a0bfa	-0.0133085195
66	0xbd2aacce	-0.041668706
67	0xbdbcf15b	-0.092257224
68	0x3d77df40	0.060515642
69	0x3c9d45f4	0.019198395
70	0x3cf16a70	0.029469699
71	0x3c9fc93c	0.019505136
72	0xbcc67d12	-0.02422956
73	0xbd9f89e3	-0.07789972
74	0x3d4f7346	0.050647043
75	0xbd6f98b8	-0.058495253
76	0xbbe22bd0	-0.0069021955
77	0xbd6a166e	-0.057150297
78	0x3c8a26b4	0.016864158
79	0x3c8a5b7f	0.016889332
80	0x3c501b40	0.012701809
81	0x3d1929a4	0.037393227
82	0x3dee3aba	0.11632295
83	0xbd859d71	-0.0652417
84	0xbd24258a	-0.040074863
85	0xbd256c63	-0.04038657
86	0x3de1108c	0.10989484
87	0x3d803444	0.06259969
88	0xbd3efddc	-0.046628818
89	0xbd730046	-0.059326433
90	0xbc99f0bc	-0.018791549
91	0xbe51c139	-0.20483865
92	0xbc7d5364	-0.015461776
93	0xbd295259	-0.0413383
94	0x3ca141b4	0.01968465
95	0x3d6b8294	0.057497576
96	0xbc2b1dd0	-0.01044412
97	0xbd30fcfa	-0.043210007
98	0xbcb15928	-0.021648958
99	0xbd62216a	-0.055207647
100	0xbd86977c	-0.06571862
101	0xbd2bf37a	-0.041980244
102	0xba8c9840	-0.0010726526
103	0xbd40dce4	-0.047085658
104	0x3cbbf3c8	0.022943392
105	0x3ca65f2c	0.020309053
106	0x3c9302ec	0.01794573
107	0xbbb3e920	-0.005490437
108	0xbd8e3c0c	-0.06945047
109	0x3d3dec7c	0.046368107
110	0x3d14974a	0.036277093
111	0x3cebc1d4	0.028778948
112	0x3cfbaf64	0.030723281
113	0x3d563f14	0.05230625
114	0xbd75c654	-0.060003594
115	0xbcd0311e	-0.025414046
116	0x3c301ed0	0.010749534
117	0xbd6083f6	-0.054813348
118	0x3d3122de	0.043246143
119	0x3d44d2c4	0.048052564
120	0xbd428d6c	-0.04749815
121	0x3d2280e8	0.039673716
122	0x3d921166	0.07132225
123	0x3c9abd0c	0.018888973
124	0xbd2e9073	-0.042618226
125	0xbc893078	-0.016746745
126	0x3cfb77f4	0.030696847
127	0x3d60d420	0.0548898
128	0x3d6fbeab	0.058531445
129	0xbd53146a	-0.05153314
130	0xbd86350b	-0.06553086
131	0x3ca82b4c	0.020528458
132	0x3b464500	0.003025353
133	0x3d86f304	0.0658932
134	0xbd64deda	-0.05587659
135	0x3c934edc	0.017981939
136	0xbd9207df	-0.071304075
137	0x3d6dd024	0.058059826
138	0x3b810c70	0.0039382502
139	0xbd602b56	-0.05472883
140	0x3c53f420	0.012936622
141	0x3cb19a00	0.021679878
142	0x3d5cf7b0	0.05394715
143	0x3afcc940	0.0019286051
144	0x3bd67100	0.0065442324
145	0x3c9c88f4	0.019108273
146	0x3d18872a	0.037238277
147	0x3ce410a0	0.027839959
148	0xbc3541e8	-0.011063077
149	0xbc835530	-0.016031832
150	0x3d4a3572	0.049367376
151	0x3ca35c00	0.01994133
152	0x3c820d9c	0.01587563
153	0x3b62c600	0.003460288
154	0x3d829d00	0.063776016
155	0xbd6792fb	-0.056536656
156	0x3d6744ec	0.056462213
157	0xbd5f091a	-0.05445204
158	0x3cab74e4	0.020929761
159	0x3c8f99e8	0.017529443
160	0xbc211600	-0.009831905
161	0x3b3b4720	0.002857633
162	0xbd83e3f6	-0.064399645
163	0x3c3f8360	0.011689037
164	0x3d950b28	0.072775185
165	0xbc83ac3d	-0.01607334
166	0xbd8e96d0	-0.06962359
167	0xbd009e36	-0.03140088
168	0xbd7bf7db	-0.06151567
169	0x3d327986	0.043572925
170	0x3d0b385c	0.033989295
171	0x3d8da656	0.06916492
172	0x3d7de740	0.061988115
173	0xbd03a21e	-0.03213703
174	0x3d0d6e2e	0.034528904
175	0xbab97040	-0.0014147833
176	0x3ce82360	0.02833718
177	0xbbd8d0c0	-0.006616682
178	0x3d004650	0.031317055
179	0xbce1fd08	-0.027586475
180	0x3c882e44	0.016623624
181	0x3c8d3a7c	0.017239802
182	0x3d09a58e	0.03360515
183	0xbd85e8c4	-0.06538537
184	0x3dafc310	0.08582127
185	0xbf36c71f	-0.71397585
186	0xbcc3a6d9	-0.02388327
187	0xbb0a56e0	-0.002110891
188	0x3d69e6f4	0.05710502
189	0x3c1979b8	0.009367399
190	0xbdb30e08	-0.087429106
191	0xbd42232c	-0.047396824
192	0xbd8fd9e0	-0.07023978
193	0x3ca1d94a	0.019756932
194	0x3d92200a	0.07135017
195	0xbd406094	-0.046967104
196	0xbc845fac	-0.016158901
197	0x3be995b0	0.00712844
198	0xbd1e59a0	-0.03865969
199	0x3bc907b5	0.006134952
200	0x3d854da0	0.065089464
201	0xbd095676	-0.03352972
202	0xbc8b8094	-0.017029084
203	0x3d5b90d0	0.0536049
204	0x3e1251e8	0.14289057
205	0xbd96701c	-0.07345602
206	0xbd0a8c7b	-0.03382538
207	0x3c916e28	0.017752722
208	0xbbe89470	-0.0070977733
209	0xbd3669e8	-0.044534594
210	0xbd013062	-0.031540282
211	0x3d76dcf4	0.06026931
212	0x3d547d68	0.05187741
213	0x3aa8225c	0.0012827623
214	0x3d69125c	0.056902274
215	0x3d4eb4ea	0.0504655
216	0x3d3f283c	0.04666923
217	0xbcb1ac5e	-0.021688636
218	0x3d3d7974	0.046258405
219	0xbd0262f2	-0.031832643
220	0x3d8556fa	0.0651073
221	0xbd5cdabc	-0.05391954
222	0x3ca9c3d9	0.02072327
223	0x3d181424	0.037128583
224	0xbd8521bc	-0.06500575
225	0xbd15c6c9	-0.03656653
226	0x3d6af758	0.05736479
227	0x3d0dc4cc	0.03461151
228	0xbd588084	-0.052856937
229	0xbd6f12cb	-0.05836753
230	0x3c09d72d	0.008413118
231	0x3d83fc52	0.06444611
232	0xbd1b65ae	-0.037938766
233	0xbd562dae	-0.052289657
234	0xbd313c03	-0.043270122
235	0xbc3a0588	-0.011353858
236	0x3d05cba3	0.032664906
237	0xbd9be878	-0.07612699
238	0x3d3a1222	0.04542745
239	0xbb662408	-0.003511669
240	0xbc471200	-0.012150288
241	0x3d94fa10	0.07274258
242	0xb9321200	-0.00016982108
243	0x3b3f8b48	0.0029227305
244	0xbc8edb26	-0.017438482
245	0x3d156269	0.036470804
246	0xbd17f993	-0.037103247
247	0xbd791f1b	-0.06082068
248	0x3ca552ef	0.020181147
249	0xbc884c02	-0.016637806
250	0x3c734a23	0.014849219
251	0x3ce56e33	0.028006649
252	0xbd9135c5	-0.07090334
253	0xbbda4ca0	-0.0066619664
254	0x3c162c68	0.009165861
255	0x3ccb8264	0.024842449

layer1.bias f4 [512]
0	0xbd559baa	-0.052150406
1	0x3dab8285	0.08374504
2	0x3ce37941	0.02776778
3	0xbd68397a	-0.05669544
4	0xbd45e0dc	-0.048310146
5	0xbd53139b	-0.05153237
6	0xbd9acae7	-0.07558232
7	0xbb983db8	-0.0046460293
8	0x3e117f01	0.14208604
9	0x3ded444b	0.115852915
10	0x3e18ebc0	0.14933681
11	0x3d704cf5	0.058667142
12	0x3df46ebb	0.11935183
13	0x3ddd689e	0.1081097
14	0x3c0652aa	0.00819842
15	0x3dcf9e5e	0.10137628
16	0x3dca7a0f	0.09886562
17	0xbca00a1a	-0.019536067
18	0x3dbfbf81	0.09362698
19	0xbc462893	-0.012094635
20	0x3e0a033a	0.13477793
21	0x3c90c79e	0.01767331
22	0x3dbace4a	0.09121378
23	0x3e22f177	0.15912424
24	0xba56bcdd	-0.0008191595
25	0x3c0b7690	0.008512154
26	0x3e104428	0.140885
27	0x3d8ff166	0.07028465
28	0xbd1a1075	-0.03761335
29	0x3d025043	0.031814825
30	0xbcbf1609	-0.023325937
31	0x3dd9a1c9	0.10626561
32	0xbd3d30f2	-0.046189256
33	0xbd2f684e	-0.042824082
34	0x3d0f67c5	0.03501107
35	0xba862efe	-0.0010237393
36	0xbcf70aa4	-0.030156441
37	0xbd295ca7	-0.041348126
38	0xbcd47340	-0.025933862
39	0xbd043654	-0.032278374
40	0x3da43fa8	0.08019954
41	0x3d42ddb4	0.047574714
42	0x3d9ee5ba	0.077586606
43	0xbd5646a0	-0.052313447
44	0xbc964aba	-0.01834618
45	0x3e189a2c	0.14902562
46	0x3df7e4d7	0.121041946
47	0x3e111ce7	0.14171182
48	0xbd5f40ac	-0.054505035
49	0x3d894db8	0.06704277
50	0x3c952cbd	0.01820981
51	0xbd4ba2be	-0.04971575
52	0x3ca6899e	0.020329293
53	0x3c71ec99	0.014765882
54	0x3a9c6c7b	0.0011934185
55	0x3de0e796	0.109816715
56	0xbc9e8865	-0.019352147
57	0xbd6502b7	-0.055910792
58	0x3ddc6e29	0.10763199
59	0x3e19282e	0.14956734
60	0xbc69e14a	-0.0142749045
61	0x3c39cf99	0.011340999
62	0x3d9cd903	0.07658579
63	0xbd28dc99	-0.041226003
64	0x3e2fb122	0.17157415
65	0x3e05abb0	0.13053775
66	0x3cde52ba	0.027139056
67	0xbd2ee24a	-0.042696275
68	0x3cc6b888	0.024257913
69	0xbd3ed3a6	-0.046588562
70	0x3d76a349	0.060214315
71	0xbcd2b1bc	-0.025719516
72	0x3e236bac	0.15959042
73	0x3de9876b	0.11402782
74	0xbd0e60a1	-0.03476012
75	0x3ddf2635	0.10895959
76	0xbda85740	-0.082197666
77	0x3e22e7eb	0.15908782
78	0x3df1ce9e	0.11806987
79	0xbd12db7c	-0.035853848
80	0x3c6fe5a6	0.014642155
81	0xbcd3d7ad	-0.025859678
82	0xbd9fbcad	-0.07799659
83	0x3e171f39	0.14758004
84	0x3d86c289	0.065800734
85	0xbc2e5576	-0.010640493
86	0x3e17dc36	0.14830098
87	0xbbf494d6	-0.0074640317
88	0xbd380d77	-0.044934716
89	0x3caafaf1	0.020871611
90	0x3d850866	0.064957425
91	0x3e15f8ae	0.14645645
92	0xbcb297d9	-0.021800922
93	0xbb7eb38c	-0.0038864342
94	0x3db2f01a	0.08737202
95	0xbcb96c30	-0.022634596
96	0x3cc16b2c	0.023610674
97	0xbd8bf1be	-0.06833218
98	0x3cfd23ce	0.030900862
99	0x3d0619f0	0.03273958
100	0xbcb15437	-0.021646602
101	0x3d4eabdd	0.05045687
102	0xbd290143	-0.04126097
103	0x3d47927b	0.04872368
104	0x3daecbc8	0.08534962
105	0x3e3dc48b	0.18532006
106	0x3d03ff53	0.032225918
107	0xbc244c5c	-0.010027971
108	0x3d881eb4	0.06646481
109	0xbbf072eb	-0.007337918
110	0x3db0ad65	0.086268224
111	0xbca1785d	-0.019710714
112	0xbd805cc1	-0.062676914
113	0xbd874b64	-0.066061765
114	0xbd59089f	-0.052986737
115	0xbd28f935	-0.041253287
116	0xbd8bff61	-0.06835819
117	0x3d65f13a	0.056138255
118	0xbcb67692	-0.022273336
119	0x3b950e6e	0.0045488393
120	0x3d9ce039	0.076599546
121	0xbd1cab27	-0.03824916
122	0x3e1c2f61	0.15252449
123	0x3c6623da	0.014046634
124	0x3ceaf11c	0.028679423
125	0x3d328ad5	0.04358943
126	0xbd9dc183	-0.07702925
127	0xbbd59819	-0.0065183756
128	0xbcb50e0b	-0.022101423
129	0x3b800649	0.0039069992
130	0x3d50c542	0.05096937
131	0x3da276e3	0.07932832
132	0x3dcff5ed	0.101543285
133	0xbc4e7dd7	-0.012603245
134	0xbcf12500	-0.029436588
135	0x3c61ebdd	0.013789144
136	0xbbca7062	-0.006177948
137	0x3cbc55dc	0.02299016
138	0x3dd37dd5	0.10326735
139	0x3d0af170	0.03392166
140	0x3bfacf34	0.007654095
141	0xbd2e38e6	-0.04253473
142	0x3d438055	0.04772981
143	0x3d65093a	0.055917002
144	0x3d197261	0.037462596
145	0x3dcd43cf	0.10022699
146	0x3d1b3618	0.037893385
147	0x3c0d4a14	0.008623619
148	0x3e12e269	0.14344181
149	0x3cf52e35	0.02992926
150	0x3d67a007	0.0565491
151	0x3e0795bb	0.13240711
152	0x3d8cd34c	0.06876239
153	0xbaaed4da	-0.0013338581
154	0x3d94763a	0.072491124
155	0xbd037093	-0.03208978
156	0x3d7e7949	0.062127385
157	0x3ddcbf50	0.107786775
158	0x3ddb1d22	0.10698916
159	0x3e03be7c	0.12865633
160	0x3daf26c9	0.085523196
161	0x3e0a43bc	0.13502401
162	0x3da620e1	0.0811174
163	0x3d8581ca	0.06518896
164	0x3b47dca1	0.0030496495
165	0xbc496ba3	-0.012293729
166	0xbdb49c77	-0.08818906
167	0x3d1bf03c	0.038070902
168	0x3e0b74aa	0.13618723
169	0x3dc5e95e	0.09663652
170	0x3df88fed	0.12136827
171	0x3df99946	0.12187438
172	0x3ceebf4d	0.029143954
173	0x3d514f13	0.0511008
174	0x3e000ee0	0.12505674
175	0x3ca239a9	0.019802885
176	0x3be1aa25	0.006886738
177	0xbd6553af	-0.05598801
178	0x3e2c1fd2	0.16809013
179	0xbac877bb	-0.0015294472
180	0xbd48749e	-0.04893934
181	0xbce64fa4	-0.028114147
182	0x3d9ecfb9	0.07754464
183	0xbd8a341a	-0.06748219
184	0x3da46f12	0.080289975
185	0xba9227a1	-0.0011150726
186	0x3d3de9ba	0.046365477
187	0xbd016210	-0.03158766
188	0x3dfb0cf0	0.12258327
189	0x3d316f88	0.043319255
190	0x3e33d65b	0.17562239
191	0x3c067b56	0.0082081165
192	0x3e0cb5be	0.13741204
193	0xbcab4d26	-0.02091081
194	0x3dc9283f	0.098221295
195	0x3d726876	0.059181653
196	0x3c90af5f	0.017661748
197	0x3d97f3c1	0.07419539
198	0x3dc103e4	0.0942457
199	0x3993cfdd	0.00028192895
200	0x3ca12b95	0.019674102
201	0x3d6e82a7	0.05823007
202	0x3d873c11	0.06603254
203	0x3d2fdb9b	0.04293404
204	0xbd466991	-0.04844052
205	0xbd2767b4	-0.040870383
206	0x3d399975	0.045312364
207	0x3df7c197	0.12097471
208	0x3cb641ab	0.02224811
209	0x3e034bdc	0.12821907
210	0xbd11039d	-0.035403837
211	0x3e31bc66	0.17357025
212	0x3cb48cc2	0.022039775
213	0x3df26351	0.11835349
214	0x3d0fd34c	0.035113618
215	0xbcac4150	-0.021027237
216	0xbc001d1f	-0.007819443
217	0xbd81ac1d	-0.06331656
218	0x3dea5dd9	0.11443681
219	0x3d44929c	0.04799138
220	0xbdc4ddb7	-0.09612601
221	0x3d6ab91e	0.057305448
222	0x3dd7be5f	0.10534357
223	0x3e079423	0.13240103
224	0x3da6e28a	0.08148678
225	0xbc444c37	-0.011981062
226	0x3dea9959	0.1145503
227	0x3db87da0	0.09008336
228	0xbc4eb8a8	-0.012617268
229	0x3bcb9ebe	0.006213992
230	0x3dcbd00b	0.099517904
231	0x3db0d36d	0.08634076
232	0xba9d0cab	-0.0011981925
233	0x3cc37397	0.023858828
234	0xbd12ea7b	-0.03586815
235	0x3dbdfbdb	0.09276553
236	0xbd9c26ec	-0.07624611
237	0x3dc1bfed	0.09460435
238	0xba8fbe5e	-0.0010966768
239	0xbdb707dc	-0.08937046
240	0x3e24ce5b	0.16094343
241	0x3d45b348	0.04826668
242	0x3c83dd3a	0.0160967
243	0x3c74dc74	0.014945138
244	0x3db55863	0.08854749
245	0x3d83fe53	0.06444993
246	0x3d9bc872	0.07606591
247	0x3e18f0ad	0.1493556
248	0xbb78892d	-0.003792356
249	0x3d126f91	0.03575093
250	0xbd1d5345	-0.03840949
251	0xbdc068d0	-0.093949914
252	0xbd0bf69e	-0.03417074
253	0x3e0df657	0.13863502
254	0xbbade110	-0.0053063706
255	0x3d22e20a	0.03976635

layer2.weight f4 [256, 512]
0	0x3cc436d8	0.023951933
1	0x3cd541f6	0.02603243
2	0x3cac414f	0.021027235
3	0x3b88d2a2	0.0041755
4	0x3d9a7cbe	0.07543324
5	0x3d548ad9	0.051890228
6	0x3d897928	0.06712562
7	0xbd94a66a	-0.072583035
8	0xbd47dfc5	-0.048797388
9	0xbd0992c6	-0.03358724
10	0xbb4ebee7	-0.0031546892
11	0xbb3da7c5	-0.002893911
12	0x3d458e4f	0.04823142
13	0xbe02358f	-0.12715743
14	0x3dbe630f	0.09296238
15	0xbb2b2cd8	-0.0026119258
16	0xbcea329a	-0.028588582
17	0x3bba2726	0.0056809364
18	0xbe920301	-0.28517917
19	0xbc066e92	-0.008205073
20	0xbc3013d2	-0.010746913
21	0x3bae0b71	0.0053114225
22	0xbdc2fb6e	-0.09520613
23	0x3cd25c82	0.025678877
24	0x3e03ac95	0.12858804
25	0xbb112a9e	-0.0022150646
26	0xbded4816	-0.11586015
27	0x3db5b6b5	0.08872739
28	0x3d3a78be	0.045525305
29	0xbcd0a29f	-0.025468169
30	0x3da32b0b	0.07967194
31	0x3dacdea2	0.08440901
32	0xbd90cc40	-0.070702076
33	0x3cc40a18	0.023930594
34	0x3d1fabf3	0.038982343
35	0x3dc1d4da	0.09464426
36	0xbce8de82	-0.028426412
37	0x3dd7765f	0.10520624
38	0x3de3b041	0.11117602
39	0x3d9df566	0.07712822
40	0x3d8de3a7	0.06928187
41	0x3d9427c2	0.07234146
42	0x3d89a1c5	0.06720308
43	0x3cc97747	0.024593009
44	0x3b77ca3a	0.0037809745
45	0xbd6c41ac	-0.057679817
46	0x3db3c6ca	0.087781504
47	0xbe96d287	-0.29457495
48	0x3cbd46ed	0.02310511
49	0xbccee36d	-0.02525493
50	0xbc616b87	-0.013758547
51	0x3d436be9	0.047710333
52	0x3d89ea40	0.06734133
53	0x3d931aaa	0.0718282
54	0x3d277bfa	0.040889718
55	0x3ced5afc	0.028974049
56	0x3de18141	0.11010981
57	0x3d28bdfa	0.0411968
58	0x3cff82c3	0.031190282
59	0xbeb31968	-0.3498032
60	0xbc929469	-0.017893033
61	0x3dc26f5a	0.09493895
62	0x3d824ec4	0.063626796
63	0x3d781720	0.06056893
64	0x3d05df59	0.032683704
65	0x3ce00077	0.027343972
66	0x3d766460	0.06015432
67	0x3cabef79	0.020988213
68	0xbcaa8a1f	-0.020817814
69	0x3d8550ae	0.06509529
70	0xbcdc19de	-0.026867803
71	0x3d1e1cda	0.038601734
72	0xbeaa6785	-0.33282104
73	0xbc10914a	-0.008823702
74	0x3d1dbff8	0.038513154
75	0xbda9c909	-0.082902975
76	0x3c180027	0.00927738
77	0x3b5bfbb2	0.003356677
78	0xbe920e8b	-0.2852672
79	0x3d7505eb	0.059820097
80	0x3d82fc81	0.063958175
81	0x3dac622b	0.084171616
82	0x3dae1bba	0.08501382
83	0xbd91b9ae	-0.07115494
84	0x3c190835	0.009340336
85	0x3e025af8	0.12730014
86	0x3ee216ff	0.4415817
87	0xbd02e1b7	-0.03195354
88	0x3dd8999f	0.10576176
89	0x3d716531	0.058934394
90	0x3e5529c4	0.20816714
91	0xbe104d91	-0.14092089
92	0x3deb73d1	0.114966996
93	0x3cbaee98	0.022818848
94	0xbe33183c	-0.17489713
95	0x3b685d32	0.003545594
96	0x3d364e45	0.044508237
97	0xbcb5a454	-0.022173084
98	0x3d419281	0.047258858
99	0x3d04ca9a	0.03241978
100	0x3d885606	0.06657033
101	0xbca51558	-0.020151779
102	0x3d98ea73	0.07466593
103	0x3d0162d3	0.031588387
104	0x3d4d7889	0.05016378
105	0xbead2020	-0.33813572
106	0x3da5cf83	0.0809622
107	0x3ca30bbd	0.019903058
108	0xbd8f953f	-0.07010888
109	0x3d03b28c	0.032152697
110	0x3d64b051	0.05583221
111	0xbd0a0f10	-0.03370577
112	0x3df61bb9	0.120170064
113	0x3d0d4821	0.034492616
114	0xbd1f6152	-0.03891117
115	0x391e0750	0.00015070778
116	0x3cd58d63	0.026068395
117	0xbb8f774b	-0.0043782345
118	0x3db197d9	0.08671541
119	0x3d344a32	0.04401607
120	0x3d97391b	0.07383939
121	0x3cc9863e	0.024600144
122	0x3ef4a13d	0.47779265
123	0x3d1b43a2	0.037906297
124	0xbe4a6149	-0.19763674
125	0x3db655bc	0.08903071
126	0x3df7219e	0.12066959
127	0x3e059a27	0.13047086
128	0xbd476c72	-0.048687406
129	0xbd80931c	-0.06278059
130	0x3b5deb85	0.0033862304
131	0x3d30f64b	0.043203633
132	0xbe595583	-0.21224026
133	0xbc43b2eb	-0.011944513
134	0x3bf5ca46	0.0075009195
135	0x3c47bfaa	0.012191692
136	0xba435e73	-0.00074527337
137	0x3e03f86d	0.12887736
138	0x3e386033	0.18005447
139	0x3d8f796c	0.07005581
140	0x3cab3b44	0.020902283
141	0x3e58a8a5	0.21158083
142	0x3e8e126f	0.2774844
143	0x3e8a0179	0.2695425
144	0x3cd97893	0.026546752
145	0x39d57e24	0.00040720508
146	0x3bad6f48	0.005292807
147	0x3c004624	0.007829223
148	0x3d46e3d9	0.048557136
149	0x3d00a95b	0.03141151
150	0x3e93ee75	0.28892866
151	0xbd7743ed	-0.060367513
152	0x3cdd719e	0.027031716
153	0x3d525c15	0.051357348
154	0xbdfe6169	-0.12420923
155	0xbc26e94d	-0.010187459
156	0x3674b43c	3.6463744e-06
157	0x3bb07cc6	0.005385968
158	0x3d453df4	0.048154786
159	0x3d4efc37	0.0505335
160	0x3dcc84ce	0.09986268
161	0x3d24fc97	0.04027995
162	0x3dae4843	0.085098766
163	0x3eaecd21	0.34140876
164	0x3d3bf64d	0.045889188
165	0x3dd1f3aa	0.10251553
166	0x3be9efa5	0.0071391636
167	0x3df2b2b5	0.11850492
168	0xbccded0c	-0.025137447
169	0x3cd65e7a	0.026168097
170	0xbe21243e	-0.15736482
171	0x3c7bfc71	0.015380011
172	0xbc2a6925	-0.010401045
173	0x3dbc23d3	0.091865204
174	0xbdc44323	-0.09583118
175	0x3cfa6404	0.03056527
176	0xbc9059d9	-0.017620968
177	0x3d447662	0.04796446
178	0x3c2d2e48	0.010570116
179	0x3c312a04	0.01081324
180	0xbcda2af1	-0.026631804
181	0x3e0d1320	0.13776827
182	0x3cd245bd	0.02566802
183	0x3da91d23	0.082575105
184	0x3d011088	0.031509906
185	0xbcf875be	-0.030329581
186	0x3dbfcd87	0.09365373
187	0xbb9972ba	-0.004682866
188	0x3c84bd09	0.01620342
189	0x3dce61e1	0.10077263
190	0x3d033ec8	0.032042295
191	0xbc46c59f	-0.0121320775
192	0x3ca225b8	0.019793376
193	0x3ca8d9dc	0.020611696
194	0xbc8a9fa5	-0.016921828
195	0x3d456e85	0.048201103
196	0xba1739be	-0.0005768797
197	0xbd12e78c	-0.03586535
198	0x3e26f6d3	0.16305093
199	0x3ddd203b	0.10797163
200	0x3d90f23e	0.07077454
201	0x3cf601d3	0.030030167
202	0x3ecb5ebd	0.39720717
203	0xbe247fe7	-0.16064416
204	0x3ca675ba	0.020319808
205	0x3e16ad87	0.14714633
206	0x3c54abdb	0.012980427
207	0xbd4abfed	-0.04949944
208	0xbd8e73f3	-0.06955709
209	0x3d5faf86	0.05461075
210	0x3cd2bd67	0.02572508
211	0x3b9060d0	0.004406072
212	0xbcf46803	-0.029834753
213	0x3eb2cc21	0.34921363
214	0x3de783bf	0.113044254
215	0x3c2512e4	0.010075305
216	0x3cf699bc	0.030102603
217	0xbba70536	-0.0050970567
218	0xbdcdfd32	-0.10058059
219	0x3def603f	0.11688279
220	0x3bb36793	0.0054749935
221	0xbd890eed	-0.066923
222	0x3d6ab6c6	0.057303213
223	0x3c7daabe	0.015482603
224	0x3d551038	0.05201742
225	0x3daf5c0a	0.08562477
226	0x3d0ef8c3	0.034905206
227	0xbc52b931	-0.012861536
228	0xbb4541cf	-0.003009904
229	0xbcb4acf8	-0.022055134
230	0xbc84fabc	-0.01623284
231	0x3eca6c64	0.3953582
232	0xbad9bfa1	-0.0016612896
233	0x3c850b90	0.016240865
234	0x3d85c799	0.06532211
235	0xbcc3ddb4	-0.023909427
236	0xbc4a2092	-0.012336867
237	0x3d85dc2d	0.06536136
238	0x3d8880af	0.066651694
239	0x3c21ee9e	0.009883551
240	0x3bb36463	0.0054746135
241	0x3c910772	0.017703746
242	0x3bd4a0fd	0.006488918
243	0x3d9349d7	0.07191818
244	0x3c2d47e6	0.010576224
245	0x3d314053	0.043274235
246	0xbd9cd7f0	-0.07658374
247	0x3c86fa43	0.016476756
248	0x3b7385ed	0.0037158683
249	0x3c2b6d04	0.010463003
250	0x3d6d8936	0.057992183
251	0x3d8214b4	0.06351605
252	0xbdbcf13c	-0.09225699
253	0x3d33f61b	0.043935876
254	0xbcab813c	-0.020935647
255	0xbc9d13c6	-0.019174468

layer2.bias f4 [256]
0	0xbb72837c	-0.003700464
1	0x3cb94e4b	0.02262034
2	0xbd9e4a83	-0.07729056
3	0x3e3b169b	0.18270342
4	0x3cc1ffb8	0.023681507
5	0x3d201a45	0.039087553
6	0xbd2db52f	-0.04240912
7	0xbd1a2383	-0.037631523
8	0xbcd66716	-0.026172202
9	0xbb88c51d	-0.0041738884
10	0x3d292c58	0.041302055
11	0x3d5b5d00	0.05355549
12	0xbc01cb1c	-0.00792196
13	0xbd5a0812	-0.053230353
14	0x3ccd13b5	0.025033811
15	0x3d4ad142	0.04951597
16	0xbd1f929c	-0.038958177
17	0x3d46a81d	0.04850017
18	0x3c973450	0.018457562
19	0xbc8b0bde	-0.016973432
20	0x3d1c8cb7	0.038220134
21	0xbd2428f4	-0.04007812
22	0xbd8aa25b	-0.06769248
23	0xbd22243d	-0.03958534
24	0xbcc7a14e	-0.024368908
25	0xbcd9714a	-0.026543278
26	0x3b8158d4	0.0039473567
27	0xbcb8ebea	-0.02257343
28	0xbd5ca439	-0.053867552
29	0xbd0dede6	-0.034650706
30	0xbbb0eb88	-0.0053991713
31	0x3ccdb534	0.025110818
32	0x3de81013	0.11331191
33	0x3cb94c11	0.02261928
34	0xbd11b6c6	-0.035574697
35	0x3ca0fa03	0.019650465
36	0xbcb1a758	-0.021686241
37	0xbc91551e	-0.017740782
38	0x3d1b1004	0.03785707
39	0xbc3a21a2	-0.011360558
40	0xbcf8ce45	-0.030371794
41	0x3cb9c169	0.022675233
42	0x3d5ecb52	0.05439312
43	0x3c59ea63	0.013300511
44	0x3c35887a	0.011079902
45	0x3db65c1b	0.089042865
46	0x3cbae58b	0.022814533
47	0x3cf4d1b7	0.029885156
48	0xbccf46b2	-0.025302265
49	0xbd370800	-0.044685364
50	0x3cd686f9	0.026187407
51	0x3b7250d5	0.003697445
52	0xbcfc1706	-0.030772697
53	0xbbcecff9	-0.0063114134
54	0x3c1013d0	0.008793786
55	0xbd20f9bf	-0.039300676
56	0x3e2bc566	0.1677452
57	0x3c504aae	0.0127131175
58	0xbe06770b	-0.13131349
59	0xbd949a22	-0.07255961
60	0x3c39cdb2	0.0113405455
61	0x3bf0e44e	0.007351435
62	0xbb957b06	-0.0045617847
63	0xbcb1596a	-0.021649081
64	0x3c68423c	0.014175948
65	0x3d90a31c	0.07062361
66	0xb9c10c62	-0.00036821055
67	0x3cbd5c36	0.023115259
68	0xbc75d055	-0.0150032835
69	0x3d627c98	0.055294603
70	0x3c99f5ff	0.018794058
71	0x3caada5e	0.020856079
72	0x3dbde098	0.092713535
73	0x3cce95ee	0.025217976
74	0xbcce0bc7	-0.0251521
75	0x3d64ca97	0.055857267
76	0xbc4052f3	-0.011738527
77	0xbd0c4ae3	-0.034251105
78	0xbd6c9608	-0.05776027
79	0x3dafd591	0.085856564
80	0x3cc54d92	0.02408484
81	0xbcd6f5e3	-0.026240295
82	0x3dc35e92	0.09539522
83	0x3dc96f9c	0.09835741
84	0x3d367a05	0.04454996
85	0x3d409e01	0.047025684
86	0xbc75367c	-0.014966603
87	0x3e21e09f	0.15808342
88	0xbbc6bbaf	-0.006064854
89	0x3d1d9ca1	0.03847945
90	0xbbfd3520	-0.0077272803
91	0xbd465771	-0.048423234
92	0xbd3f95c3	-0.046773683
93	0x3df24150	0.118288636
94	0x3b9fae69	0.004873086
95	0xbdc3acd2	-0.09554447
96	0x3e42ccc8	0.1902343
97	0x3d2766e3	0.040869605
98	0x3da2e2ed	0.07953439
99	0x3bb79100	0.005602002
100	0xbcefb163	-0.02925939
101	0x3e139280	0.14411354
102	0x3cec6b9e	0.02885991
103	0xbd3c5680	-0.04598093
104	0xbc7cf710	-0.015439764
105	0x3d04208f	0.032257613
106	0x3d6d18fb	0.05788515
107	0x3d2384fa	0.03992174
108	0xbc6ba63a	-0.014382893
109	0x3d51731c	0.051135167
110	0x3e2ed45d	0.17073198
111	0xbcd42e62	-0.025901023
112	0x3d848020	0.064697504
113	0xbd44b259	-0.048021648
114	0x3c61941f	0.013768225
115	0xbd0cfa45	-0.034418363
116	0xbcbfe457	-0.02342431
117	0xbc4474d3	-0.011990744
118	0x3d0ca81a	0.03434
119	0xbc196db8	-0.009364538
120	0xbdbdb753	-0.09263482
121	0xbd1a944e	-0.03773909
122	0x3d678e46	0.056532167
123	0xbce7fc64	-0.028318591
124	0x3bfed87f	0.007777273
125	0x3d9a3c6c	0.07531056
126	0x3dd21b12	0.102590695
127	0xbca7afb7	-0.02046953
128	0xbb86d5a8	-0.0041148253
129	0x3d334eaa	0.04377619
130	0xbc965d12	-0.018354926
131	0xbc6b0ec4	-0.014346782
132	0x3d9d387d	0.0767679
133	0x3bbc7b63	0.0057520135
134	0x3d4d2ab8	0.050089568
135	0x3cbbf21a	0.022942591
136	0x3c8203ec	0.01587101
137	0x3c47b09b	0.012188102
138	0xbc9faf1e	-0.019492682
139	0xbd263f9c	-0.040588006
140	0xbcf3e281	-0.029771091
141	0x3d0bbbd5	0.034114677
142	0x3b52b769	0.0032152778
143	0xbcc7a9b9	-0.024372922
144	0xbce691b7	-0.028145654
145	0x3d886563	0.06659963
146	0xbd2e2cb7	-0.042523112
147	0x3d387e7f	0.04504251
148	0xbd5935ab	-0.053029697
149	0x3d196bf2	0.03745646
150	0x3ce76079	0.028244244
151	0xbce384a9	-0.027773218
152	0x3d455d23	0.048184525
153	0x3bcf18e3	0.0063201054
154	0x3b4106bd	0.002945348
155	0x3be32963	0.006932424
156	0xbd316fe0	-0.043319583
157	0xbc83b2c4	-0.016076453
158	0x3d26c411	0.040714327
159	0x3d1dcaf5	0.038523633
160	0xbc71f3b7	-0.014767579
161	0x3c7286ee	0.014802678
162	0x3acea0de	0.0015764495
163	0xbb9767c6	-0.004620525
164	0x3d0375b7	0.032094683
165	0x3d73b4d6	0.05949863
166	0x3cd0c117	0.025482697
167	0xbcd6eac6	-0.026234996
168	0x3cb60ac3	0.022221928
169	0xbd8599ba	-0.06523462
170	0xbcaa29a3	-0.020771807
171	0x3cd383a6	0.02581961
172	0xbc83443c	-0.016023748
173	0x3d797aae	0.060908012
174	0x3c8d2c84	0.01723314
175	0xbd12a91e	-0.035805814
176	0xbc75d162	-0.015003534
177	0x3d014ee8	0.03156939
178	0xbc185af7	-0.009299031
179	0x3e1b2524	0.15150887
180	0x3cf00ee8	0.029303983
181	0x3d15a3bf	0.036533114
182	0x3d812b56	0.06307094
183	0x3d96e10b	0.07367142
184	0x3aaa83b7	0.0013009225
185	0x3d801f2d	0.06255946
186	0x3d7cf1ef	0.061754163
187	0x3d54d8e6	0.051964663
188	0x3d2d3bf7	0.042293515
189	0xbd356848	-0.044288903
190	0x3c940242	0.018067483
191	0xbd3444e0	-0.044010997
192	0x3cf2597e	0.029583689
193	0xbc49105b	-0.012271966
194	0x3c951112	0.018196616
195	0x3dcffc00	0.10155487
196	0x3d6273fd	0.055286396
197	0x3c837e6e	0.016051497
198	0x3dbe644d	0.092964746
199	0xbdc5e4c2	-0.09662773
200	0xbd9698d1	-0.07353366
201	0xbcbda6bf	-0.0231508
202	0xbd281c5f	-0.04104268
203	0x3da47ce1	0.08031631
204	0x3c292bd9	0.0103253955
205	0x3ca00670	0.01953432
206	0x3d2bc0ce	0.04193192
207	0xbb621893	-0.003449951
208	0xbd061293	-0.032732558
209	0x3ad1515f	0.0015969685
210	0x3dd79af8	0.10527605
211	0xbc6c7957	-0.014433227
212	0xbd81c7a1	-0.06336904
213	0x3d112a2f	0.03544062
214	0xbc345b49	-0.011008092
215	0x3c8e53f5	0.017374018
216	0x3e25f588	0.16206944
217	0x3b854a44	0.004067691
218	0x3c78c4f7	0.015183679
219	0xbcc91ea1	-0.024550738
220	0x3d00074c	0.03125696
221	0xbd0402f5	-0.032229383
222	0xbd06d8db	-0.032921653
223	0x3d3fcd75	0.0468268
224	0xbb618258	-0.0034409966
225	0xbd0a47a5	-0.03375973
226	0xbd1b9682	-0.037985332
227	0x3d9bfb61	0.07616306
228	0x3ce7fc54	0.028318562
229	0xbb825a4e	-0.0039780503
230	0x3d1860e9	0.037201796
231	0xbc9afc06	-0.018919002
232	0x3d595aa4	0.053064957
233	0x3e48818b	0.19580667
234	0x3d54ad34	0.051922992
235	0xbc0b953f	-0.00851947
236	0xbab794fe	-0.0014006195
237	0x3be37e30	0.006942533
238	0xbd2c8c4f	-0.042125996
239	0x3cea224a	0.028580803
240	0x3c3f6351	0.011681394
241	0x3ce7e4dc	0.02830737
242	0x3d21c835	0.039497573
243	0xbc8ecb48	-0.017430916
244	0xbce8c08b	-0.028412124
245	0xbc86e37d	-0.016465897
246	0x3d013a8a	0.031549968
247	0x3d5b8fbb	0.05360387
248	0xbc822c7c	-0.015890352
249	0xbc162245	-0.009163444
250	0xbcf89ac1	-0.03034723
251	0x3ca47c18	0.020078704
252	0xbd4ad3cf	-0.049518403
253	0xbd66cfcb	-0.05635051
254	0x3db7904d	0.0896307
255	0x3c494897	0.012285373

layer3.weight f4 [30, 256]
0	0x3d69ad26	0.057049893
1	0x3dc10922	0.0942557
2	0x3d324b03	0.043528568
3	0xbe120435	-0.14259417
4	0xbc81cc8c	-0.015844606
5	0x3c9fc4a6	0.019502949
6	0xbd130290	-0.035891116
7	0x3cde0922	0.027103964
8	0x3c3b5c7f	0.011435627
9	0x3db07e69	0.08617861
10	0x3e3f2630	0.18666911
11	0x3d179e2c	0.03701608
12	0xbcd36a54	-0.025807537
13	0xbc71ed43	-0.01476604
14	0xbe1d8c0c	-0.15385455
15	0x3e0cfbbc	0.13767904
16	0xbbfe11c0	-0.007753581
17	0x39199e6c	0.00014650234
18	0x3d0535c2	0.03252197
19	0x3e0a4e27	0.13506375
20	0xbd1ae331	-0.037814323
21	0x3e4ae466	0.1981369
22	0x3c6dd079	0.014515036
23	0xbcb9811d	-0.022644574
24	0xbddedbba	-0.10881753
25	0xbd588ad1	-0.05286676
26	0x3c5afce2	0.013365956
27	0x3d2aeb59	0.04172835
28	0xbd324d1a	-0.04353056
29	0x3db5adbb	0.08871027
30	0xbd98062b	-0.074230514
31	0xbe023698	-0.12716138
32	0xbe0d1c6e	-0.13780376
33	0x3dda87cc	0.106704324
34	0xbc80fd18	-0.015745685
35	0x3d1bd61e	0.038045995
36	0xbcc09088	-0.023506418
37	0x3d35fbce	0.044429593
38	0xbc09b4d4	-0.008404929
39	0x3e016b86	0.12638673
40	0xbddc08de	-0.10743879
41	0xbd52ce59	-0.05146632
42	0xbd51b94b	-0.0512021
43	0x3e12c3d5	0.14332516
44	0x3d12a40b	0.035800975
45	0xbe1b482b	-0.15164249
46	0x3aa5a703	0.0012638274
47	0xbd8c024c	-0.068363756
48	0xbc006e5b	-0.007838811
49	0x3ce04d43	0.027380591
50	0x3d23b8c6	0.039971136
51	0x3d75c488	0.06000188
52	0xbd59f15f	-0.053208705
53	0xbe0addc2	-0.13561156
54	0xbe034e5f	-0.12822865
55	0x3c34b3db	0.011029209
56	0xbdd188b4	-0.10231152
57	0xbc00e91c	-0.007868078
58	0xbdc445c1	-0.09583617
59	0x3d99c310	0.07507908
60	0x3dd551d8	0.10416001
61	0xbb8e565e	-0.004343792
62	0x3d604c7b	0.054760437
63	0x3d9e1810	0.07719433
64	0xbccf1073	-0.025276398
65	0xbc2cf678	-0.01055681
66	0x3e2ebb65	0.17063673
67	0x3dba2861	0.09089733
68	0x3cf543f3	0.029939627
69	0xbdffdf9d	-0.12493823
70	0x3d515cb5	0.051113803
71	0xbd9357eb	-0.071945034
72	0xbd246bc3	-0.040141832
73	0xbcae9eaa	-0.021315891
74	0xbd38db62	-0.045131095
75	0xbdc3fade	-0.095693335
76	0x3d4fb1e8	0.050706774
77	0x3e1fd0d0	0.15607
78	0x3da3eda2	0.08004309
79	0xbde79d37	-0.11309283
80	0x3dc35918	0.09538478
81	0xbd9da98f	-0.07698356
82	0xbdc53291	-0.096287854
83	0xbdda7dcb	-0.10668524
84	0xbd77a1a4	-0.060456887
85	0x3cfbe97d	0.030750984
86	0x3e0c0e2b	0.1367728
87	0xbe3c7514	-0.18404037
88	0xbde251d2	-0.11050762
89	0xbcd9799c	-0.026547246
90	0x3d3f3343	0.046679746
91	0x3d4f270e	0.050574355
92	0x3def4c46	0.1168447
93	0xbe0faa23	-0.14029746
94	0x3d20d3dd	0.03926455
95	0xbe061f4e	-0.1309788
96	0xbe27de27	-0.16393338
97	0xbd0bcad7	-0.03412899
98	0xbdcdccc7	-0.10048824
99	0x3dfa8bf2	0.12233724
100	0x3d60bbb3	0.054866504
101	0xbdf621dd	-0.12018178
102	0x3c1b2af7	0.009470693
103	0x3ccf3834	0.025295354
104	0x3e24969b	0.16073076
105	0x3d515801	0.051109318
106	0xbdee3614	-0.11631408
107	0xbdb1a16f	-0.08673369
108	0xbd967b30	-0.07347715
109	0xbcdf47b3	-0.027255869
110	0xbe3b49c7	-0.18289863
111	0x3e027c26	0.12742671
112	0xbe0194b7	-0.12654386
113	0xbc94800e	-0.018127467
114	0xbd496a29	-0.049173508
115	0x3d8224d5	0.063546814
116	0x3dbe815d	0.09302018
117	0x3deb5617	0.1149103
118	0xbdc3560b	-0.09537896
119	0x3d06db91	0.03292424
120	0x3ca6fd71	0.020384522
121	0xbc9a9b55	-0.018872896
122	0xbd382932	-0.044961162
123	0xbd4e6f42	-0.050399072
124	0x3df17fc1	0.11791945
125	0xbcd76f31	-0.026298137
126	0xbccf1d8b	-0.025282642
127	0x3dd42154	0.10357919
128	0xbd6b4942	-0.05744291
129	0xbdc466c8	-0.095899165
130	0x3da730d5	0.08163611
131	0x3dc2b235	0.095066465
132	0xbe1dff25	-0.15429361
133	0x3ddd4258	0.1080367
134	0xbd93bfdc	-0.07214329
135	0xbd94e521	-0.07270265
136	0x3d6d2dd8	0.057905048
137	0xbd8fcc85	-0.07021431
138	0xbca8a2a1	-0.02058536
139	0x3e37daa7	0.17954503
140	0xbdb12410	-0.086494565
141	0xbcf4db1e	-0.02988964
142	0x3cb386f0	0.02191493
143	0xbd5f15c4	-0.054464117
144	0xbddbeea0	-0.107388735
145	0xbc214a11	-0.009844319
146	0xbd76643c	-0.060154185
147	0xbd1595ad	-0.036519695
148	0x3e059f2c	0.13049
149	0xbd3a7217	-0.04551896
150	0xbdd6dc48	-0.10491234
151	0x3e1fef3e	0.15618607
152	0xbc7facfd	-0.015605208
153	0x3d7c5841	0.061607603
154	0xbdacc816	-0.08436601
155	0x3d3700d2	0.044678517
156	0xbd62f792	-0.055411883
157	0x3d55c4d6	0.05218967
158	0xbdf15fd2	-0.117858544
159	0xbdbee9a0	-0.09321904
160	0x3cc09fc6	0.023513686
161	0x3dc95029	0.098297425
162	0xbd8cb179	-0.06869788
163	0x3c869f61	0.01643342
164	0xbdb4a29a	-0.08820076
165	0xbdbe476c	-0.092909664
166	0xbbfc2607	-0.007694963
167	0x3d1ddb5c	0.038539276
168	0x3dc37b83	0.09545042
169	0x3e4d4a45	0.20047863
170	0xbd24b39a	-0.040210344
171	0x3b56a909	0.0032754561
172	0xbd1d6457	-0.03842577
173	0xbe1139dc	-0.14182228
174	0x3d573e46	0.052549623
175	0x3d0ba079	0.034088586
176	0xbd769649	-0.060201917
177	0x3dd9bdba	0.106318906
178	0x3d819c7c	0.06328675
179	0xbe22a08d	-0.15881558
180	0xbcb9c35e	-0.022676166
181	0x3e0a9382	0.13532832
182	0xbe5eb99c	-0.21750492
183	0xbddcfc97	-0.10790365
184	0x3cbad7cd	0.02280798
185	0xbd6dac0d	-0.05802541
186	0x3e05248a	0.1300222
187	0xbdd277ba	-0.10276742
188	0xbd362a96	-0.044474207
189	0x3b91e670	0.004452519
190	0x3c95df59	0.018294977
191	0xbd7a7040	-0.061142206
192	0x3e19c8ee	0.15018055
193	0x3da7a634	0.081859976
194	0xbc2b16e3	-0.010442468
195	0xbde13992	-0.10997309
196	0xbdfd8dd9	-0.12380571
197	0xbda36f64	-0.079802305
198	0xbe642bb5	-0.22282298
199	0x3cabad9a	0.020956803
200	0x3d34b08c	0.04411368
201	0x3d41fc37	0.04735967
202	0x3c0be188	0.008537658
203	0xbde1bda3	-0.110224985
204	0xbdc9bd5e	-0.09850572
205	0xbe2b4e6f	-0.16729139
206	0xbd1829e2	-0.037149318
207	0xbc5be276	-0.013420692
208	0x3d8eca9f	0.06972241
209	0xbd58a241	-0.052889112
210	0xbe0ba9cf	-0.13638996
211	0xbdab794d	-0.08372746
212	0xbe227de0	-0.1586833
213	0x3cca04c0	0.024660468
214	0x3da07962	0.07835652
215	0xbc7df906	-0.015501266
216	0xbe2aef84	-0.1669293
217	0x3db9dac1	0.09074927
218	0x3df64613	0.12025084
219	0x3d0d4e7e	0.034498684
220	0x3d45e803	0.048316967
221	0xbb82c3f0	-0.0039906427
222	0xbda0b7c4	-0.078475505
223	0x3de2a1e0	0.110660315
224	0xbd19c865	-0.037544627
225	0xbd1bf186	-0.03807213
226	0xbcbc4670	-0.022982806
227	0xbd2bbc52	-0.041927643
228	0xbd585ddd	-0.05282389
229	0x3d0db3d3	0.034595322
230	0x3d610e20	0.05494511
231	0x3d3349bf	0.0437715
232	0xbd14f5a8	-0.03636709
233	0xbe147ec9	-0.1450149
234	0x3dd35888	0.1031962
235	0xbd022156	-0.031770073
236	0xbb8356c0	-0.004008144
237	0x3e094db2	0.13408545
238	0x3d5789dc	0.052621707
239	0xbde1b88f	-0.1102153
240	0x3e02fec7	0.12792502
241	0xbdb09cd2	-0.08623661
242	0xbdb0cc57	-0.08632725
243	0x3d815e6c	0.06316838
244	0x3dde90ce	0.10867463
245	0x3dc81155	0.09768931
246	0xbb5e2522	-0.0033896645
247	0x3e123b91	0.14280535
248	0x3e905107	0.2818682
249	0xbd6793f8	-0.0565376
250	0x3cd6eeb0	0.026236862
251	0x3d7f72f7	0.0623655
252	0x3e288221	0.1645589
253	0xbe2c104e	-0.16803095
254	0xbcda4e1d	-0.026648575
255	0xbc13ab3b	-0.0090129925

layer3.bias f4 [30]
0	0x3c97b80e	0.018520381
1	0x3c89f317	0.016839547
2	0x3d1c083b	0.038093787
3	0xbbadfe1e	-0.005309834
4	0xbca5e89f	-0.020252524
5	0xbbc69f67	-0.0060614827
6	0xbcce545e	-0.025186714
7	0xbd28c047	-0.041198995
8	0x3c6a0736	0.014283946
9	0xbd1cef8f	-0.0383144
10	0xbc11ba91	-0.008894579
11	0x3d49463d	0.04913925
12	0x3cc73bfd	0.024320597
13	0x3d0878e7	0.033318426
14	0x3bc7cd56	0.006097476
15	0x3ce83b45	0.028348574
16	0xbc8236cf	-0.015895275
17	0x3d768927	0.060189392
18	0x3c9ba35c	0.018998794
19	0x3b037fc5	0.002006517
20	0x3ae061ac	0.0017118952
21	0xbcf5096d	-0.029911721
22	0x3cc9658b	0.024584552
23	0xbbfa3b3c	-0.007636456
24	0x3d0047ff	0.03131866
25	0xbbd90aee	-0.0066236174
26	0x3c47a883	0.012186172
27	0x3c9a2bdf	0.018819747
28	0x3c233a0c	0.00996257
29	0x3c30b33d	0.010784921
