project/output/models/Model_target_Doubles-v1.0.0.pth (torch, 938000 bytes, 6 tensors)

layer1.weight f4 [512, 184]
00000000: ec1d e13d c943 d13d d709 463c 80fe f73b
00000010: 2015 263d c0c2 d43a 5e1a 53bd 898a c4bd
00000020: 51a3 5ebd 5eb7 e43d 9876 05bd a5a9 99bd
00000030: 5ac8 b7bd 9430 303d 1cb2 2f3d 44a0 413d
00000040: 70c3 ce3b 2ffb 833d 8087 cfbc eae6 943d
00000050: f6a7 c13c ac93 733d af7f 56bd 9db9 a1bd
00000060: 9642 083d 9be4 84bd e03a 053c 48b8 3b3d
00000070: 3ad2 9dbc ee85 8ebd 56de 933d 7635 88bd
00000080: 2080 c9bb c0d0 d13a ce0e 443d 14dd 603d
00000090: a0f9 ccbb d0ba 26bd dd25 67bb a6f3 ebbc
000000a0: 503a 683d 28d9 933c 2298 093c ac18 c83c
000000b0: 2c72 58bd 1ac2 053d bdf9 0abd 4029 9c3c
000000c0: 4003 6f3b 3e41 473d 9bee 97bd f5e9 133d
000000d0: 5fca 02bd af8c cbbd dc00 88bd 988c 453d
000000e0: ccbe 6b3d 2ca7 0d3d 5023 bbbb cdfe 713d
000000f0: 2cea 46bc 6f3e bebb 24e5 f2bc b051 023c
00000100: b035 9f3c fa0b 5abc a6fc 39bd 4039 a9bd
00000110: 40df 773d f445 9d3c 706a f13c 3cc9 9f3c
00000120: 127d c6bc 0bc4 c6bd 4673 4f3d b898 6fbd
00000130: d02b e2bb 6e16 6abd b426 8a3c 98bf f93b
00000140: 401b 503c a429 193d 2ba0 a53d 719d 85bd
00000150: 8a25 24bd 636c 25bd a3ca 613d 4434 803d
00000160: dcfd 3ebd 4600 73bd 19a8 d7bc f8c1 f2bd
00000170: 6453 7dbc 5952 29bd b441 a13c 9482 6b3d
00000180: d01d 2bbc fafc 30bd 2859 b1bc 6a21 62bd
00000190: 7c97 86bd 7af3 2bbd 4098 8cba e4dc 40bd
000001a0: c8f3 bb3c 2c5f a63c ec02 933c 20e9 b3bb
000001b0: 0c3c 8ebd 7cec 3d3d 4a97 143d d4c1 eb3c
000001c0: 64af fb3c 143f 563d 54c6 75bd 1e31 d0bc
000001d0: d01e 303c f683 60bd de22 313d c4d2 443d
000001e0: 6c8d 42bd e880 223d 6611 923d 0cbd 9a3c
000001f0: 7390 2ebd 7830 89bc f477 fb3c 20d4 603d
00000200: abbe 6f3d 6a14 53bd 0b35 86bd 4c2b a83c
00000210: 0045 463b 04f3 863d dade 64bd dc4e 933c
00000220: df07 92bd 24d0 6d3d 700c 813b 562b 60bd
00000230: 20f4 533c 009a b13c b0f7 5c3d 40c9 fc3a
00000240: 0071 d63b f488 9c3c 2a87 183d a010 e43c
00000250: e841 35bc 3055 83bc 7235 4a3d 005c a33c
00000260: 9c0d 823c 00c6 623b 009d 823d fb92 67bd
00000270: ec44 673d 1a09 5fbd e474 ab3c e899 8f3c
00000280: 0016 21bc 2047 3b3b f6e3 83bd 6083 3f3c
00000290: 280b 953d 3dac 83bc d096 8ebd 369e 00bd
000002a0: dbf7 7bbd 8679 323d 5c38 0b3d 56a6 8d3d
000002b0: 40e7 7d3d 1ea2 03bd 2e6e 0d3d 4070 b9ba
000002c0: 6023 e83c c0d0 d8bb 5046 003d 08fd e1bc
000002d0: 442e 883c 7c3a 8d3c 8ea5 093d c4e8 85bd
000002e0: 513f 263c 4a98 44be f5e3 50bd e056 0abb
000002f0: f4e6 693d b879 193c 65c8 a7bd f639 b9bd
00000300: 5f03 aebd 3cfc 6d3c 0a20 923d a2dc 83bd
00000310: 389c 10bd b095 e93b a059 1ebd 181d 8b3d
00000320: a04d 853d 9a9e 5cbd 9480 8bbc d090 5b3d
00000330: 1d5e 7b3d 1c70 96bd 5e0c 8bbd 1784 be3c
00000340: 7094 e8bb e869 36bd 6230 01bd f4dc 763d
00000350: 687d 543d be4a 0f3b 5c12 693d eab4 4e3d
00000360: 3c28 3f3d 5eac b1bc 7479 3d3d 2d6d f53c
00000370: fa56 853d bcda 5cbd fb76 c43b 2414 183d
00000380: bc21 85bd c9c6 15bd 1625 0b3d ccc4 0d3d
00000390: 8480 58bd cb12 6fbd 7d41 a13c 52fc 833d
000003a0: ae65 1bbd ae2d 56bd 4187 99bc a047 ea3c
000003b0: 456e 823d c45e c6bd 2212 3a3d c08f a33c
000003c0: 4a1f 3a3d 10fa 943d 0012 32b9 100c 273d
000003d0: 26db 8ebc 4de3 163d 93f9 17bd 1b1f 79bd
000003e0: 809b 063d 024c 88bc 8cf7 b93a 182e 573d
000003f0: c535 91bd a04c dabb 682c 163c 6482 cb3c
0.10992035 0.10218007 0.012087307 0.0075681806 0.04054749 0.0016232356 -0.051538818 -0.09596736
-0.05435497 0.11167787 -0.032583803 -0.0750306 -0.08973761 0.043015078 0.042894468 0.04727198
0.006309919 0.06444394 -0.025333166 0.07270606 0.02363966 0.059467003 -0.052367862 -0.07896731
0.033266626 -0.064889155 0.008131713 0.04583004 -0.019265283 -0.06959139 0.072201416 -0.06650822
-0.006149307 0.0016007647 0.04786568 0.054898337 -0.0062553436 -0.040705502 -0.003527037 -0.028802704
0.056696236 0.018047884 0.008398088 0.024425827 -0.052843258 0.032655813 -0.033929575 0.019062638
0.0036470443 0.048646204 -0.07418557 0.03611179 -0.031931277 -0.09938943 -0.06640789 0.048229784
0.057555005 0.034583256 -0.0057109967 0.059080888 -0.012140792 -0.0058057825 -0.029650278 0.007954046
0.01943478 -0.0133085195 -0.04540696 -0.08262873 0.060515642 0.019198395 0.029469699 0.019505136
-0.02422956 -0.09705361 0.050647043 -0.058495253 -0.0069021955 -0.057150297 0.016864158 0.0076217167
0.012701809 0.037393227 0.0808719 -0.0652417 -0.040074863 -0.04038657 0.05512489 0.06259969
-0.046628818 -0.059326433 -0.026325272 -0.11853403 -0.015461776 -0.0413383 0.01968465 0.057497576
-0.01044412 -0.043210007 -0.021648958 -0.055207647 -0.06571862 -0.041980244 -0.0010726526 -0.047085658
0.022943392 0.020309053 0.01794573 -0.005490437 -0.06945047 0.046368107 0.036277093 0.028778948
0.030723281 0.05230625 -0.060003594 -0.025414046 0.010749534 -0.054813348 0.043246143 0.048052564
-0.04749815 0.039673716 0.07132225 0.018888973 -0.042618226 -0.016746745 0.030696847 0.0548898
0.058531445 -0.05153314 -0.06553086 0.020528458 0.003025353 0.0658932 -0.05587659 0.017981939
-0.071304075 0.058059826 0.0039382502 -0.05472883 0.012936622 0.021679878 0.05394715 0.0019286051
0.0065442324 0.019108273 0.037238277 0.027839959 -0.011063077 -0.016031832 0.049367376 0.01994133
0.01587563 0.003460288 0.063776016 -0.056536656 0.056462213 -0.05445204 0.020929761 0.017529443
-0.009831905 0.002857633 -0.064399645 0.011689037 0.072775185 -0.01607334 -0.06962359 -0.03140088
-0.06151567 0.043572925 0.033989295 0.06916492 0.061988115 -0.03213703 0.034528904 -0.0014147833
0.02833718 -0.006616682 0.031317055 -0.027586475 0.016623624 0.017239802 0.03360515 -0.06538537
0.010146932 -0.19198719 -0.050998647 -0.002110891 0.05710502 0.009367399 -0.08192519 -0.09044258
-0.08496737 0.014525469 0.07135017 -0.06438567 -0.03530523 0.00712844 -0.03865969 0.067926586
0.065089464 -0.05386219 -0.017029084 0.0536049 0.06136905 -0.07345602 -0.06789468 0.023256345
-0.0070977733 -0.044534594 -0.031540282 0.06026931 0.05187741 0.0021864618 0.056902274 0.0504655
0.04666923 -0.021688636 0.046258405 0.029959286 0.0651073 -0.05391954 0.005995629 0.037128583
-0.06500575 -0.03656653 0.033970915 0.03461151 -0.052856937 -0.05836753 0.019684548 0.06444611
-0.037938766 -0.052289657 -0.018741252 0.028598607 0.063686885 -0.09686044 0.04542745 0.019966006
0.045439996 0.07274258 -0.00016982108 0.040782988 -0.017438482 0.036837865 -0.037103247 -0.06082068
0.03286314 -0.016637806 0.0014188155 0.052534193 -0.07090334 -0.0066619664 0.009165861 0.024842449

layer1.bias f4 [512]
00000000: 6577 74bd 8e6a 863d baf8 333d 197f 4bbd
00000010: 022b 44bd b81f 69bd 2b8b 50bd 62ef 34bc
00000020: 3ca2 a63d 508b 693d 121b 033e 0d03 003d
00000030: fe59 e63d a373 dd3d 2a70 89bc eade d63d
00000040: d3ef 733d 9bd4 0ebc 308f 643d fa54 193c
00000050: ab88 073e 8510 ff3c 0c64 963d 3af3 043e
00000060: 5eb9 9b3b 3e93 d8ba aae3 c83d 3970 353c
00000070: eb4b 12bd 1df5 643c 03f0 99ba 9d0c 633d
00000080: 1171 51bd f074 1cbd 76c5 1f3d 5c77 7bbc
00000090: b1de e1bc 66d7 21bd fa86 5fbc c175 13bd
000000a0: b76c d13c 20dd 373d 7cad 043c 887b 1dbd
000000b0: dbab 94bb 2f11 f43d 2dc5 9a3d 66a1 d13d
000000c0: 08e7 f7bc 5671 cb3d 4824 f73c a4d4 e7bc
000000d0: 6fb6 25bd f192 383c cd76 5b3c c385 a13d
000000e0: 4233 c5bc 0d73 66bd 5b0d 573d c23f cf3d
000000f0: d3ab 413c 8045 86bc 7042 e53d 6c83 cfbc
00000100: d059 043e 56ad 0d3e 6778 533d 4c75 c7bc
00000110: 8407 ef3c 7074 aabc 784e 593d 16e7 cdbc
00000120: abcd f13d 9fc6 c83d 0a80 19bd 8c3a b83d
00000130: f955 5cbd dc14 fa3d 9e47 8e3d 8c7f e1bc
00000140: 7ba0 d53c 3b91 92bc 9933 91bd b5e8 de3d
00000150: 5881 0c3d 1332 d6bc bd8b bb3d a4f0 8d3b
00000160: a9ce 42bd 0b2e b33c 41f3 28bc cd82 e63d
00000170: 22a9 c6bc ad58 663c 9137 693d a522 07bd
00000180: 4181 dd3c 9199 65bd fb57 d03c 14db 0a3d
00000190: 5551 903c 0f16 c03c 5315 01bc edcb 0f3d
000001a0: f1e4 da3d e0c3 033e 1b78 d53c b853 4bbc
000001b0: 2950 213d df69 b7bc e8a2 183d c83d ebbc
000001c0: 1583 46bd a1c4 5bbd b40d a3bc 4480 36bd
000001d0: 6991 84bd 5ca4 9f3d 9cb9 7abd 87ae 8a3c
000001e0: 063f bb3d de37 a3bb 8cb4 bb3d 7967 c23c
000001f0: 14c3 79bb fbca 713d 3eab 29bd 7285 24bc
00000200: d198 553b ea0c f1bc 28e6 333d bee6 243d
00000210: 89fd 8c3d b5b2 c7bc b165 fabc 54e2 873c
00000220: 635c 06bc c2c8 c33c 4bb8 293d 9cea cc3c
00000230: c6f5 8cba 93ba 5fbd 6c2b a5bc 4b21 4cbb
00000240: 610a ef3c 9025 9f3d 1b55 863d f598 c63c
00000250: 107f 263e 8ebd 113d 3731 003c f600 f23d
00000260: 5692 c03c 8ae3 173d fdae 3b3d ab8b 66bd
00000270: d68f 743d e9d8 cf3d 9189 ba3d 003c ac3d
00000280: 5b3d a43d 35f2 f53d 8e62 e93d 2b60 22bc
00000290: d5e8 2d3d 6c98 19bd a054 4cbd 7b4f fd3c
000002a0: 287f 033e 7c36 b13d d20e 9e3d a405 953d
000002b0: e614 3fbd 2ecc 313d 4f69 a13d 076e 563d
000002c0: 66ce 023d 3516 46bd 02a2 0f3e 20db 413d
000002d0: 4748 08bd f0ce 063c 3280 b53d fe9a 8abd
000002e0: e753 933d 3f4c 11bd a4ef a43c d89a 853d
000002f0: 6666 e33d 8fad 343d 6197 fd3d c4f9 94b8
00000300: dd82 0d3e d5d3 883d f123 c83d 8f56 5a3d
00000310: 2a7a 4c3a c3c3 2b3d 41c2 863d dade 3bbc
00000320: 615c 623c 001b e33d 9d7b 293c ce3c ab3c
00000330: df50 5fbd af11 0bbd df45 f43d 04a9 ae3d
00000340: f6cb b0bc afb6 e33d dd91 a9bc d1eb 023e
00000350: 6f0a 51bd 4c20 613d c8c6 023d 3d00 b83c
00000360: 7de0 7e3c 9295 0dbd 2fd8 983d 474a 3f3d
00000370: 7525 8abd 8631 033d 8663 503d 83e4 003e
00000380: 2b65 293d 4cf0 f6bb 830b d03d 5755 973d
00000390: 4b45 25bb cf7a c53c c3a0 8f3d b927 2c3d
000003a0: 7c2c a23b 3aa1 963a 02e2 fdbc d519 8e3d
000003b0: 9ca1 41bd 2f62 633d 8dd2 1a3b 5e48 5fbd
000003c0: e7cf 023e f413 f63c b2e6 983c d5c6 2ebd
000003d0: 09e4 8b3d 855f 8e3c 4968 d53c 3349 0b3e
000003e0: 511e 9a3c 8e3d 6e3d df30 3ebd a3f3 a9bd
000003f0: bc42 01bd c3fc ec3d 5da2 3cbd c0ca 2dbc
-0.059684176 0.065632924 0.043938376 -0.049681757 -0.047892578 -0.056915015 -0.05091397 -0.011043401
0.081364125 0.057017624 0.12803295 0.03125291 0.112476334 0.108130716 -0.016777117 0.10491736
0.059554886 -0.008717681 0.055800617 0.009358639 0.13235728 0.031135807 0.07343301 0.12983409
0.004752322 -0.0016523374 0.098090485 0.011074119 -0.035716932 0.013974455 -0.0011744503 0.05543195
-0.05113322 -0.038197458 0.039006673 -0.015348282 -0.027572008 -0.03951206 -0.013643021 -0.03600097
0.025564535 0.044888616 0.0080980025 -0.038447887 -0.0045370883 0.1191734 0.075571395 0.102358624
-0.030261531 0.099337265 0.030168667 -0.028299637 -0.040457185 0.011265502 0.0133950235 0.07886841
-0.024072293 -0.056262065 0.05250297 0.10119583 0.011820751 -0.016390562 0.111943126 -0.025331222
0.12924886 0.13835654 0.051628496 -0.024347924 0.029178388 -0.020807475 0.05305335 -0.025134604
0.11806806 0.09803509 -0.037475623 0.08995542 -0.053792927 0.1221101 0.06947254 -0.02752664
0.0260775 -0.017891517 -0.070899196 0.10884229 0.03430304 -0.026146924 0.09157512 0.004331665
-0.047560368 0.021872541 -0.0103119025 0.11255417 -0.02425057 0.014059228 0.056937758 -0.032992024
0.027039172 -0.056054655 0.025432577 0.033900335 0.017616907 0.023448018 -0.007878619 0.03510659
0.10688198 0.12867689 0.026058247 -0.012410097 0.039383087 -0.02238935 0.037264735 -0.028715983
-0.048464853 -0.053654317 -0.019903995 -0.044555917 -0.06473047 0.07795021 -0.061212167 0.016928924
0.0914288 -0.004981025 0.09165296 0.02373098 -0.003811066 0.059031468 -0.041423075 -0.0100415815
0.0032592306 -0.029425103 0.043920666 0.040259115 0.068842955 -0.024377206 -0.030566068 0.016587414
-0.008200738 0.02389944 0.04143552 0.025014214 -0.0010754399 -0.05462129 -0.020162307 -0.0031147774
0.029179754 0.07770836 0.06559201 0.024242857 0.16259408 0.035581164 0.007824234 0.118165895
0.023507278 0.037082233 0.04582118 -0.05628554 0.059707485 0.10148794 0.0910827 0.084098816
0.08019515 0.12009088 0.11395751 -0.009910624 0.042458374 -0.037498876 -0.049885392 0.030921688
0.12841475 0.0865297 0.077176705 0.072764665 -0.04665079 0.04340761 0.07881414 0.052351024
0.03193512 -0.048361022 0.14026645 0.047328115 -0.033272054 0.008228049 0.08862342 -0.06767844
0.071937375 -0.035473105 0.0201338 0.06523675 0.11103515 0.04411083 0.12382389 -7.1037124e-05
0.13819452 0.06681029 0.0977248 0.053305205 0.0007800186 0.04193474 0.0658002 -0.011466706
0.01381597 0.11089134 0.010344413 0.020903017 -0.054520484 -0.03395241 0.11927389 0.08528331
-0.021581631 0.111188285 -0.020699436 0.1278527 -0.05103534 0.05496244 0.031927854 0.022461051
0.015556452 -0.03456647 0.07463109 0.046701696 -0.067454256 0.03202965 0.050876163 0.1258717
0.041356247 -0.00753597 0.10158446 0.07389324 -0.0025218304 0.024106411 0.07013085 0.04203007
0.0049491506 0.0011492141 -0.030991558 0.06938521 -0.047273263 0.055513557 0.0023624033 -0.054512374
0.12774621 0.030038811 0.018664692 -0.04267009 0.06830604 0.017379532 0.026050704 0.13602142
0.018813284 0.058164172 -0.046433326 -0.08298423 -0.031557783 0.11571648 -0.04605328 -0.010607421

layer2.weight f4 [256, 512]
00000000: 735f fe3c dd5b b23c 78d6 7ebb 205d 58bc
00000010: 1558 7e3d 5d51 873c 765d 2f3c 4643 7cbd
00000020: cf82 e1bd b0f2 f3bc ef5a 65bc 1b01 c1bc
00000030: 91e7 203d 76a7 a53c 9a8e 073d a6e4 89ba
00000040: 239d 11bd 8453 fe3b 5771 ccbd 8569 39bc
00000050: 3023 52bc adc3 9d3d 0336 51bd 6c94 073d
00000060: 17cb 7b3d 6e24 b43c 6f88 1bbd 043d 0c3d
00000070: 7ab8 683d 4529 91bd d83d 8b3d 1709 c93d
00000080: cdc5 88bd 34d7 b2bc ff26 3f3d d69d e93d
00000090: c752 ebbc f241 9c3d f719 e43d 3ac3 453d
000000a0: 1fd5 963d 41c1 873d 5d81 ab3c 159f 15bc
000000b0: 0d91 323c bc53 14bd 12f9 4e3c c8a6 f9bd
000000c0: 2fc1 01bd dc36 9cbc 469a a3bc fa5d 333d
000000d0: 4a3b 313c 8533 673d 7b9f 623d 050f fa3c
000000e0: 3cc9 873d dd83 923d 6ff9 393b 33b9 d9bd
000000f0: 001c 2fbc 710f 933d f7a6 673d 8d1a 903d
00000100: 05ab afbb 1653 113d 3104 b43c 6c80 4a3c
00000110: b297 543c 40f3 583d 39e5 1abd f8b4 8f3c
00000120: a693 1dbe 22b0 9dbc 3955 973c 2764 31bc
00000130: e006 9abc 9fcd 51bc 24f9 abbd 623d 6c3d
00000140: 5553 563d cb89 873d 376a 893d e4b5 b0bd
00000150: 7f06 70b9 0614 c33d d5e5 573e 6ba5 9c3b
00000160: 764e 1d3e 5c6f b03d 0ce2 163d 464b 20bd
00000170: c763 473c 3c68 763d daa0 27bd 48d0 acbc
00000180: 96c9 cbbb 4926 44bc e321 263d b60b 073d
00000190: ba17 813d 116b 02bd 5bd5 6e3d 15f1 a33d
000001a0: 5bfd e03c 3b08 09be 2fa9 9ebb 6b8b 113d
000001b0: b24f 293b 24a0 593b dbe9 153d b139 26bc
000001c0: d194 a03d 26db 3aba c55c 15bd 9d1d 5cbc
000001d0: 46e0 493c ca85 e03b cf1f 0e3d 27f3 b23d
000001e0: df61 633d c21d 3c3d b02f 3b3e 15a8 f73c
000001f0: 95a1 dbbd 6be1 5e3d ffb6 edbd e56b 813d
00000200: 0e50 68bd 3acc 563d d201 cebb a427 a23c
00000210: 223b b0bd 97b4 76bc ed6e 43bc 26ac 0abc
00000220: 0f3c e9bc 3867 ac3d b36e 4639 a3d4 873d
00000230: f66e 3e3d 8496 dd3d 90c6 83bd 2d56 603e
00000240: b914 cc3b 13a1 4c3b 8b80 abbb 413f 8f3c
00000250: da46 333d a1a3 043d 1dfd 563e e47a 09bd
00000260: af12 fc3c 46d7 703d 3e67 87bd c484 04bd
00000270: 75e0 993a 84ba 8f3b 2bdf 4d3d 6af9 3f3d
00000280: 5314 0dbc ad3b 203d 3a35 20bd 9a1b 253e
00000290: ce61 373d 59bb aa3d 3b39 d63c 3c7f a03d
000002a0: f6f8 82bc 9eaf 933c 4b1a 99bd 38a8 20bd
000002b0: 292c 0fbc 7e20 ad3d e5f2 efbc 8349 1d3d
000002c0: ad61 f2bc 7958 323d 9a05 c63b 214c 2a3d
000002d0: 26ba 00bd 8690 493c bdbb a23c 4377 713d
000002e0: 01a2 e03d 21a4 9e3d 1d80 c63d 1d7b 523c
000002f0: eafe 91bc 1c6f a73d b895 99bc 707c 12bd
00000300: 848a f13c 00f6 303c b648 433d 5be3 383d
00000310: bfe3 08bd 7aa9 ef3b 268e 253e 1c56 6a3d
00000320: 6d47 693d 5966 f23c a354 503e 277b f0bc
00000330: f9d0 233d 2008 243e d118 5fbc 38ce 4dbd
00000340: 9cbb 8cbd 31d8 393d 2f4a 833d 1f67 60bc
00000350: ff73 22bd 7fd8 213e feda 943a 632f 3a3d
00000360: 9e75 223c 83be b0bc a218 06bc 11d7 963d
00000370: 18f4 baba 1caf d8bc d103 6c3d 98a4 a33c
00000380: 1e2d 1e3d 061a 923d 5fe8 513d 0316 6abc
00000390: 3d15 a33c 7a09 93bc 123b 453c 0956 393e
000003a0: 0d8f 1f3d fb1f 443c 7973 e73a 00cf bfbc
000003b0: 452a 3fbc 398a b53c 5d70 493d a56e 993c
000003c0: 442e 833c 029f 2bbc 2465 15bd b3b6 eb3c
000003d0: 40a5 513b 8608 843c 1ca9 cdbc 8632 923c
000003e0: 569e 433d 52c7 ca3d b960 8fbc 27e9 973d
000003f0: 0f89 5dbd 3430 ed3c 0878 17bd 06ea 20bd
0.031051373 0.02177232 -0.0038885158 -0.0132057965 0.06209572 0.01651829 0.010703435 -0.061587594
-0.11011278 -0.029778808 -0.013998731 -0.023560097 0.03928334 0.020221453 0.03309498 -0.0010520413
-0.035550248 0.0077614207 -0.09982555 -0.011316662 -0.012825772 0.07703338 -0.0510769 0.03310053
0.06147298 0.021990027 -0.03797191 0.034237877 0.056816556 -0.0708795 0.06798905 0.09816187
-0.066783525 -0.021831132 0.04666805 0.11407058 -0.028725995 0.076297656 0.11137765 0.048281886
0.073648684 0.06628657 0.020935709 -0.009132166 0.010898841 -0.036212668 0.012632625 -0.12190014
-0.031678375 -0.019069128 -0.019971024 0.043790795 0.010817358 0.056445617 0.055327874 0.03052474
0.06630179 0.07154057 0.0028377434 -0.10631027 -0.010687828 0.071806796 0.056555714 0.07036314
-0.0053609633 0.035479628 0.021974655 0.01235972 0.01297562 0.052966356 -0.03781626 0.017542347
-0.15388355 -0.019249026 0.018473255 -0.010827101 -0.018802106 -0.012805372 -0.08397129 0.057675727
0.052325565 0.06618079 0.06709712 -0.08628443 -0.00022890604 0.095253035 0.21083768 0.0047804615
0.15361962 0.0861499 0.03683667 -0.039134286 0.012169785 0.060158 -0.040924884 -0.02109541
-0.0062190993 -0.0119720185 0.04055966 0.032970153 0.063033536 -0.031840388 0.05830894 0.08004967
0.02746456 -0.13382046 -0.0048419456 0.03553335 0.0025834856 0.0033207024 0.036599975 -0.010145591
0.078408845 -0.00071279926 -0.036465425 -0.013434795 0.012321537 0.0068518864 0.034698304 0.08737784
0.05551326 0.045926817 0.1827991 0.030231515 -0.10724179 0.054414194 -0.11607169 0.063194074
-0.05671697 0.05244086 -0.006286838 0.019794293 -0.08605029 -0.015057704 -0.011928302 -0.008463895
-0.028471021 0.08418125 0.0001892399 0.06632354 0.04649254 0.10819724 -0.06434357 0.21907873
0.0062280563 0.0031223937 -0.0052338294 0.017486217 0.04376874 0.03238261 0.20994993 -0.033564463
0.030770628 0.05879905 -0.06611489 -0.032353178 0.0011739867 0.004386248 0.050261658 0.04686872
-0.008610803 0.03911941 -0.03911326 0.1612381 0.04477101 0.08336515 0.026150336 0.07836768
-0.015987854 0.018028077 -0.07475718 -0.039222926 -0.008738556 0.08453463 -0.029290626 0.038400184
-0.029587591 0.043541405 0.006043148 0.04157651 -0.031427525 0.0123025235 0.019864911 0.058951627
0.109684 0.07746149 0.096924044 0.012846735 -0.017821748 0.08175489 -0.01874815 -0.035763204
0.029484995 0.0108008385 0.047676764 0.045138698 -0.03342032 0.0073139044 0.16167507 0.057211027
0.056952883 0.029589819 0.20344786 -0.029355599 0.039994214 0.16018724 -0.013616757 -0.050245494
-0.06871721 0.04537219 0.06410634 -0.013696461 -0.039661404 0.15805243 0.0011356769 0.045455348
0.009915737 -0.021575218 -0.008184584 0.073652394 -0.001426342 -0.026450686 0.057620827 0.019975945
0.038617246 0.0713387 0.051246997 -0.014287475 0.019907588 -0.017948855 0.012038009 0.18099226
0.038954783 0.011970515 0.0017658315 -0.023414135 -0.011667793 0.022160636 0.049179424 0.018729517
0.016013272 -0.010474922 -0.03647341 0.028773641 0.0031989366 0.016117346 -0.025105052 0.017846357
0.047758423 0.099012986 -0.017502176 0.07417517 -0.054085787 0.02895365 -0.036979705 -0.039285682

layer2.bias f4 [256]
00000000: f0f9 09bc e21a 543d 87cd 06bd 5579 ae3d
00000010: 41fd ef3c f3e3 083d 4b40 19bd 9e42 813c
00000020: 901c aebc 2833 9fbb cb06 213d eb4a 353d
00000030: 7b90 933b d040 0abd c434 26bc c149 0b3d
00000040: 0bea 15bd 3a6a df3c a748 3b3d 3131 00bb
00000050: 0649 253d 1c9a a4bc fd38 25bc c9e8 9ebc
00000060: f34b 8fbc a77e c8bc 2b4c 833c 0d81 b33c
00000070: 12a6 9fbc d2a7 c73c 00e1 90bc 0ef3 373d
00000080: df81 893d 97a7 013d 6f40 0abd 05ff bc3c
00000090: b458 8fbc 83a6 86bc 8a50 003d 428b 83bc
000000a0: 3bd1 163d 3390 3a3c c642 1b3d 17b2 f23c
000000b0: ab10 2f3c 5e1d a13d 8121 233d f78d 8d3c
000000c0: 1ec3 f2bc c200 773b 26af b83c fcb6 6b3c
000000d0: d608 0abc e8de 17bc 4f7b 3b3c 1c9a eebc
000000e0: 333a 5d3d f8bd 1d3c 6e58 053c f71b 8f3b
000000f0: 4295 2a3c 3105 233c 2782 6e3c 4cf3 a53b
00000100: d3af d63b ba19 673d 4bd9 b93c 79b6 343d
00000110: cc1f 25bc c6dd 083d d2b9 403c 0400 04bd
00000120: 2043 983d 0d56 663b c70b cebc fca8 4e3d
00000130: abac 413b 2ac4 53bc 00eb f5bc 702b 803d
00000140: 2a52 ef3c 89c2 b0bb 7e78 7c3d 0c99 6a3d
00000150: cc2f 483d 9a76 0c3d 49a5 653c 6068 b73d
00000160: 7420 67bc e141 2e3d f0ea 703c 1a63 36bd
00000170: 5fa6 b43b 3277 603d adcc 4ebb d6f3 d9bc
00000180: 8c6a d63d 2672 253d 2071 f33c adfa a5b9
00000190: 2ab4 ccbc 36ab 713d 9147 f73b d85b 2dbd
000001a0: 4c3d d9bb ff6c d83c c22e ca3c 4358 ed3c
000001b0: ba46 b2bc d3b6 673d dcef c23d e270 e038
000001c0: 64e8 5d3d b232 31bd 3f99 723d ef30 0abd
000001d0: 7e63 c7bb 178f 9cbc 8c48 ab3c f105 88bc
000001e0: 1c84 0abd 21b9 0dbd 373c 293d ec7f fbbc
000001f0: 88e6 24bc 8849 803d 6368 8b3d f871 b4bc
00000200: 9c6c 99ba cd59 5e3d 5e5d b6bc 3dbb dfbc
00000210: 8120 753d b73d b0bb a471 4b3d 4d7a e43c
00000220: c90b 3e3d 7468 253c 68cb 68bc c99f e23c
00000230: 46d5 03bd cd62 f23c 14f4 913b 98d0 adbc
00000240: 732d 0cbd ddf6 7b3d d747 25bd bca5 933c
00000250: 9be6 aebb 2507 ae3c 6cb4 663d cf96 c7bc
00000260: 551d 473d fd01 8e3c 3301 89bb 64da 3c3c
00000270: 45af 2fbd 204d bdbc 1202 a23c 6e9a 783c
00000280: ae79 ddbb 5aa9 373c 3fc5 2c3b 5684 993a
00000290: ad87 a93c 8760 4f3d ade0 1e3d ca7f 573d
000002a0: 1887 a13c 3179 11bd 1177 41bc d5c9 1c3d
000002b0: c63a 31bc 612d a23c 528c b63b 82b1 c73c
000002c0: bffe 98bc 3d95 ef3c f4a3 fe3b 03d8 843d
000002d0: 0592 463d e59f 263d eefb a73c 2801 323d
000002e0: 1e9b b93b 1cf2 6d3d fac3 9f3d 5b06 3d3d
000002f0: 2d25 773c ba6e 31bd 924d 0e3d 0086 30bd
00000300: 0e50 083d 0ac8 d6bc 93ca d33b f30d e13c
00000310: 0c5c 8f3d 6fd5 613c f959 313d 17cb afbb
00000320: d7fb 58bc 441e 19bd fa6e 19bd fbe2 843d
00000330: b9a5 903c 7881 ba3b 8015 103d 75b7 9d3c
00000340: 896e aebc 8bc3 fc3b 6dfa 0f3d dc47 1abc
00000350: 2ab5 eb3c 4d2b 0b3d f915 adbb f919 993c
00000360: b506 8d3d e594 143d bbec 243a aa48 bdbb
00000370: 28c4 df3c 93b6 eabc 012e aebc eb96 1d3d
00000380: e99e a63a 9df8 04bd 0b75 0cbd ecd0 5d3d
00000390: 3f45 783c 3d44 383c 0367 733d d2f1 e4bc
000003a0: e8b5 593d 94f3 b63d dfe7 4a3d cb2d 4a3c
000003b0: add5 803b a6d9 c13c a189 1dbd f87f 2d3c
000003c0: 23ac 243d 527e ff3c 0e2b e13c e7aa 6f3c
000003d0: efa0 dabc 4715 4b3c e05a db3c eaf8 4c3d
000003e0: 7bbf 153d 6069 14bc 3104 e0bc 4874 1f3d
000003f0: c398 29bd 649f 2bbd bf20 943d 2fdb cf3c
-0.008421406 0.05178345 -0.03291085 0.08519236 0.029295566 0.033420514 -0.03741483 0.015778836
-0.021253854 -0.004858393 0.03931312 0.0442609 0.0045033074 -0.033753216 -0.010144416 0.034005884
-0.036600154 0.027272332 0.045723584 -0.001956057 0.040352844 -0.020093016 -0.010084388 -0.01939811
-0.01749227 -0.024474455 0.01602753 0.021912122 -0.019488368 0.024372015 -0.017685413 0.04490953
0.06714224 0.031653967 -0.033752855 0.023070822 -0.017498352 -0.01643682 0.031326808 -0.016057614
0.03682063 0.011386919 0.037905477 0.029625935 0.010685126 0.078669295 0.039826874 0.017279608
-0.029634055 0.003768966 0.022544455 0.014386889 -0.008424958 -0.009269454 0.011442973 -0.02912622
0.05401058 0.009627812 0.008138759 0.0043673473 0.010411562 0.009949968 0.014557398 0.0050644036
0.0065517216 0.05642102 0.022686621 0.044119332 -0.010078382 0.033414625 0.011763053 -0.032226577
0.07434678 0.0035146505 -0.0251521 0.050454125 0.002955238 -0.012925187 -0.030019283 0.06258285
0.029213984 -0.005394284 0.061638348 0.057274863 0.048873708 0.034292795 0.014016458 0.08955455
-0.0141068585 0.042543296 0.014704451 -0.044528104 0.005512997 0.054801174 -0.0031555102 -0.026605528
0.10469541 0.040392064 0.029717028 -0.0003165802 -0.024988253 0.05900117 0.007546373 -0.042323917
-0.0066296216 0.02641916 0.024680499 0.02897275 -0.02176224 0.05657084 0.09518406 0.000107021784
0.054176703 -0.043261237 0.059228178 -0.033738073 -0.0060848584 -0.0191112 0.020908616 -0.016604396
-0.033817396 -0.03460038 0.04131719 -0.030700646 -0.010064729 0.06264025 0.068070196 -0.022027
-0.0011705342 0.05428486 -0.022261318 -0.027310962 0.05984545 -0.0053784507 0.049668923 0.027890349
0.046397958 0.010095704 -0.014208652 0.027664082 -0.032185815 0.029588128 0.004454145 -0.02121763
-0.03422303 0.061514724 -0.040351715 0.018023364 -0.005337549 0.021243641 0.056324407 -0.024363903
0.048611958 0.017334932 -0.004181051 0.011526678 -0.04289176 -0.023108065 0.019776378 0.015173538
-0.00675889 0.01120981 0.0026362685 0.0011712413 0.020694578 0.050629165 0.038788486 0.052612104
0.019717738 -0.035515968 -0.011808173 0.03827842 -0.010817235 0.019797029 0.0055709267 0.024376635
-0.01867616 0.029245967 0.0077710096 0.064865135 0.0484791 0.04067983 0.020505872 0.043458134
0.0056642434 0.05809222 0.078010514 0.04614864 0.015084547 -0.043318488 0.034741946 -0.043096542
0.03327947 -0.026218433 0.0064633577 0.027472472 0.069999784 0.013783797 0.043298695 -0.0053647864
-0.013243637 -0.03738238 -0.03745935 0.064886056 0.017657148 0.0056917034 0.035176754 0.019252518
-0.021292942 0.00771374 0.035150934 -0.009416547 0.02877291 0.03397684 -0.0052821604 0.018689143
0.06886045 0.03627481 0.0006291379 -0.0057764845 0.027315214 -0.028651511 -0.02126217 0.038474005
0.0012712154 -0.03246366 -0.03429131 0.05415432 0.015153228 0.011246738 0.05942441 -0.02794734
0.053151995 0.089331776 0.049537536 0.012340019 0.003931722 0.023663353 -0.03846133 0.010589592
0.040203225 0.031188164 0.02748635 0.014628149 -0.026688067 0.01239521 0.026776731 0.05004207
0.036559563 -0.0090583265 -0.027345749 0.038929254 -0.04140545 -0.041900054 0.07232808 0.02537307

layer3.weight f4 [30, 256]
00000000: 9fe5 203c 78fc 173d 7266 1dbd 5310 30bd
00000010: 2fb3 84bc b590 00bd 9002 13bd 3f2a 86bd
00000020: eb39 693c 026a 2a3d 61b6 d33d 1754 39bc
00000030: efdb 62bc 6d26 39bd d80c a6bd d337 c03d
00000040: c011 febb 308c cfba 2d2b 24bb f690 b33d
00000050: 91bf c8bc 93d4 913d 28ea 31bb 386b 973c
00000060: 4c6e c7bd 74e4 5cbd cdd1 ef3c 8649 8e3d
00000070: 75a2 dfbc 88b3 403d 198e 81bd ed6a 4dbd
00000080: cfd0 b2bd 11ba 4c3d 18fd 80bc b734 e03d
00000090: 99d9 c2bc cefb 353d 6965 343d 4264 993d
000000a0: 7a12 803d 869a 8abd 8cd7 81bc 5c4c c43d
000000b0: de59 b3bc b6d5 04be 92d2 d4bc 3805 54bd
000000c0: d2cc 00bd 4ea2 bf3c abbe f33c 4e45 ddbc
000000d0: 0549 013e a0eb d1bd 8565 b9bd dc62 e2bc
000000e0: e1b2 74bc 99fc a9bc bcf3 68bd 95b5 353d
000000f0: 585a b73d 07ba c73c 19df 053d b33d ab3d
00000100: 6ae8 893c 8493 d33c 390b 943d 781c ed3d
00000110: 94df f53c d358 babd 42a6 b23d 225a 09bb
00000120: e9f4 8d3c 6605 d83c 62db 38bd cec2 f0bc
00000130: 6286 be3b ae28 d33d f3f6 353d 1c1b 78bd
00000140: 8f85 943d c2f6 a1bd a2c4 36bd d13a 0fbc
00000150: 30f0 1dbd bdb2 cabc 76e2 79bb 9ccb cfbd
00000160: dcec b6bd 25f5 8f3c 74a2 b3bb 0e27 4f3d
00000170: 022e c3bb 367d 9abd 5e67 7cbb 6fc1 1dbd
00000180: 0dac aabd cf61 44bb 46f0 57bd 95e3 a83d
00000190: 4aa7 5d3d 9e29 2bbd 8408 2c3d 3438 cf3c
000001a0: a328 54bd fd0d ff3c 52c2 2dbd 2ac9 82bd
000001b0: 07ea 38bd ff24 993c b218 d2bd 1b7d 643d
000001c0: 3ec3 b3bd 0067 7abc 7d15 47bd 0a9e 7d3d
000001d0: e54e 2e3d 945c b63d fbc9 74bd 3cfc 4cbc
000001e0: 505a 0f3d 38d0 bdbc 08ab 44bc 2372 c5bc
000001f0: 0d34 863d fe11 d13c 99ce 3ebd df6c 7c3d
00000200: fa62 6bbd c15c 75bd 2928 043d c5fe 6b3d
00000210: 3abd e2bd 3158 833d fe9b 0bbd b2ff 20bd
00000220: e6ee 0c3d bed4 ddbc d248 723c e5f5 123d
00000230: d065 37bd f282 e13a f086 b33c c415 5fbd
00000240: f68e dcbc fc5b 2e3c f654 6fbd 5502 c13c
00000250: 4640 b03c d3aa 203b 80dd c3bd 255c ac3d
00000260: 7f6d db3c da88 a63d 191e 91bd e5d4 af3d
00000270: aedb 65bd 5139 053c c077 99bd a2d6 50bd
00000280: f078 41bc 8b3d bc3c 08fe 3dbd 734a 1fbc
00000290: 681a 71bd e15f 83bd e015 0a3c b0c3 933b
000002a0: 3819 a73d aeea 10bd 0604 113c adca b73c
000002b0: 442d 24bc 70fe 00bd 484e 493d 5628 eebc
000002c0: bb9b 22bd dbb7 813d 14b9 3c3d 36d7 50bd
000002d0: ce80 17bd 1bd6 bc3d d91a e7bd cced 91bd
000002e0: 2ed6 07bc e0ba d6bc a6bf e1bc 8115 96bd
000002f0: 1655 793c 70e6 913b 9125 32ba 4070 7abd
00000300: 289c 31bd 35d7 203d ca71 393b b5f0 2abd
00000310: 694e c9bd 39c1 3bbd f68d ddbd 249e 3c3d
00000320: eb62 263c 762c b1bc 88e1 0b3c d889 98bd
00000330: 370f 98bd 2032 a6bd 0375 453c b99a ccbc
00000340: 9e73 56bb eebe 59bd 0a50 a5bc d148 48bd
00000350: e3ca 8bbd e2c1 a6bd 43dc 8d3c 770a 0dbd
00000360: 43e9 a2bd c192 883c 089e aa3d 0175 b9bb
00000370: 86b9 733b f0c3 82bb ae1b b4bd 4a03 9c3d
00000380: c10f 1cbd b635 16bd 7046 bcbc e24c ec3a
00000390: 120a 34bd fcf1 bf3d 16aa 433d 6811 0d3d
000003a0: d371 503c 727a 8ebd 1bde 5d3d 7f38 07bc
000003b0: c056 83bb 3e2b ce3b dc89 573d a7b0 9ebd
000003c0: 00ed 883d 442f 8cbd ff88 4dbd cd85 8e3c
000003d0: 66fe c93d bdbb eebb 2dfd 953c 9a04 bf3d
000003e0: bc1d 453d 2484 e6bc b0ee d63c bf3f bd3b
000003f0: 3f9c 0b3d 6abc 33bd dd17 9e3c 5beb 243b
0.009820371 0.037106007 -0.038427778 -0.042984318 -0.016198723 -0.031388003 -0.035891116 -0.065510266
0.014235 0.041605003 0.103375204 -0.0113115525 -0.013846382 -0.04520266 -0.081079185 0.093856476
-0.007753581 -0.0015834626 -0.0025050149 0.087678835 -0.024505408 0.071206234 -0.0027147625 0.018483743
-0.09737834 -0.053928807 0.029274845 0.06947617 -0.027299145 0.047046214 -0.06325931 -0.0501508
-0.08731233 0.049982134 -0.015745685 0.109475546 -0.0237854 0.044429593 0.044042025 0.07489826
0.06253524 -0.06767754 -0.015849851 0.09584877 -0.021893438 -0.12972149 -0.025979314 -0.05176279
-0.031445332 0.023392823 0.029754004 -0.027010586 0.12625511 -0.1025002 -0.090525664 -0.02763503
-0.014935226 -0.02075033 -0.05687307 0.044362623 0.089527786 0.024380697 0.032683466 0.083613776
0.016834456 0.025827177 0.07228703 0.115776956 0.030013837 -0.09098973 0.087231174 -0.0020958264
0.017328696 0.026369762 -0.045131095 -0.029389765 0.0058143595 0.103104934 0.044424962 -0.06057273
0.07252037 -0.079083934 -0.044621117 -0.00874205 -0.03855914 -0.024743432 -0.0038129366 -0.10146257
-0.08931896 0.017572949 -0.0054820124 0.050574355 -0.0059564123 -0.07543413 -0.003851376 -0.03851455
-0.08333597 -0.0029965525 -0.052719377 0.08246533 0.054114617 -0.041787736 0.04200031 0.025295354
-0.051796567 0.0311346 -0.042421646 -0.06386025 -0.04514506 0.018694399 -0.102586165 0.055783372
-0.08777474 -0.015283346 -0.048604477 0.061918296 0.04255571 0.089043766 -0.059762936 -0.012511309
0.034998238 -0.023170575 -0.012003668 -0.024102276 0.06552897 0.025521275 -0.046583746 0.061627265
-0.05746744 -0.05990291 0.032264862 0.057616014 -0.11071248 0.064133056 -0.034084313 -0.03930635
0.03440752 -0.027078982 0.0147878695 0.035879035 -0.04477483 0.0017205162 0.02191493 -0.054464117
-0.026923638 0.010642048 -0.058430634 0.023560682 0.021515023 0.0024515882 -0.09563732 0.08416013
0.02678561 0.08131571 -0.07085819 0.08585528 -0.056117706 0.008131341 -0.074935436 -0.05098594
-0.011808619 0.022978565 -0.04638484 -0.00972234 -0.058863074 -0.06414772 0.008428067 0.0045094118
0.08159107 -0.035380058 0.008851057 0.02243551 -0.010020558 -0.03149265 0.04914692 -0.029071968
-0.039699297 0.06333896 0.04607494 -0.05098649 -0.036988072 0.09220525 -0.11284418 -0.07125434
-0.0082908105 -0.026212156 -0.027557205 -0.0732832 0.01521804 0.004452519 -0.0006795759 -0.061142206
-0.043361813 0.039267737 0.0028296583 -0.041733462 -0.09829409 -0.04583857 -0.108180925 0.046049252
0.01015542 -0.021627646 0.008537658 -0.074481666 -0.07424777 -0.08115029 0.012051824 -0.024976121
-0.0032722722 -0.0531606 -0.020179767 -0.048897568 -0.06825807 -0.08142449 0.017316943 -0.03443381
-0.079546474 0.01667154 0.08330923 -0.0056597 0.0037189438 -0.0039906427 -0.08794342 0.07617815
-0.03810096 -0.036672316 -0.022982806 0.0018028284 -0.043954916 0.09372327 0.04776963 0.034440428
0.01272245 -0.06956948 0.054166894 -0.008253216 -0.004008144 0.006291776 0.052621707 -0.077485375
0.06685829 -0.06844953 -0.050179478 0.017397786 0.09862976 -0.0072855637 0.0183092 0.093270496
0.04812406 -0.028139181 0.026236862 0.0057754214 0.034084555 -0.043880858 0.019298488 0.0025164697

layer3.bias f4 [30]
00000000: 0e2f fa3c 6ae3 4a3a e59c ec3c b490 0abd
00000010: 066b 2abd 8b1a 763a 8d93 fbbc f739 19bd
00000020: edf0 953c 5466 40bd d2a0 e3bc b448 613d
00000030: e5cc 163d bb09 e53c 2cfa 0dbc c44c a63c
00000040: e017 b1bc 9f93 883d 642d 2f3d 3a6c be3b
00000050: e627 703c 00b5 2fbd 83d0 d93c b7c4 c3bc
00000060: b04f df3c fb5a 83bc 7784 ed3c 51cb cf3c
00000070: c904 ae3c 668f d63c
0.030540016 0.0007739576 0.028883407 -0.033829406 -0.04160597 0.00093881105 -0.030710006 -0.037408795
0.018303359 -0.046972588 -0.027786646 0.055000976 0.036816496 0.027958741 -0.008665603 0.020300277
-0.02161783 0.066687815 0.042767897 0.0058112415 0.01465795 -0.042897224 0.026588684 -0.023897512
0.027259678 -0.016034594 0.028993828 0.025365504 0.021242516 0.026191425
