project/output/models/Model_target_Doubles-v1.0.0.pth (torch, 938000 bytes, 6 tensors)

layer1.weight f4 [512, 184]
000000 73 54 02 3e 3c 20 9b 3d e8 49 87 3b 80 fe f7 3b
       0.12727527 0.075745076 0.0041286834 0.0075681806
000010 20 15 26 3d c0 c2 d4 3a 85 24 46 bd 67 1a df bd
       0.04054749 0.0016232356 -0.04837467 -0.10893708
000020 77 fb 39 bd 4c 12 df 3d 98 76 05 bd 62 c6 ed bd
       -0.04540583 0.10892162 -0.032583803 -0.11610104
000030 30 68 fd bd 94 30 30 3d 1c b2 2f 3d 70 a1 63 3d
       -0.12373388 0.043015078 0.042894468 0.05557388
000040 70 c3 ce 3b b2 45 c1 3d 80 87 cf bc ea e6 94 3d
       0.006309919 0.094371215 -0.025333166 0.07270606
000050 e6 7f 39 3d ac 93 73 3d d1 2b 78 bd ac 3e 9b bd
       0.04528799 0.059467003 -0.06058866 -0.07580313
000060 96 42 08 3d 9b e4 84 bd e0 3a 05 3c 48 b8 3b 3d
       0.033266626 -0.064889155 0.008131713 0.04583004
000070 3a d2 9d bc f7 60 83 bd 56 de 93 3d 76 35 88 bd
       -0.019265283 -0.06414979 0.072201416 -0.06650822
000080 20 80 c9 bb c0 d0 d1 3a ce 0e 44 3d 0f 6f 81 3d
       -0.006149307 0.0016007647 0.04786568 0.06320011
000090 a0 f9 cc bb d0 ba 26 bd e4 aa b1 3b a6 f3 eb bc
       -0.0062553436 -0.040705502 0.005421983 -0.028802704
0000a0 50 3a 68 3d 28 d9 93 3c 53 20 93 3c ac 18 c8 3c
       0.056696236 0.018047884 0.01795975 0.024425827
0000b0 2c 72 58 bd 1a c2 05 3d d8 29 17 bd 40 29 9c 3c
       -0.052843258 0.032655813 -0.03690514 0.019062638
0000c0 40 03 6f 3b 3e 41 47 3d de c7 8e bd b5 f3 24 3d
       0.0036470443 0.048646204 -0.069717154 0.04027148
0000d0 82 6d b8 bc bc ed f3 bd dc 00 88 bd d7 54 5d 3d
       -0.022513155 -0.119105786 -0.06640789 0.054035988
0000e0 ed 65 3e 3d 2c a7 0d 3d 50 23 bb bb f9 29 6f 3d
       0.046483923 0.034583256 -0.0057109967 0.058389638
0000f0 2c ea 46 bc e5 58 2f bd 24 e5 f2 bc b0 51 02 3c
       -0.012140792 -0.042809386 -0.029650278 0.007954046
000100 83 ad c8 3c fa 0b 5a bc dc 6c 69 bd 80 12 a0 bd
       0.0244968 -0.0133085195 -0.056988582 -0.078160286
000110 40 df 77 3d f4 45 9d 3c 70 6a f1 3c 3c c9 9f 3c
       0.060515642 0.019198395 0.029469699 0.019505136
000120 12 7d c6 bc 53 9b b0 bd 46 73 4f 3d b8 98 6f bd
       -0.02422956 -0.08623376 0.050647043 -0.058495253
000130 d0 2b e2 bb 6e 16 6a bd b4 26 8a 3c 95 18 e3 3b
       -0.0069021955 -0.057150297 0.016864158 0.0069304206
000140 40 1b 50 3c a4 29 19 3d ee e9 b8 3d 71 9d 85 bd
       0.012701809 0.037393227 0.090289935 -0.0652417
000150 8a 25 24 bd 63 6c 25 bd b7 88 ad 3d 44 34 80 3d
       -0.040074863 -0.04038657 0.08473342 0.06259969
000160 dc fd 3e bd 46 00 73 bd 68 15 db bc 0c 27 fd bd
       -0.046628818 -0.059326433 -0.026743606 -0.12360963
000170 64 53 7d bc 59 52 29 bd b4 41 a1 3c 94 82 6b 3d
       -0.015461776 -0.0413383 0.01968465 0.057497576
000180 d0 1d 2b bc fa fc 30 bd 28 59 b1 bc 6a 21 62 bd
       -0.01044412 -0.043210007 -0.021648958 -0.055207647
000190 7c 97 86 bd 7a f3 2b bd 40 98 8c ba e4 dc 40 bd
       -0.06571862 -0.041980244 -0.0010726526 -0.047085658
0001a0 c8 f3 bb 3c 2c 5f a6 3c ec 02 93 3c 20 e9 b3 bb
       0.022943392 0.020309053 0.01794573 -0.005490437
0001b0 0c 3c 8e bd 7c ec 3d 3d 4a 97 14 3d d4 c1 eb 3c
       -0.06945047 0.046368107 0.036277093 0.028778948
0001c0 64 af fb 3c 14 3f 56 3d 54 c6 75 bd 1e 31 d0 bc
       0.030723281 0.05230625 -0.060003594 -0.025414046
0001d0 d0 1e 30 3c f6 83 60 bd de 22 31 3d c4 d2 44 3d
       0.010749534 -0.054813348 0.043246143 0.048052564
0001e0 6c 8d 42 bd e8 80 22 3d 66 11 92 3d 0c bd 9a 3c
       -0.04749815 0.039673716 0.07132225 0.018888973
0001f0 73 90 2e bd 78 30 89 bc f4 77 fb 3c 20 d4 60 3d
       -0.042618226 -0.016746745 0.030696847 0.0548898
000200 ab be 6f 3d 6a 14 53 bd 0b 35 86 bd 4c 2b a8 3c
       0.058531445 -0.05153314 -0.06553086 0.020528458
000210 00 45 46 3b 04 f3 86 3d da de 64 bd dc 4e 93 3c
       0.003025353 0.0658932 -0.05587659 0.017981939
000220 df 07 92 bd 24 d0 6d 3d 70 0c 81 3b 56 2b 60 bd
       -0.071304075 0.058059826 0.0039382502 -0.05472883
000230 20 f4 53 3c 00 9a b1 3c b0 f7 5c 3d 40 c9 fc 3a
       0.012936622 0.021679878 0.05394715 0.0019286051
000240 00 71 d6 3b f4 88 9c 3c 2a 87 18 3d a0 10 e4 3c
       0.0065442324 0.019108273 0.037238277 0.027839959
000250 e8 41 35 bc 30 55 83 bc 72 35 4a 3d 00 5c a3 3c
       -0.011063077 -0.016031832 0.049367376 0.01994133
000260 9c 0d 82 3c 00 c6 62 3b 00 9d 82 3d fb 92 67 bd
       0.01587563 0.003460288 0.063776016 -0.056536656
000270 ec 44 67 3d 1a 09 5f bd e4 74 ab 3c e8 99 8f 3c
       0.056462213 -0.05445204 0.020929761 0.017529443
000280 00 16 21 bc 20 47 3b 3b f6 e3 83 bd 60 83 3f 3c
       -0.009831905 0.002857633 -0.064399645 0.011689037
000290 28 0b 95 3d 3d ac 83 bc d0 96 8e bd 36 9e 00 bd
       0.072775185 -0.01607334 -0.06962359 -0.03140088
0002a0 db f7 7b bd 86 79 32 3d 5c 38 0b 3d 56 a6 8d 3d
       -0.06151567 0.043572925 0.033989295 0.06916492
0002b0 40 e7 7d 3d 1e a2 03 bd 2e 6e 0d 3d 40 70 b9 ba
       0.061988115 -0.03213703 0.034528904 -0.0014147833
0002c0 60 23 e8 3c c0 d0 d8 bb 50 46 00 3d 08 fd e1 bc
       0.02833718 -0.006616682 0.031317055 -0.027586475
0002d0 44 2e 88 3c 7c 3a 8d 3c 8e a5 09 3d c4 e8 85 bd
       0.016623624 0.017239802 0.03360515 -0.06538537
0002e0 a0 88 9c 3c db f8 8c be 9f 10 0d bd e0 56 0a bb
       0.019108117 -0.27533612 -0.03443968 -0.002110891
0002f0 f4 e6 69 3d b8 79 19 3c 86 69 8b bd 07 6c 58 bd
       0.05710502 0.009367399 -0.068072364 -0.052837398
000300 4f 79 6c bd d2 c6 f8 3c 0a 20 92 3d 21 1b 45 bd
       -0.057732876 0.030368242 0.07135017 -0.048121575
000310 54 a3 64 bc b0 95 e9 3b a0 59 1e bd 78 96 1b 3d
       -0.013954956 0.00712844 -0.03865969 0.037985295
000320 a0 4d 85 3d 2b 4e f2 bc 94 80 8b bc d0 90 5b 3d
       0.065089464 -0.029578289 -0.017029084 0.0536049
000330 9f a5 c5 3d 1c 70 96 bd 59 34 43 bd a6 ff 17 3d
       0.0965073 -0.07345602 -0.047657344 0.03710904
000340 70 94 e8 bb e8 69 36 bd 62 30 01 bd f4 dc 76 3d
       -0.0070977733 -0.044534594 -0.031540282 0.06026931
000350 68 7d 54 3d 86 87 b2 3c 5c 12 69 3d ea b4 4e 3d
       0.05187741 0.021793138 0.056902274 0.0504655
000360 3c 28 3f 3d 5e ac b1 bc 74 79 3d 3d e0 2e 98 37
       0.04666923 -0.021688636 0.046258405 1.814164e-05
000370 fa 56 85 3d bc da 5c bd b3 1c 08 3d 24 14 18 3d
       0.0651073 -0.05391954 0.033230495 0.037128583
000380 bc 21 85 bd c9 c6 15 bd a5 62 25 3d cc c4 0d 3d
       -0.06500575 -0.03656653 0.040377278 0.03461151
000390 84 80 58 bd cb 12 6f bd 47 bf cc 3c 52 fc 83 3d
       -0.052856937 -0.05836753 0.024993552 0.06444611
0003a0 ae 65 1b bd ae 2d 56 bd 0e 10 d7 bc 3a 88 c6 3c
       -0.037938766 -0.052289657 -0.026252773 0.02423488
0003b0 ca ff 5a 3d d2 e2 c4 bd 22 12 3a 3d f9 c9 1f 3b
       0.053466596 -0.09613575 0.04542745 0.002438186
0003c0 d5 6c 2b 3d 10 fa 94 3d 00 12 32 b9 7e a5 eb 3c
       0.041851837 0.07274258 -0.00016982108 0.028765436
0003d0 26 db 8e bc 19 ef d2 3c 93 f9 17 bd 1b 1f 79 bd
       -0.017438482 0.025748776 -0.037103247 -0.06082068
0003e0 3f 4e e3 3c 02 4c 88 bc c3 13 8b bc c9 69 38 3d
       0.027747272 -0.016637806 -0.016977197 0.04502276
0003f0 c5 35 91 bd a0 4c da bb 68 2c 16 3c 64 82 cb 3c
       -0.07090334 -0.0066619664 0.009165861 0.024842449

layer1.bias f4 [512]
000000 20 2e 76 bd 27 74 7d 3d de 45 19 3d e9 2b 4d bd
       -0.060102582 0.06187835 0.037420146 -0.050090704
000010 13 de 45 bd 7f fb 64 bd c5 10 3d bd 7d ee 0e bc
       -0.04830749 -0.055903908 -0.04615857 -0.008723852
000020 61 c7 bc 3d de 9d 8d 3d 05 9f f7 3d 0c 4e 24 3d
       0.09217716 0.069148764 0.120908774 0.040113494
000030 c0 eb e8 3d 03 f7 b9 3d 7e 3a 85 bc 80 19 d3 3d
       0.11373091 0.09080317 -0.016263243 0.10307598
000040 ba bf 7f 3d ed 18 6a bb fa 69 6a 3d 17 29 33 3c
       0.062438704 -0.0035720423 0.057229973 0.01093509
000050 b1 0e 08 3e b6 6e 1a 3d a0 77 ab 3d 0f 2c 08 3e
       0.13286854 0.03770324 0.08372426 0.13298057
000060 48 5a 26 3b 43 7d ac bb 14 14 d9 3d 6f 49 8b 3c
       0.0025383402 -0.005263956 0.10599533 0.01700279
000070 3b aa 0c bd 1f 8e bf 3c 03 ea 81 bb 25 5f 9a 3d
       -0.034342032 0.023383198 -0.003964664 0.07537679
000080 c8 c8 54 bd 83 94 11 bd f4 33 0b 3d 47 90 78 bc
       -0.051949292 -0.035542022 0.033985093 -0.015171117
000090 62 1a e1 bc 96 60 17 bd 62 f8 7b bc 57 70 25 bd
       -0.0274784 -0.036957346 -0.015379043 -0.04039034
0000a0 48 d3 03 3d 96 eb 3b 3d f0 1c f5 3c 8e fd 2f bd
       0.032183915 0.04587897 0.029921025 -0.042966418
0000b0 0e ed 9e ba 55 0a f4 3d 26 e7 b8 3d 97 da df 3d
       -0.0012125091 0.11916033 0.09028463 0.109303646
0000c0 9b f1 e4 bc 01 1c c5 3d 0d 16 e5 3c 81 1b 02 bd
       -0.027947238 0.09624482 0.027964616 -0.03176451
0000d0 4a 31 c9 bc 24 ac 16 3c b1 9a 52 3c 43 1d af 3d
       -0.024559636 0.009196315 0.012854264 0.08550503
0000e0 6b 09 be bc e4 3b 5f bd 19 d1 87 3d e9 77 dd 3d
       -0.02319785 -0.054500476 0.06631679 0.10813887
0000f0 d1 62 32 3c 9c 62 83 bb 3e 32 b9 3d 06 75 b5 bc
       0.0108878175 -0.004009558 0.09042786 -0.022150528
000100 cc 9a 0c 3e 39 f0 03 3e b9 fd 55 3d d6 f9 e2 bc
       0.13730925 0.12884606 0.052243922 -0.027707022
000110 9e 9e 04 3d cc 58 f4 bc 3b f3 61 3d b9 15 c8 bc
       0.03237783 -0.029827498 0.055163603 -0.02442442
000120 00 05 fd 3d 3f 17 d0 3d 38 34 14 bd 35 0b ba 3d
       0.12354469 0.10160684 -0.036182612 0.09084169
000130 73 9c 60 bd 44 a2 ff 3d 9c 87 91 3d 65 95 f0 bc
       -0.0548367 0.124821216 0.071059436 -0.029368112
000140 6a b7 cf 3c 12 01 b7 bc d4 8a 85 bd a8 62 e2 3d
       0.025356013 -0.022339378 -0.0652062 0.110539734
000150 5c bd 71 3d 0a e6 96 bc a4 fe c5 3d 0f 72 29 3c
       0.059018478 -0.018420238 0.096677095 0.010342135
000160 06 4c 67 bd 66 b8 bd 3c bf 0e d7 ba 02 3b e1 3d
       -0.056468986 0.023159217 -0.0016407593 0.10997583
000170 04 b9 b5 bc 16 4e 92 3c 5f 4a 4c 3d 5f 81 b6 bc
       -0.022182949 0.0178595 0.049875613 -0.022278486
000180 a7 be c6 3c c3 09 78 bd 60 72 e3 3c d5 06 17 3d
       0.024260832 -0.060556185 0.0277645 0.03687175
000190 36 a6 22 3c d2 54 07 3d 6f 8b 23 bc 7d 7b 29 3d
       0.009927323 0.033039875 -0.009981974 0.041377533
0001a0 88 d9 d2 3d 89 79 08 3e 71 2c 9b 3c dd b7 84 bb
       0.10295397 0.13327612 0.01894209 -0.0040502385
0001b0 28 ce 13 3d 6a 0e 72 bc 8b d4 44 3d 29 9f b9 bc
       0.036085278 -0.014773944 0.04805426 -0.022658901
0001c0 a5 69 48 bd fb e4 54 bd fa f1 3a bd 62 a6 3e bd
       -0.048928875 -0.051976185 -0.045640923 -0.046545394
0001d0 32 86 89 bd 57 fe 67 3d a1 a7 4f bd 44 f0 41 3c
       -0.06715049 0.05663904 -0.050696973 0.011837069
0001e0 cb e2 82 3d bb 26 2e bc 4a 0b d3 3d 1d f1 b7 3c
       0.063909136 -0.010629351 0.103048876 0.022453839
0001f0 96 f9 9e bb a3 18 80 3d 87 eb 0b bd a4 c8 42 3a
       -0.0048515303 0.06254699 -0.034160163 0.00074304105
000200 6c ae 4f bc 1f f9 94 bc da 43 2e 3d 3e a4 31 3d
       -0.012675863 -0.018185196 0.042545177 0.043369524
000210 5f 3d 8d 3d c6 af 9b bc 8b 34 fa bc 22 9f b0 3c
       0.06896471 -0.019004714 -0.030542633 0.021560255
000220 56 c3 86 bc 87 29 86 3c 43 6b 5b 3d d2 d8 f3 3c
       -0.016450565 0.016377224 0.05356909 0.029766474
000230 5f 99 9c 3b ef 99 50 bd c0 ef 17 bc 18 29 a6 b9
       0.0047790254 -0.050928053 -0.009273469 -0.00031692605
000240 c4 23 5c 3c 05 48 a3 3d c3 1d 8e 3d 01 b9 ca 3c
       0.013436262 0.07972721 0.0693927 0.02474642
000250 d0 f8 13 3e e5 fd 5f 3d 3c f1 2f 3c 15 5b d8 3d
       0.14450383 0.054685492 0.010738667 0.105642475
000260 02 10 cf 3c 52 ef cb 3c fc 0e 2c 3d 9a 79 2c bd
       0.025276188 0.02489439 0.042006478 -0.042108156
000270 6e eb 5d 3d e3 9a cb 3d c4 af b6 3d dd 0f ae 3d
       0.0541796 0.09941652 0.089202434 0.084991194
000280 3c ee 96 3d 9e e3 f3 3d 24 16 d1 3d fe 44 03 bc
       0.07369658 0.11908649 0.10209301 -0.0080120545
000290 2a b8 31 3d 42 8c 0d bd 10 f9 54 bd 3f b6 0a 3d
       0.043388523 -0.03455759 -0.051995337 0.03386521
0002a0 6f 99 f1 3d 79 bb aa 3d a9 c8 a2 3d 09 c7 b7 3d
       0.11796843 0.08336539 0.07948429 0.0897351
0002b0 b3 c8 93 bc 0b 55 2e 3d 96 3a a6 3d 81 5f 34 3d
       -0.018040037 0.042561572 0.08116643 0.044036392
0002c0 fc ce 3b 3d d8 73 4a bd 94 a6 0c 3e cf 48 2e 3d
       0.045851693 -0.049426883 0.1373542 0.042549904
0002d0 5d df 10 bd 17 bf 82 bc 43 a3 ae 3d 73 39 7e bd
       -0.035369266 -0.01596026 0.085272335 -0.062066507
0002e0 fc 38 98 3d a0 46 fb bc 39 49 95 3c c8 66 2a 3d
       0.07432744 -0.030673325 0.018223392 0.041601926
0002f0 95 a2 d1 3d b2 1c 40 3d 91 52 0c 3e cb b5 74 3c
       0.10236088 0.046902366 0.13703372 0.014935921
000300 c3 cc 02 3e 28 aa 18 3d 6b 50 c3 3d c7 73 67 3d
       0.12773423 0.03727165 0.09536823 0.0565069
000310 59 c0 f1 3a 85 4d 2d 3d 05 f7 91 3d d4 a4 76 bc
       0.0018444165 0.042310257 0.07127193 -0.0150539465
000320 ee 09 91 3c 0e 0a d3 3d 9c 1c 1c 3c db d0 b1 3b
       0.01770493 0.10304652 0.009528305 0.005426509
000330 cb bf 62 bd 8c 05 29 bd 32 44 9d 3d 99 dd ac 3d
       -0.05535869 -0.041265056 0.07679023 0.08440704
000340 ee 9a 50 3a 3c a6 e5 3d cd b1 dd bc eb 7c 0d 3e
       0.00079576566 0.11213347 -0.027062321 0.13817184
000350 ab a6 4f bd 49 f8 77 3d 12 e7 a4 3c 0e d0 f6 3b
       -0.050696056 0.060539518 0.020129714 0.0075321263
000360 a4 ad 62 3c c1 12 0f bd 58 c9 a0 3d 45 9d 57 3d
       0.013835344 -0.034929994 0.07850903 0.05264022
000370 24 55 95 bd 54 63 21 3d a0 0e 52 3d d3 1e ec 3d
       -0.0729163 0.039401367 0.05128348 0.11529317
000380 37 5f 56 3d 2d e3 00 bc 93 13 c5 3d a1 4f 97 3d
       0.052336898 -0.007866663 0.09622874 0.07388235
000390 ca a5 68 bb 6b e6 c1 3c 23 93 8a 3d 23 bf 4a 3d
       -0.0035499209 0.023669442 0.06766345 0.04949869
0003a0 e3 3a ad 3b a5 2c 56 3b 39 7e 1a bd 9c e7 97 3d
       0.005286561 0.0032680419 -0.03771803 0.07417223
0003b0 85 ea 4c bd 53 50 3f 3d 6b 75 39 3c ea 19 54 bd
       -0.050028343 0.046707463 0.0113194985 -0.051782526
0003c0 fc fb fe 3d 47 91 36 3d 19 f8 a1 3c 33 5c 14 bd
       0.12450406 0.04457214 0.019771622 -0.03622074
0003d0 9b 21 9e 3d 37 74 c7 3c 42 cc 16 3d 36 93 0a 3e
       0.077212535 0.024347408 0.03681589 0.13532719
0003e0 d0 c2 b5 3c 1e 49 56 3d fa 2e 30 bd 8b f7 a6 bd
       0.02218762 0.052315824 -0.04301355 -0.08152684
0003f0 38 ee 06 bd 9a 59 f1 3d 28 3a d1 bc e9 1e 3a bc
       -0.032942027 0.11784668 -0.025540426 -0.011359909

layer2.weight f4 [256, 512]
000000 5f 75 6d 3d 59 11 2c 3c dd 56 b4 bb 5f d8 3e 3b
       0.057973262 0.010502183 -0.005503519 0.0029120666
000010 53 54 81 3d d2 29 80 3c 5a ac 23 3d a9 2d 9a bd
       0.06314912 0.015644941 0.03995929 -0.0752824
000020 9f 67 a4 bd fd e2 58 bc 0d 41 83 bc 95 1d 9c bc
       -0.08027577 -0.013237712 -0.01602223 -0.019057075
000030 2a 09 23 3d 68 47 1c bd f4 13 69 3d f1 62 87 b9
       0.03980366 -0.038154036 0.056903794 -0.00025822924
000040 4b 2b f0 bc 83 de 52 3a ca 5c fd bd 2e 35 91 bc
       -0.029317519 0.0008044021 -0.12371214 -0.017725553
000050 0d f6 36 bc 20 3d 93 3c 6c de 8a bc 02 7d 01 3d
       -0.0111670615 0.017973483 -0.016951762 0.031613357
000060 01 76 cf 3d 06 58 2e 3c 64 36 51 bd 96 5b 3f 3d
       0.10129929 0.010641104 -0.05107726 0.046718203
000070 48 be 59 3d 6c a6 43 bd 91 9c 89 3d d3 92 83 3d
       0.053159982 -0.047766134 0.06719316 0.06424489
000080 fd e2 9e bd 25 d0 25 bc 4c bc 8e 3d 23 5f d3 3d
       -0.07758138 -0.010120426 0.069695085 0.1032088
000090 a8 ce e9 bc be 7b b2 3d bf 87 17 3d f1 3a 82 3d
       -0.028540924 0.08715008 0.036994692 0.063588984
0000a0 21 49 a9 3d 72 31 87 3d 19 50 3b 3d cf 94 fc ba
       0.08265901 0.06601228 0.045730684 -0.0019270423
0000b0 43 19 52 3c ec 7d 2e bd 5c 15 03 3d 09 f6 14 be
       0.012823406 -0.042600557 0.03200279 -0.1454698
0000c0 f1 27 c2 bc 9e 14 d2 bc 31 a2 99 3b 74 dd 5d 3d
       -0.023700686 -0.025644597 0.004688524 0.054166272
0000d0 de 56 11 3d 08 2d 9a 3d 80 4b 4c 3d df 2b 09 3d
       0.035483234 0.0752812 0.04987669 0.033489104
0000e0 9c 3c bf 3d 88 9e 90 3d b4 71 bb 3c d1 01 2b be
       0.09337732 0.070614874 0.022881366 -0.16699912
0000f0 4f 54 9c bc 99 78 b3 3d 08 45 47 3d 63 14 6e 3d
       -0.01908317 0.087632366 0.048649818 0.05812491
000100 a2 97 4c ba 7c 57 11 3d 98 8e c9 3c 85 c6 38 3c
       -0.00078045775 0.035483822 0.024604127 0.0112777995
000110 41 20 b0 bb 67 09 9a 3d d3 d3 0d bd 72 48 a9 3c
       -0.0053749387 0.075213246 -0.03462584 0.020664427
000120 c6 17 32 be 43 d1 b3 bc 8c 39 6f 3c 76 f6 1d bd
       -0.17391881 -0.02195037 0.014601123 -0.03856512
000130 09 f8 f1 bb a3 fc ca bb e8 f4 00 be 84 2a 67 3d
       -0.0073843044 -0.0061946674 -0.12593424 0.05643703
000140 0b 9e 63 3d 68 3b 92 3d 28 79 64 3d 1b 32 a2 bd
       0.055570643 0.07140237 0.055779606 -0.07919713
000150 24 c1 54 3b 86 02 dd 3d fa 76 78 3e 6d 28 09 bd
       0.0032463754 0.10791497 0.24264136 -0.03348582
000160 53 59 f9 3d 20 80 aa 3d 53 e9 be 3d ea 12 f4 bc
       0.1217524 0.08325219 0.09321847 -0.029794175
000170 88 8c f9 3c ec c0 7d 3d ae 03 c6 bd 29 e0 93 bc
       0.030462518 0.061951563 -0.096686706 -0.018051224
000180 c6 ce 3c 3c 34 ff 4d bc c2 b2 82 3d cc 5a 09 3d
       0.011523908 -0.012573052 0.063817516 0.033533856
000190 52 69 5c 3d db e6 e9 bc 9c b9 a7 3d ba ab 92 3d
       0.05381138 -0.028552463 0.08189699 0.071616605
0001a0 d9 c4 18 3d 04 db 1c be db 94 8b 3d 88 89 d6 3c
       0.037297104 -0.15317923 0.06815501 0.026188627
0001b0 1f 05 99 3c 63 9f 84 3b 14 45 59 3d 5d f9 b2 bb
       0.0186792 0.0040473207 0.053044394 -0.0054618553
0001c0 78 63 a5 3d 38 f9 cf ba 69 18 32 bd 13 47 73 bc
       0.08075613 -0.001586712 -0.04348031 -0.014848488
0001d0 0b 9e 35 3d 3d b7 38 3c 92 45 91 3d 75 8f 68 3d
       0.044340175 0.011274156 0.070933476 0.056777436
0001e0 ef 42 5a 3d 0c 75 dc 3c a7 55 85 3e a6 d3 1b 3d
       0.05328649 0.026911281 0.2604191 0.03804364
0001f0 64 29 f4 bd 46 83 65 3d a2 b3 73 3c 20 be ab 3d
       -0.11921957 0.056033395 0.014874371 0.08385873
000200 ec 26 3d bd 3f aa 1a bd 48 c7 86 3a c8 b4 ec 3c
       -0.046179697 -0.037760016 0.0010282779 0.028894797
000210 e8 5f 80 bd 3d 45 b4 bc 4b 03 6c bc 5c eb 75 bc
       -0.06268293 -0.022005672 -0.014405082 -0.015009727
000220 e0 98 8e bc 00 29 d5 3d 0f e2 aa 3d b5 84 2e 3d
       -0.01740688 0.10408211 0.083438985 0.042607028
000230 be 9d 6c 3d 73 11 f5 3d 9c 4d 0a 3e f4 46 23 3e
       0.057767622 0.11966219 0.13506168 0.15945035
000240 ae d7 62 3b 9b 86 b9 3b 41 c9 32 bb 80 43 af 3c
       0.0034613418 0.005661798 -0.0027280601 0.021394491
000250 6a f7 1e 3d 53 0e dc 3c 99 eb 1d 3e 69 69 1c bd
       0.03881017 0.0268623 0.15421905 -0.038186464
000260 c6 14 04 3d 9e 13 88 3d 81 eb 86 bd 7a 37 1a bc
       0.032246374 0.06644367 -0.065878876 -0.009412641
000270 60 45 5e 3b 4b c4 d7 3b 99 06 65 3d cf 6b 40 3d
       0.0033915862 0.0065846792 0.055914495 0.046977814
000280 30 79 a5 3c d7 3e 2a 3d 8d f2 fb bc 56 59 2c 3e
       0.020199388 0.041563835 -0.030755306 0.16830954
000290 30 b2 17 3d 98 88 ba 3d b5 9c 87 3c e6 b0 98 3d
       0.037035167 0.091080844 0.016554216 0.07455616
0002a0 b8 38 8a bc 2d 18 8b 3c f6 5d 2e bd b6 12 a2 3b
       -0.016872749 0.016979301 -0.042570077 0.004946078
0002b0 13 90 a5 bc 20 ef 82 3d 21 8f e0 bc 42 56 2f 3d
       -0.020210302 0.06393266 -0.027412 0.04280687
0002c0 fc 5a e3 bc 8f a3 25 3d aa 37 20 3c 38 ba 0d 3d
       -0.027753346 0.040439185 0.009778896 0.03460142
0002d0 67 97 1c bd 51 ea 26 3c 1d 77 9d 3c 04 5b 83 3d
       -0.038230326 0.010187701 0.019221837 0.06413844
0002e0 4d ba 52 3d b3 53 88 ba cb cc a2 3d 2d c4 b3 3c
       0.0514472 -0.0010400921 0.079492174 0.02194413
0002f0 2e 21 07 bc b5 f1 9b 3d 15 51 23 bc 82 61 d4 bc
       -0.008247657 0.07614461 -0.009968062 -0.025925402
000300 cd 1a ba 3c d0 5c 4e 3c 9f 6e 5c 3d dd 71 4f 3d
       0.022717858 0.01259537 0.053816434 0.050645698
000310 e1 f7 e5 bc 6c fb 0e 3d 67 04 b1 3d c7 4e ff 3d
       -0.0280723 0.034907743 0.08643418 0.124661975
000320 64 7a 5e 3d b7 30 d4 3c 77 d5 63 3e f8 15 ba bd
       0.05431594 0.025902135 0.22249399 -0.090862215
000330 e5 6a ea 3c 8a e1 89 3d 76 89 d6 bc 4e f8 0c 3b
       0.028615424 0.06732471 -0.026188593 0.0021510306
000340 13 f5 ef bc 9e f6 32 3d 32 ab 30 3d 23 22 85 bc
       -0.029291665 0.043692224 0.043132015 -0.01625163
000350 e7 12 1d bd ed 1a 29 3e 4c 50 c0 3c 11 fd 23 3d
       -0.038348105 0.16514178 0.023475789 0.040036265
000360 84 79 35 3b 8d 83 b1 bc 58 59 9f bc 91 8c a9 3d
       0.0027690837 -0.021669174 -0.019451782 0.08278764
000370 f7 5e ae 3b 62 ea 20 bc 9a 23 6d 3d 76 b6 db 3c
       0.0053213793 -0.009821506 0.05789528 0.026820403
000380 94 f5 02 3d 42 3f bc 3d 77 4d 39 3d 6b ea b6 bc
       0.031972483 0.09191753 0.04523989 -0.022328576
000390 8d 9d 9b 3c 4e 99 6a bc 71 08 a9 3c a2 6a 55 3e
       0.018996025 -0.014318777 0.020633908 0.20841458
0003a0 44 50 42 bc 18 09 9e 3c 4d d1 7a ba 98 e2 a8 bc
       -0.011859957 0.019291446 -0.00095679314 -0.02061586
0003b0 1c 7f aa bc 4b c6 16 3d 77 7d 4e 3d c4 fa 31 3c
       -0.020812564 0.0368102 0.05041262 0.01086301
0003c0 30 51 3f 3c b8 c1 92 3c 40 e4 ce bc 2c c7 16 3d
       0.011677071 0.017914638 -0.025255322 0.03681104
0003d0 a8 b8 bf 3b 97 4e e5 3c 59 57 6f bd 00 ea 8a 3c
       0.00585087 0.027991576 -0.05843291 0.016957283
0003e0 c3 39 41 3d 03 58 56 3c 76 11 48 38 76 dc 92 3d
       0.047174226 0.013082507 4.7699978e-05 0.07170956
0003f0 ba 4f 89 bd b2 53 0a 3d 82 c6 cd bc 39 7d 23 bd
       -0.0670466 0.033771224 -0.02511907 -0.039914344

layer2.bias f4 [256]
000000 52 9e c1 bb 15 07 1c 3d e7 a8 ee bc e6 1e c0 3d
       -0.005908766 0.03809269 -0.029133273 0.093808934
000010 41 fd ef 3c dd 62 14 3d 4b 40 19 bd 15 9f 7e 3a
       0.029295566 0.036227096 -0.03741483 0.0009713036
000020 9e d8 aa bc 8e 45 d6 bb 7e 2b 2e 3d 5f 7a 43 3d
       -0.020855244 -0.0065390533 0.042521946 0.047724124
000030 b6 62 6e bb a3 cf 15 bd 28 a7 8e bc bd 38 2a 3d
       -0.0036374754 -0.03657497 -0.01741369 0.041558016
000040 0b ea 15 bd ae 56 ea 3c 3c 61 44 3d ce f7 3e bb
       -0.036600154 0.028605785 0.047944292 -0.0029139402
000050 91 88 33 3d de a6 00 bd 9f db 83 bc 90 22 83 bc
       0.04383141 -0.031409137 -0.016095934 -0.016007692
000060 19 d9 93 bc a7 7e c8 bc 85 ce 94 3c 5b 35 08 3c
       -0.018047856 -0.024474455 0.018164882 0.008313502
000070 5b c4 ca bc f3 7b a1 3c 96 46 46 bc 85 38 04 3d
       -0.024751833 0.019712424 -0.01210179 0.032280464
000080 f6 2b 8b 3d 83 0a fa 3c 0a b0 0e bd c0 5a b3 3c
       0.06795494 0.03052259 -0.034835853 0.021893859
000090 b4 58 8f bc 83 a6 86 bc f4 cc 06 3d 42 4d 9b bc
       -0.017498352 -0.01643682 0.032910302 -0.018957738
0000a0 2f 74 16 3d 64 52 78 3c 89 5a 2c 3d aa ec 03 3d
       0.036731895 0.015156362 0.04207853 0.032208122
0000b0 1a d4 c2 3b d1 55 48 3d 98 f2 39 3d 51 e0 9c 3c
       0.0059456946 0.048909966 0.04539737 0.019149931
0000c0 51 cf 1c bd c4 42 e8 bb 34 82 20 3d d0 53 60 3c
       -0.03828365 -0.007088037 0.03918667 0.013691857
0000d0 8c 62 3a bc da 2a 2d bc 20 4f 39 3c 1c 9a ee bc
       -0.0113760345 -0.010569299 0.011310369 -0.02912622
0000e0 86 8c ab 3d 1a 25 f6 3b 19 83 38 bc ce e4 e0 bb
       0.08376412 0.007511747 -0.011261725 -0.006863213
0000f0 25 be 5b 3c 12 6c 4a 3c 57 15 78 3c 1a 03 84 3a
       0.013412033 0.0123548675 0.015141807 0.0010071725
000100 7f 3e 99 3c c2 82 7d 3d ee 38 6c 3c 7a f0 49 3d
       0.018706558 0.06189228 0.01441787 0.049301602
000110 cc 1f 25 bc f1 f9 0f 3d 50 24 51 3c b6 d0 b9 bc
       -0.010078382 0.035150472 0.012765005 -0.022682529
000120 c6 8b 8f 3d 09 55 7b 3b c7 0b ce bc 24 81 3e 3d
       0.070090815 0.0038350245 -0.0251521 0.046509877
000130 88 cc 7d ba c4 ab b4 bc 7d c0 0f bd 0e 3e 1b 3d
       -0.00096816616 -0.02205456 -0.03509568 0.037900977
000140 dc e0 df 3c 85 60 e5 bb ab fc 83 3d ad 4f 5b 3d
       0.027328901 -0.0070000314 0.06444677 0.05354278
000150 70 9c 4e 3d 79 0a 11 3d c2 8f 1f bc a9 86 b9 3d
       0.05044216 0.035410378 -0.009738864 0.090588875
000160 2f 84 67 bc 4d 70 1b 3d 72 c8 38 3c 1a 63 36 bd
       -0.014130636 0.037948895 0.011278259 -0.044528104
000170 e4 b6 bd 3b 95 75 3c 3d a0 c9 cd b9 d1 2a e6 bc
       0.0057896245 0.046010572 -0.0003925087 -0.028096588
000180 d6 88 d7 3d 34 fa 12 3d 8d a8 06 3d da c7 fe ba
       0.10524146 0.035883144 0.032875586 -0.0019438223
000190 2a b4 cc bc 20 ea 8a 3d fd 6f 5c 3c d8 5b 2d bd
       -0.024988253 0.06782937 0.013454434 -0.042323917
0001a0 4c 3d d9 bb 8d 5a f7 3c ee a5 b3 3c 4c 5e 03 3d
       -0.0066296216 0.030194545 0.021929707 0.03207235
0001b0 37 32 95 bc 9f 2d 79 3d b5 ec c1 3d cf 0f 5a bb
       -0.01821242 0.060834523 0.094689764 -0.0033273583
0001c0 8b 20 50 3d cd c8 32 bd c9 12 5a 3d e7 be 03 bd
       0.050812285 -0.04364853 0.05324057 -0.03216448
0001d0 18 81 dd bb d5 a6 47 bc ae cc 9c 3c 13 3c 71 bc
       -0.006759774 -0.012185772 0.019140568 -0.0147237955
0001e0 1c 84 0a bd 21 b9 0d bd d9 ed 27 3d ed d9 f1 bc
       -0.033817396 -0.03460038 0.040998314 -0.02952286
0001f0 d1 57 cb bb 74 47 7e 3d 0e 14 3e 3d 24 76 a5 bc
       -0.006205537 0.06207986 0.046405844 -0.020197935
000200 9c 6c 99 ba 8d cd 4d 3d 2e 34 c2 bc 0d bb d1 bc
       -0.0011705342 0.050244857 -0.023706522 -0.025601888
000210 9c e8 1a 3d 22 ec 9d bb 17 0e 55 3d 4e 5d ff 3c
       0.03781949 -0.004819409 0.05201539 0.03117242
000220 37 4a 3c 3d 84 f3 c0 3b 78 97 2f bc 78 89 94 3c
       0.045969214 0.0058884043 -0.010717265 0.018131956
000230 90 41 04 bd fb 80 b3 3c 14 f4 91 3b 98 d0 ad bc
       -0.032289088 0.021912089 0.004454145 -0.02121763
000240 73 2d 0c bd ad 60 82 3d f6 57 28 bd 90 7b 0a 3d
       -0.03422303 0.06366096 -0.04109951 0.033809245
000250 c6 5a 05 bc fe 31 1f 3d b9 bb 31 3d 43 72 d5 bc
       -0.008139318 0.038866036 0.043391917 -0.02605546
000260 f6 e3 31 3d 65 a2 cb 3a b4 94 06 bb b0 b2 d7 3c
       0.04343029 0.0015536068 -0.0020535411 0.026330322
000270 45 af 2f bd 92 e2 a8 bc 69 4b 64 3c 1d ec 8c 3c
       -0.04289176 -0.02061585 0.013933995 0.017202431
000280 64 3b d3 bb f6 ea 2d 3c e8 6c 99 3a 7b 35 94 3b
       -0.006446289 0.010615101 0.001170543 0.004522977
000290 05 77 b6 3c 2d 3d 67 3d 88 62 35 3d b3 99 1a 3d
       0.02227355 0.056454826 0.04428342 0.037744235
0002a0 d8 00 95 3c 0a 31 d3 bc 86 dd 3f bc c3 f8 14 3d
       0.018188879 -0.02578022 -0.01171053 0.03637005
0002b0 dc d9 2d bc 39 49 77 3c ac 7a 82 3c 66 b5 2c 3c
       -0.010611024 0.015093141 0.015927635 0.010541296
0002c0 6d 19 81 bc df 1f ee 3c 4e ff 0d 3c a1 b2 8a 3d
       -0.015759194 0.029067932 0.008666826 0.06772352
0002d0 39 de 3b 3d e4 ae 25 3d 7c 2d 87 3c 1f 9b 29 3d
       0.045866225 0.04044999 0.01650118 0.0414077
0002e0 c2 21 41 3b 68 be 68 3d f1 43 3e 3d b0 1e 4c 3d
       0.0029469584 0.05682221 0.046451513 0.049833953
0002f0 6e 0c aa 3c ba 6e 31 bd 2b 6a 0f 3d 00 86 30 bd
       0.02075788 -0.043318488 0.03501336 -0.043096542
000300 5a f0 08 3d 08 18 d4 bc 82 2f 11 3c 49 32 0c 3d
       0.033432342 -0.025890365 0.008861424 0.034227643
000310 05 d8 80 3d 3e 4d 5f 3c 10 96 2f 3d b1 eb b6 bc
       0.062912025 0.013629256 0.04286772 -0.022329183
000320 42 d7 0d bd 99 bf ba bc fa 6e 19 bd 43 ab 8f 3d
       -0.034629114 -0.022796439 -0.03745935 0.070150875
000330 45 50 1b 3c 1c 28 06 3c 41 ab 1f 3d 26 5d 94 3c
       0.009479587 0.008188274 0.03898168 0.018110823
000340 71 13 e3 bc 8b c3 fc 3b bb fd 3b 3d a4 64 16 bc
       -0.027719231 0.00771374 0.045896273 -0.009179268
000350 8d d1 60 3b 1e ea f7 3c c5 a4 c3 39 31 50 23 3c
       0.003430459 0.030263003 0.0003731606 0.00996785
000360 5e 68 92 3d fe 9b 09 3d ca 23 c4 3b 41 b2 a2 bb
       0.07148813 0.03359603 0.0059857117 -0.004965097
000370 ec 2b bf 3c 93 b6 ea bc c6 88 c0 bc 4b 40 18 3d
       0.023336373 -0.028651511 -0.023502719 0.03717069
000380 36 f5 b7 3a 9d f8 04 bd 0b 75 0c bd a4 be 6e 3d
       0.001403487 -0.03246366 -0.03429131 0.058287278
000390 57 8b a2 3c 6d 0d bb 3b 78 7d 6f 3d aa 5b 08 bd
       0.019841833 0.0057083876 0.058469266 -0.033290543
0003a0 81 4d 4e 3d 24 cf c5 3d 81 80 5c 3d aa f1 3f 3c
       0.050366882 0.096586496 0.05383349 0.011715332
0003b0 6b 48 81 3b a0 9a a6 3c a1 89 1d bd 8b c9 2f 3c
       0.0039454005 0.020337403 -0.03846133 0.010729204
0003c0 56 23 1c 3d 05 d1 f7 3c 39 9c 06 3d 9e e0 82 3c
       0.038119636 0.030251035 0.03286383 0.015976246
0003d0 ec 7d da bc 21 6c 2c 3b b0 d0 f1 3c c6 55 55 3d
       -0.026671372 0.0026309567 0.029518455 0.052083753
0003e0 b7 82 f2 3c 38 53 bf ba 31 04 e0 bc 14 a6 0d 3d
       0.029603345 -0.0014596945 -0.027345749 0.034582213
0003f0 c4 5e 2c bd 64 9f 2b bd 3b 45 9f 3d ae 56 a5 3c
       -0.042082563 -0.041900054 0.077768765 0.020182934

layer3.weight f4 [30, 256]
000000 d9 70 22 3c 32 99 0f 3d a3 90 06 bc 8e 54 62 bd
       0.0099146 0.035058208 -0.008213195 -0.05525642
000010 2f b3 84 bc 7d f1 ef bc 90 02 13 bd 18 f1 44 3c
       -0.016198723 -0.029289955 -0.035891116 0.012020372
000020 85 1e 4f 3c 85 b4 15 3d 41 d2 e5 3d 31 54 54 bc
       0.012641554 0.03654911 0.112217434 -0.012959526
000030 54 6a d3 bc 79 65 36 bd 9a 89 ad bd fe d3 af 3d
       -0.025807537 -0.044530366 -0.08473511 0.08585356
000040 c0 11 fe bb ec 9e 2e 3c a4 2d 66 bb b1 f3 a8 3d
       -0.007753581 0.010658007 -0.0035122419 0.082496054
000050 de 18 a3 bc a7 c9 a7 3d 27 29 8c 3c ea f6 c1 3b
       -0.019909319 0.08192759 0.017109467 0.005919327
000060 f9 e6 a6 bd 74 e4 5c bd 4c d5 0f 3d 2c 94 c3 3c
       -0.08149523 -0.053928807 0.035115525 0.023874365
000070 cb dd d9 bc 0c 44 83 3d ea e5 73 bd 5f 80 3b bd
       -0.026595017 0.06409463 -0.059545435 -0.04577672
000080 5d f7 b7 bd c1 6c ae 3d 18 fd 80 bc c9 4e 11 3d
       -0.08982728 0.08516837 -0.015745685 0.035475526
000090 99 d9 c2 bc ce fb 35 3d bb 58 9a 3c c9 eb a0 3d
       -0.0237854 0.044429593 0.018841138 0.078574724
0000a0 d8 11 e8 3c e4 07 5e bd c7 f8 8d bc 41 1d df 3d
       0.028328821 -0.054206744 -0.01733054 0.108942516
0000b0 36 94 89 bc 0c 74 c5 bd 2f a0 f4 bc 6c 35 50 bd
       -0.016794305 -0.09641275 -0.029861538 -0.050832197
0000c0 ec 25 49 3a 22 ea 06 3d cb 9e a4 3c 5f 37 bf 3c
       0.00076731923 0.03293813 0.02009525 0.023341833
0000d0 58 26 78 bc fe c8 cd bd b2 27 be bd dc 62 e2 bc
       -0.015145861 -0.10048102 -0.09284915 -0.02763503
0000e0 09 fc 38 bd 9c 43 d5 ba 40 d1 e8 3b 30 04 8a 3d
       -0.045162234 -0.001627076 0.0071050227 0.0673908
0000f0 dd 85 af 3d aa 67 9c 3c 79 6b ad 3c b4 ca 8e 3d
       0.08570454 0.0190924 0.021169411 0.06972256
000100 7a e7 a1 bb 02 c1 d3 3c 63 f2 b2 3d a4 c8 99 3d
       -0.0049409242 0.02584887 0.08737638 0.07508972
000110 94 df f5 3c 89 15 c9 bd 30 8e 01 3d 0a 94 fb bc
       0.030013837 -0.09818561 0.03162974 -0.030710239
000120 8b ab 53 3c 2e a7 b9 3c 62 db 38 bd 8c c6 00 bd
       0.012919317 0.022662725 -0.045131095 -0.03143935
000130 f0 1e 53 3c dc 96 e3 3d 5d 86 8e 3d 45 1e 35 bd
       0.012885794 0.111127585 0.069592215 -0.04421832
000140 30 d5 7f 3d 80 48 a2 bd ca fd 50 bd 4a ab bb bc
       0.06245917 -0.079239845 -0.051023282 -0.022908825
000150 42 77 d7 bc 5e 58 94 bc e9 14 f6 3d 74 15 d1 bd
       -0.026301984 -0.018108543 0.12015707 -0.1020917
000160 69 7d cb bd c9 36 86 3c da 58 00 3d 0e 27 4f 3d
       -0.099360295 0.016383545 0.031334735 0.050574355
000170 0f a8 84 3d 85 f7 ab bd d4 7f 92 bb 26 76 eb bc
       0.06477367 -0.0839682 -0.0044708047 -0.028742861
000180 92 f6 ae bd 00 12 73 b5 5e a2 54 bd bf a9 a2 3d
       -0.08543123 -9.055075e-07 -0.051912658 0.07942533
000190 4a a7 5d 3d 49 b7 42 bd 57 98 1a 3d 34 38 cf 3c
       0.054114617 -0.047538076 0.03774294 0.025295354
0001a0 a3 28 54 bd 45 9e 8e 3c 30 b8 76 bd 09 4f 83 bd
       -0.051796567 0.017409453 -0.06023425 -0.06411559
0001b0 ff 8a 52 bd 42 ba da 3b 9d 3f d4 bd 3a 81 68 3d
       -0.05140209 0.0066750357 -0.10363696 0.056763865
0001c0 05 9c 95 bd 1f 60 88 bc 40 dc 1e bd 0a 9e 7d 3d
       -0.07305149 -0.016647397 -0.038784266 0.061918296
0001d0 2f 93 3a 3d 91 8d b0 3d 60 69 76 bd 0a 46 95 bc
       0.04555052 0.08620752 -0.060159087 -0.018221874
0001e0 50 5a 0f 3d 38 d0 bd bc e4 42 47 bc 69 9b 00 bd
       0.034998238 -0.023170575 -0.012161944 -0.03139821
0001f0 8c 6b 97 3d e3 00 a0 3c f5 4c 33 3c 70 f8 5b 3d
       0.0739356 0.019531673 0.010943641 0.053703725
000200 fa 62 6b bd 95 e0 78 bd 2c 58 e5 3c 4a f3 60 3d
       -0.05746744 -0.060761053 0.027996145 0.05491952
000210 4b 33 b2 bd c6 94 83 3d 68 66 95 bd 4e f9 45 bd
       -0.087011896 0.06424861 -0.07294923 -0.04833346
000220 a7 d9 d5 3c 24 2b 04 bd 52 fd bd bc b9 3d 49 3c
       0.026104761 -0.032267705 -0.023192082 0.012282782
000230 7e 59 18 bd 39 53 66 bb f0 86 b3 3c c4 15 5f bd
       -0.03719472 -0.003514482 0.02191493 -0.054464117
000240 f6 8e dc bc 94 49 39 3c 59 7d 74 bd 30 1e 35 3c
       -0.026923638 0.011309046 -0.059689853 0.011054561
000250 b3 a5 19 ba cd 5f 9a bc c9 7f d5 bd 2e 11 b8 3d
       -0.0005861178 -0.01884451 -0.10424764 0.08987652
000260 61 b3 81 3c 12 04 8e 3d a1 af 7c bd ca 01 ab 3c
       0.015832605 0.0693437 -0.06169093 0.020874877
000270 ae db 65 bd 74 ef 99 bb 4a 4d 9e bd d0 72 49 bd
       -0.056117706 -0.0046977345 -0.077295855 -0.04918176
000280 ca d0 ba bc 56 cd 27 3d 33 ef 53 bd 90 8a 82 bc
       -0.022804637 0.040967308 -0.05174179 -0.015935212
000290 fe a5 6f bd e9 4f 69 bd de e8 99 3b d9 5b af 3d
       -0.05850791 -0.056960974 0.0046969494 0.085624404
0002a0 bd 5a 8e 3d 4d ab f8 3c 75 2a fc bc 16 cd be 3c
       0.06950901 0.03035512 -0.030781964 0.023291152
0002b0 31 e2 3b bc 2b af 7f bd 6a 42 b5 3c 87 29 dd 3b
       -0.011467502 -0.062422913 0.022126395 0.006749335
0002c0 9b 84 74 bd 06 c1 63 3d 1e 78 20 3d 1b 43 98 bd
       -0.059696775 0.055604003 0.039177053 -0.07434674
0002d0 25 51 ec bc 8d 7b b5 3d 2f 8b 0b be 6f f9 9d bd
       -0.028847286 0.08861456 -0.13627313 -0.07713591
0002e0 60 8a 8d bc ac 15 ed bc 11 f6 cd 3d c4 88 95 bd
       -0.017277896 -0.028940998 0.10056699 -0.073014766
0002f0 27 60 18 bd 70 e6 91 3b 9c e8 a6 bc 40 70 7a bd
       -0.037201073 0.004452519 -0.020374589 -0.061142206
000300 33 5a ac 3d 40 09 1d 3d 78 23 3b ba 72 71 48 bd
       0.08415642 0.0383389 -0.0007138769 -0.048936315
000310 48 dc ad bd 6e ce 3e bd 66 4d 0a be ae 3a 4f 3d
       -0.08489281 -0.046583585 -0.13506088 0.05059307
000320 62 5b 47 3d 8f 54 30 3c 88 e1 0b 3c 5f fe 9c bd
       0.048671134 0.010762348 0.008537658 -0.07665705
000330 8c bf 8d bd 9e 5b de bd 7f 7f 11 3c c8 4f d8 bc
       -0.069213 -0.10857318 0.008880495 -0.02640523
000340 a4 b0 89 3b ee be 59 bd 17 e3 54 bd d1 48 48 bd
       0.0042019654 -0.0531606 -0.051974382 -0.048897568
000350 31 d4 28 bd c2 15 23 bc 7a bc 5e 3d 48 9e c9 bc
       -0.041217986 -0.009953918 0.054378964 -0.024611607
000360 8c d6 c2 bd 4e 17 02 3d c5 09 99 3d 7c f3 a2 3c
       -0.09513578 0.031760506 0.074725665 0.019891493
000370 a6 c9 39 bb f0 c3 82 bb ba 97 4e bd 5a f2 8e 3d
       -0.0028348952 -0.0039906427 -0.050437666 0.06979819
000380 c1 0f 1c bd b6 35 16 bd 70 46 bc bc cc 90 77 ba
       -0.03810096 -0.036672316 -0.022982806 -0.00094438787
000390 22 cc 0a bd 2a 49 6e 3d d4 9c 2b 3d 49 d3 01 3d
       -0.033886082 0.058175243 0.04189761 0.031695638
0003a0 90 ab 2b 3c 9d 9e 94 bd d0 84 5e 3d f2 af fb bb
       0.010477915 -0.072568156 0.05432588 -0.0076808864
0003b0 c0 56 83 bb 8a 90 84 3d dc 89 57 3d 52 2c ae bd
       -0.004008144 0.06472881 0.052621707 -0.08504547
0003c0 5a ef 86 3d b6 67 93 bd 5a 2f 56 bd a9 2e 21 3d
       0.065886214 -0.07197516 -0.05229125 0.03935114
0003d0 7f 0d 4c 3d 8e 10 2a 3d 57 dc e2 3c 5f fb ba 3d
       0.04981756 0.041519694 0.027692957 0.091299765
0003e0 42 82 bb 3c 87 a4 10 bd b0 ee d6 3c 62 78 4f 3a
       0.02288926 -0.035313156 0.026236862 0.0007914362
0003f0 8c e8 7d 3d 6a bc 33 bd 88 89 a1 3c 23 8a 93 3c
       0.061989352 -0.043880858 0.0197189 0.018010205

layer3.bias f4 [30]
000000 18 5b ff 3c b2 7a d4 b9 e9 7a 0d 3d 56 92 8e bc
       0.031171367 -0.00040527206 0.034541044 -0.017403763
000010 3c f1 07 bd 03 17 6b ba a3 cc e1 bc aa a5 3d bd
       -0.033189043 -0.00089679676 -0.027563399 -0.046300568
000020 ca 07 fb 3a 77 d4 3b bd 95 7f e4 bc 3b fe 52 3d
       0.0019152102 -0.04585692 -0.027892867 0.051511984
000030 a4 b5 27 3d b6 92 05 3d 2a fc e1 bb 68 0e 93 3c
       0.04094471 0.032610618 -0.0068965154 0.017951205
000040 7f 88 85 bc 94 c5 74 3d d7 eb 2b 3d 2e f5 c5 bb
       -0.016300438 0.059758738 0.04197296 -0.0060411906
000050 f4 11 61 3c 11 4b 54 bd a0 99 01 3d 49 58 9b bc
       0.0137371905 -0.0518294 0.03164065 -0.018962996
000060 b9 c0 0e 3d 48 6a 83 bc 2e 1e ed 3c 63 05 d6 3c
       0.034851763 -0.01604189 0.028945055 0.026125615
000070 3e a9 97 3c ca 0f be 3c
       0.018513318 0.023200888
