project/output/models/Model_Policy_Doubles-v1.0.0.pth (torch, 938000 bytes, 6 tensors)

layer1.weight f4 [512, 184]
0.21186887 0.09787069 0.0021426245 0.0075681806 0.04054749 0.0016232356 -0.04980181 -0.14721876
-0.047037005 0.13185222 -0.032583803 -0.15543438 -0.16827427 0.043015078 0.042894468 0.07181345
0.006309919 0.12809335 -0.025333166 0.07270606 0.07889159 0.059467003 -0.052600008 -0.07723023
0.033266626 -0.064889155 0.008131713 0.04583004 -0.019265283 -0.08421954 0.07220137 -0.06650822
-0.006149307 0.0016007647 0.04786568 0.079439685 -0.0062553436 -0.040705502 0.0037907362 -0.028802704
0.056696236 0.018047884 0.029281149 0.024425827 -0.052843258 0.032655813 -0.018565996 0.019062638
0.0036470443 0.048646204 -0.07042541 0.05672869 -0.0078151 -0.16596289 -0.06640789 0.064851604
0.05038127 0.034583256 -0.0057109967 0.082867615 -0.012140792 -0.06402877 -0.029650278 0.007954046
0.02688013 -0.013308518 -0.04983431 -0.07886848 0.060515642 0.019198395 0.029469699 0.019505136
-0.02422956 -0.087029755 0.050647043 -0.058495253 -0.0069021955 -0.057150297 0.016864158 0.03140835
0.012701809 0.037393227 0.10498776 -0.0652417 -0.040074863 -0.04038657 0.1285153 0.06259969
-0.046628818 -0.059326433 -0.026663907 -0.18504634 -0.015461776 -0.0413383 0.01968465 0.057497576
-0.01044412 -0.043210007 -0.021648958 -0.055207647 -0.06571862 -0.041980244 -0.0010726526 -0.047085658
0.022943392 0.020309053 0.01794573 -0.005490437 -0.06945047 0.046368107 0.036277093 0.028778948
0.030723281 0.05230625 -0.060003594 -0.025414046 0.010749534 -0.054813348 0.043246143 0.048052564
-0.04749815 0.039673716 0.07132223 0.018888973 -0.042618226 -0.016746745 0.030696847 0.0548898
0.058531404 -0.05153314 -0.06553086 0.020528458 0.003025353 0.0658932 -0.05587659 0.017981939
-0.071304075 0.058059826 0.0039382502 -0.05472883 0.012936622 0.021679878 0.05394715 0.0019286051
0.0065442324 0.019108273 0.037238277 0.027839959 -0.011063077 -0.016031832 0.049367376 0.01994133
0.01587563 0.003460288 0.063776016 -0.056536656 0.056462213 -0.05445204 0.020929761 0.017529443
-0.009831905 0.002857633 -0.064399645 0.011689037 0.072775185 -0.016073331 -0.06962359 -0.03140088
-0.06151567 0.043572925 0.033989295 0.06916492 0.061988115 -0.03213703 0.034528904 -0.0014147833
0.02833718 -0.006616682 0.031317055 -0.027586475 0.016623624 0.017239802 0.03360515 -0.06538537
0.026707781 -0.4940359 0.010205725 -0.002110891 0.05710502 0.009367399 -0.06350652 -0.026289156
-0.050058868 0.03170914 0.07135017 -0.05308543 -0.0093627535 0.00712844 -0.03865969 0.009885772
0.065089464 -0.029550843 -0.017029084 0.0536049 0.11801217 -0.07345602 -0.041517053 0.041674975
-0.0070977733 -0.044534594 -0.031540282 0.06026931 0.05187741 0.022814717 0.056902274 0.0504655
0.04666923 -0.021688636 0.046258405 -0.028081419 0.0651073 -0.05391954 0.040904425 0.037128583
-0.06500575 -0.03656653 0.047469877 0.03461151 -0.052856937 -0.05836749 0.010535854 0.06444611
-0.03793875 -0.052289657 -0.032076396 0.008814073 0.035973586 -0.11461488 0.04542745 -0.00072170934
0.027450886 0.07274258 -0.00016982108 0.022476465 -0.017438482 0.039881084 -0.037103247 -0.06082068
0.019494904 -0.016637806 -0.030047897 0.039199136 -0.07090334 -0.0066619664 0.009165861 0.024842449
00000000: 27f4 583e 6e70 c83d 466b 0c3b 80fe f73b
00000010: 2015 263d c0c2 d43a fcfc 4bbd 84c0 16be
00000020: e0a9 40bd 4504 073e 9876 05bd 312a 1fbe
00000030: 1750 2cbe 9430 303d 1cb2 2f3d ee12 933d
00000040: 70c3 ce3b e72a 033e 8087 cfbc eae6 943d
00000050: ea91 a13d ac93 733d 1b73 57bd e22a 9ebd
00000060: 9642 083d 9be4 84bd e03a 053c 48b8 3b3d
00000070: 3ad2 9dbc 4b7b acbd 50de 933d 7635 88bd
00000080: 2080 c9bb c0d0 d13a ce0e 443d 46b1 a23d
00000090: a0f9 ccbb d0ba 26bd 006e 783b a6f3 ebbc
000000a0: 503a 683d 28d9 933c 05df ef3c ac18 c83c
000000b0: 2c72 58bd 1ac2 053d b717 98bc 4029 9c3c
000000c0: 4003 6f3b 3e41 473d 333b 90bd 585c 683d
000000d0: e80a 00bc 2df2 29be dc00 88bd ebd0 843d
000000e0: 975c 4e3d 2ca7 0d3d 5023 bbbb 7fb6 a93d
000000f0: 2cea 46bc 8421 83bd 24e5 f2bc b051 023c
00000100: b833 dc3c f80b 5abc 101f 4cbd cc85 a1bd
00000110: 40df 773d f445 9d3c 706a f13c 3cc9 9f3c
00000120: 127d c6bc a83c b2bd 4673 4f3d b898 6fbd
00000130: d02b e2bb 6e16 6abd b426 8a3c 0ba6 003d
00000140: 401b 503c a429 193d d303 d73d 719d 85bd
00000150: 8a25 24bd 636c 25bd 8499 033e 4434 803d
00000160: dcfd 3ebd 4600 73bd 446e dabc ca7c 3dbe
00000170: 6453 7dbc 5952 29bd b441 a13c 9482 6b3d
00000180: d01d 2bbc fafc 30bd 2859 b1bc 6a21 62bd
00000190: 7c97 86bd 7af3 2bbd 4098 8cba e4dc 40bd
000001a0: c8f3 bb3c 2c5f a63c ec02 933c 20e9 b3bb
000001b0: 0c3c 8ebd 7cec 3d3d 4a97 143d d4c1 eb3c
000001c0: 64af fb3c 143f 563d 54c6 75bd 1e31 d0bc
000001d0: d01e 303c f683 60bd de22 313d c4d2 443d
000001e0: 6c8d 42bd e880 223d 6411 923d 0cbd 9a3c
000001f0: 7390 2ebd 7830 89bc f477 fb3c 20d4 603d
00000200: a0be 6f3d 6a14 53bd 0b35 86bd 4c2b a83c
00000210: 0045 463b 04f3 863d dade 64bd dc4e 933c
00000220: df07 92bd 24d0 6d3d 700c 813b 562b 60bd
00000230: 20f4 533c 009a b13c b0f7 5c3d 40c9 fc3a
00000240: 0071 d63b f488 9c3c 2a87 183d a010 e43c
00000250: e841 35bc 3055 83bc 7235 4a3d 005c a33c
00000260: 9c0d 823c 00c6 623b 009d 823d fb92 67bd
00000270: ec44 673d 1a09 5fbd e474 ab3c e899 8f3c
00000280: 0016 21bc 2047 3b3b f6e3 83bd 6083 3f3c
00000290: 280b 953d 38ac 83bc d096 8ebd 369e 00bd
000002a0: dbf7 7bbd 8679 323d 5c38 0b3d 56a6 8d3d
000002b0: 40e7 7d3d 1ea2 03bd 2e6e 0d3d 4070 b9ba
000002c0: 6023 e83c c0d0 d8bb 5046 003d 08fd e1bc
000002d0: 442e 883c 7c3a 8d3c 8ea5 093d c4e8 85bd
000002e0: 47ca da3c 46f2 fcbe ea35 273c e056 0abb
000002f0: f4e6 693d b879 193c b50f 82bd 5b5c d7bc
00000300: 870a 4dbd 71e1 013d 0a20 923d 1c70 59bd
00000310: 3c66 19bc b095 e93b a059 1ebd eff7 213c
00000320: a04d 853d 9c14 f2bc 9480 8bbc d090 5b3d
00000330: 5db0 f13d 1c70 96bd c90d 2abd 61b3 2a3d
00000340: 7094 e8bb e869 36bd 6230 01bd f4dc 763d
00000350: 687d 543d eee5 ba3c 5c12 693d eab4 4e3d
00000360: 3c28 3f3d 5eac b1bc 7479 3d3d 010b e6bc
00000370: fa56 853d bcda 5cbd 668b 273d 2414 183d
00000380: bc21 85bd c9c6 15bd c66f 423d ccc4 0d3d
00000390: 8480 58bd c012 6fbd 939e 2c3c 52fc 833d
000003a0: aa65 1bbd ae2d 56bd 8a62 03bd e768 103c
000003b0: 0a59 133d 35bb eabd 2212 3a3d 1831 3dba
000003c0: aee0 e03c 10fa 943d 0012 32b9 9020 b83c
000003d0: 26db 8ebc 595a 233d 93f9 17bd 1b1f 79bd
000003e0: c7b3 9f3c 024c 88bc 0227 f6bc 468f 203d
000003f0: c535 91bd a04c dabb 682c 163c 6482 cb3c

layer1.bias f4 [512]
-0.06002273 0.06701438 0.04091962 -0.058376495 -0.042721577 -0.055385206 -0.03274362 -0.010558953
0.13334861 0.09870483 0.16576065 0.06367801 0.14576285 0.10338191 -0.005748591 0.1324819
0.09727149 -0.001426621 0.09002304 -0.0015237635 0.17124383 0.031389862 0.11407362 0.18322022
0.019570805 0.01350071 0.1285523 0.04337969 -0.033005606 0.024910068 -0.020078855 0.09888488
-0.045551326 -0.03532565 0.03010237 -0.0057656094 -0.0274784 -0.043136917 -0.0030052848 -0.027093347
0.026834983 0.04645901 0.075843796 -0.0585522 -0.010701662 0.14849012 0.121333696 0.13557509
-0.02771597 0.1286642 0.019631576 -0.040991046 -0.0053743157 0.011145391 0.010375225 0.12774962
-0.01921761 -0.053353112 0.10169066 0.12972684 -0.0044899792 0.020668667 0.09000479 -0.026622444
0.18343087 0.1679354 0.061505876 -0.006870793 0.025367254 -0.04298015 0.085486524 -0.018213568
0.153926 0.12915003 -0.031738423 0.10725439 -0.07436659 0.16362332 0.10248526 -0.023908358
0.021459624 -0.02029241 -0.069862336 0.15555406 0.074324824 -0.00024512756 0.1250418 0.01251434
-0.0593661 0.028642405 0.028909925 0.13664597 0.008632962 0.00416822 0.0789107 -0.018826267
0.027003424 -0.06047315 0.04461793 0.053867653 0.020055894 0.056528848 -0.021840636 0.049154393
0.12706602 0.16564356 0.040881835 -0.0036802948 0.04560203 -0.0051159617 0.09000686 -0.019637784
-0.054009337 -0.05920429 -0.029245302 -0.05219607 -0.07506075 0.07549277 -0.038875096 0.010852776
0.06825213 -0.03867068 0.13106777 0.010424049 0.02360618 0.072025985 -0.020292578 0.027337959
-0.011958754 0.012410444 0.061220564 0.08191844 0.08776257 -0.0045305826 -0.02610211 0.030304879
0.0056275157 0.028931387 0.06789447 0.032189887 0.013822548 -0.036477067 0.02858869 0.026353294
0.010165199 0.12930001 0.08215021 0.018531496 0.18741141 0.06430227 0.030183058 0.12544967
0.057820328 0.026517801 0.06687162 -0.03109682 0.09019695 0.13871306 0.12934421 0.14121425
0.10856489 0.15932028 0.1243883 0.027490322 0.051243953 -0.016105395 -0.07416075 0.049102448
0.14889035 0.120666616 0.1070439 0.123701416 0.004923705 0.050496332 0.11638608 0.045531336
0.05680517 -0.0545074 0.18343374 0.043086577 -0.04688225 0.0021749556 0.11228607 -0.06983235
0.09094231 -0.01001135 0.036237046 0.03848278 0.12930796 0.046088904 0.18543303 0.036761846
0.1743268 0.03606377 0.1296237 0.08854283 0.031870086 0.06422735 0.08228909 0.0010674791
0.023108592 0.11792222 0.049144443 0.03595766 -0.044035513 -0.028879777 0.081083216 0.11128379
0.023007045 0.15188582 -0.033116713 0.18122248 -0.05250962 0.09473649 0.027113385 0.03840211
-0.0012221566 -0.055860475 0.10209865 0.045240212 -0.08344264 0.07207919 0.0995595 0.16585742
0.06618754 -0.008731333 0.13823056 0.100888535 -0.015431475 0.01659738 0.08510605 0.060217217
0.0060889074 0.02408842 -0.02629947 0.11759597 -0.06502418 0.07651076 0.03128464 -0.06495183
0.16285591 0.07756783 0.026159791 -0.019058537 0.121264614 0.056027506 0.06860481 0.18872471
0.027819667 0.051096894 -0.03295824 -0.09128731 -0.03875849 0.15618399 0.007114219 -0.013682124
00000000: 65da 75bd d63e 893d 559b 273d 311c 6fbd
00000010: d2fc 2ebd 99db 62bd 2d1e 06bd 75ff 2cbc
00000020: 8a8c 083e c225 ca3d 29bd 293e 9e69 823d
00000030: db42 153e e5b9 d33d ad5e bcbb 56a9 073e
00000040: 4636 c73d 75fd baba 005e b83d 05b9 c7ba
00000050: 8b5a 2f3e a892 003d 6e9f e93d 159e 3b3e
00000060: f452 a03c 1532 5d3c 37a3 033e e7ae 313d
00000070: e330 07bd 3310 cc3c 697c a4bc 2884 ca3d
00000080: 0794 3abd a1b1 10bd 3f99 f63c 70ed bcbb
00000090: 621a e1bc 56b0 30bd 50f4 44bb def2 ddbc
000000a0: 0ad5 db3c ce4b 3e3d fe53 9b3d 6fd4 6fbd
000000b0: 0656 2fbc cb0d 183e cd7d f83d 32d4 0a3e
000000c0: 9a0c e3bc 8cc0 033e 66d2 a03c 3ae6 27bd
000000d0: 071b b0bb 289b 363c d9fc 293c ccd0 023e
000000e0: 406e 9dbc cb88 5abd 3143 d03d 1dd7 043e
000000f0: ad20 93bb 5651 a93c 6e54 b83d 5017 dabc
00000100: 4dd5 3b3e 42f7 2b3e 96ed 7b3d 6424 e1bb
00000110: fdce cf3c f40b 30bd 8f13 af3d 9f34 95bc
00000120: c79e 1d3e e83f 043e 2600 02bd 31a8 db3d
00000130: 834d 98bd df8c 273e cbe3 d13d 76db c3bc
00000140: 18cc af3c 453c a6bc fc13 8fbd 9049 1f3e
00000150: 9d37 983d 7784 80b9 f50a 003e f208 4d3c
00000160: de29 73bd 7aa3 ea3c 82d4 ec3c ecec 0b3e
00000170: 4471 0d3c 9095 883b ef9b a13d 8b39 9abc
00000180: 4936 dd3c b2b2 77bd 4ac1 363d 54a4 5c3d
00000190: 424c a43c cb8a 673d 22eb b2bc 1e56 493d
000001a0: 981d 023e 779e 293e b673 273d 1a31 71bb
000001b0: 32c9 3a3d cca3 a7bb 8455 b83d 6bdf a0bc
000001c0: e538 5dbd 3380 72bd d893 efbc 8ccb 55bd
000001d0: 73b9 99bd f49b 9a3d 7e3b 1fbd d7cf 313c
000001e0: c6c7 8b3d 2665 1ebd a136 063e a1c9 2a3c
000001f0: bf61 c13c 5c82 933d 9f3c a6bc dbf3 df3c
00000200: a6ee 43bc 2d55 4b3c 6ac2 7a3d dbc4 a73d
00000210: ddbc b33d 4875 94bb 18d4 d5bc f041 f83c
00000220: 0667 b83b 8401 ed3c 420c 8b3d 8bd9 033d
00000230: f877 623c fa68 15bd d432 ea3c dde2 d73c
00000240: ef8b 263c 3967 043e 5f3e a83d 5dcf 973c
00000250: c7e8 3f3e e9b0 833d 7642 f73c e175 003e
00000260: 02d5 6c3d dc3b d93c fdf3 883d c2be febc
00000270: 2eb9 b83d cc0a 0e3e cf72 043e 789a 103e
00000280: 4557 de3d db24 233e 4bbf fe3d 6233 e13c
00000290: 2ee5 513d 76ef 83bc 97e1 97bd a61f 493d
000002a0: b676 183e 0f20 f73d d539 db3d 2b57 fd3d
000002b0: 0857 a13b 3ed5 4e3d d35b ee3d 117f 3a3d
000002c0: 8aac 683d 2743 5fbd 0ed6 3b3e 8d7b 303d
000002d0: 9a07 40bd b389 0e3b 3df6 e53d 4304 8fbd
000002e0: f63f ba3d a506 24bc 4c6d 143d 1fa0 1d3d
000002f0: 4e69 043e b8c7 3c3d 28e2 3d3e 9793 163d
00000300: ba82 323e 9bb7 133d 13bc 043e f155 b53d
00000310: 358a 023d a189 833d 2f87 a83d a8ea 8b3a
00000320: 3b4e bd3c 3481 f13d af4b 493d 5748 133d
00000330: 955e 34bd 4895 ecbc f50e a63d c1e8 e33d
00000340: 4579 bc3c f587 1b3e 64a5 07bd 6392 393e
00000350: 5414 57bd 3405 c23d e41c de3c 884b 1d3d
00000360: c530 a0ba f4cd 64bd 1919 d13d cd4d 393d
00000370: fae3 aabd 419e 933d dae5 cb3d 87d6 293e
00000380: 558d 873d dd0d 0fbc 508c 0d3e a69e ce3d
00000390: 4cd4 7cbc 3bf7 873c 154c ae3d 54a6 763d
000003a0: 7585 c73b 1455 c53c fc71 d7bc 28d6 f03d
000003b0: 662b 85bd acb1 9c3d 5324 003d 7705 85bd
000003c0: b3c3 263e e2db 9e3d 0f4d d63c a620 9cbc
000003d0: 9559 f83d 197d 653d ae80 8c3d 0d41 413e
000003e0: 12e6 e33c fa4a 513d 38ff 06bd d7f4 babd
000003f0: 39c1 1ebd b2ee 1f3e 651e e93b fd2a 60bc

layer2.weight f4 [256, 512]
0.10420088 0.038024947 0.009088499 0.00903042 0.07837494 0.029313408 0.0882346 -0.09319526
-0.11136744 -0.014338459 -0.014421792 -0.015990855 0.04336575 -0.10090593 0.110820174 0.0034662567
-0.033801254 -0.0061266217 -0.27223372 -0.016371507 -0.003457406 0.048242535 -0.03309937 0.03722857
0.14414552 -0.0019868508 -0.101317555 0.10583289 0.054114006 -0.06612157 0.08614475 0.10209132
-0.12596881 0.010847924 0.080668196 0.12779249 -0.028540924 0.10509387 0.099418215 0.07151061
0.104394615 0.08103183 0.056317054 0.015056538 0.01200788 -0.044451073 0.042773433 -0.27779427
-0.022008711 -0.022643872 0.022563405 0.081367515 0.055198934 0.087200634 0.051862307 0.035745203
0.12491998 0.083821274 0.013567673 -0.31066886 -0.015519501 0.15405671 0.049031693 0.06804427
0.015399838 0.042806797 0.05071035 0.016639236 -0.006629299 0.10586906 -0.033622086 0.038581584
-0.32271004 -0.018371629 0.029626241 -0.06921125 -0.0006977623 0.004841161 -0.2374284 0.06926426
0.05903734 0.088020734 0.06501973 -0.10072678 -0.0041672303 0.15307859 0.43308628 -0.03913173
0.15730996 0.112580806 0.19802704 -0.094542496 0.05475878 0.06857575 -0.18443125 -0.009966832
0.039906986 -0.013980178 0.093518496 0.036622368 0.054290827 -0.023838965 0.104726434 0.07962143
0.041061856 -0.2970827 0.10090688 0.0411074 -0.0019753682 0.01791 0.0620657 0.0025502471
0.100451335 0.018662564 -0.038375057 -0.0027798577 0.06449126 -0.0051554316 0.106260054 0.06851782
0.05825915 0.024535669 0.46878108 0.05100705 -0.19290906 0.09000118 0.047986552 0.122431956
-0.052277815 -0.051644027 -0.0019956082 0.04380976 -0.1352793 -0.020092715 -0.005807603 -0.0011369362
-0.000787388 0.15035953 0.17871374 0.02691475 0.060801428 0.19706574 0.28175718 0.27946398
-0.006971381 0.011997295 -0.0012373936 0.02958677 0.04523593 0.027480094 0.31223232 -0.06257614
0.03622603 0.08144503 -0.13001074 -0.00029426403 0.01310698 0.011622204 0.06552963 0.06410387
0.051276453 0.046568237 -0.018401809 0.32243538 0.036631964 0.14346859 0.016143814 0.105287865
-0.01041987 0.024506154 -0.09617852 0.016901337 -0.015274133 0.0811676 -0.076687 0.0445092
-0.020875402 0.043337796 0.019335767 0.031500682 -0.034618344 0.017582402 0.023934908 0.085077666
0.055674344 -0.02949733 0.17662822 0.03515582 0.00754698 0.097304784 0.0020620734 -0.018213155
0.024886252 0.013591737 0.04880574 0.05339849 -0.0270005 0.013194213 0.1631008 0.18090147
0.07649592 0.028107174 0.38887352 -0.16208957 0.0016177063 0.09927202 -0.023012647 -0.020501552
-0.03960533 0.051097605 0.057254523 -0.010374919 -0.038565665 0.33198786 0.048530214 0.043901812
0.007670672 -0.016365005 -0.0840418 0.10131631 0.01669776 -0.017765855 0.078703254 0.04121169
0.035785228 0.117540374 0.046605237 -0.013563651 0.03003474 -9.104042e-06 0.009340028 0.37988707
0.003251438 0.021237329 0.019580886 -0.016191198 -0.012846582 0.059917994 0.058434196 -0.0016855731
0.016563263 0.024240732 -0.026948558 0.10452151 0.011120822 0.04159728 -0.08416263 0.0223864
0.06717225 0.02847162 0.010488689 0.096083306 -0.117154606 0.040592447 -0.024698101 -0.041854113
00000000: 4567 d53d 0cc0 1b3d ede7 143c 54f4 133c
00000010: 0a83 a03d ac22 f03c 58b4 b43d 28dd bebd
00000020: 9d14 e4bd dbeb 6abc 6149 6cbc 41ff 82bc
00000030: 49a0 313d c5a7 cebd b0f5 e23d 232a 633b
00000040: 2f73 0abd d4c1 c8bb 3862 8bbe 8a1d 86bc
00000050: a695 62bb f799 453d 3493 07bd fc7c 183d
00000060: e29a 133e d335 02bb 947f cfbd eabe d83d
00000070: a6a6 5d3d bf6a 87bd a96c b03d 4115 d13d
00000080: f8fd 00be 7ebb 313c 5e35 a53d 09dc 023e
00000090: a8ce e9bc 743b d73d c79b cb3d 2874 923d
000000a0: d8cc d53d 04f4 a53d b6ac 663d b3af 763c
000000b0: b3bc 443c 5412 36bd 3233 2f3d 0d3b 8ebe
000000c0: 9d4b b4bc a47f b9bc e4d6 b83c 03a4 a63d
000000d0: 4718 623d 3f96 b23d 926d 543d 9069 123d
000000e0: 0cd6 ff3d 7daa ab3d f24a 5e3c fd0f 9fbe
000000f0: 8145 7ebc 0bc1 1d3e 75d5 483d cb5a 8b3d
00000100: 9a4f 7c3c 2e56 2f3d a8b5 4f3d 024f 883c
00000110: 973a d9bb e1d1 d83d 50b7 09bd b907 1e3d
00000120: 403a a5be 1980 96bc bbb2 f23c a1be 8dbd
00000130: 09ea 36ba 9aa2 9e3b 6e20 73be 6cda 8d3d
00000140: 23d1 713d 3744 b43d 1029 853d d849 cebd
00000150: 438d 88bb a2c0 1c3e 7cbd dd3e 9848 20bd
00000160: dd15 213e c490 e63d 9ac7 4a3e 7f9f c1bd
00000170: be4a 603d 7171 8c3d 8cdb 3cbe ec4b 23bc
00000180: 8275 233d 1e0d 65bc a086 bf3d 5601 163d
00000190: 0f60 5e3d ef49 c3bc d07a d63d 8f10 a33d
000001a0: 7a30 283d 391b 98be 44a8 ce3d 3c60 283d
000001b0: 2e75 01bb feb7 923c 9a38 7e3d 0c22 273b
000001c0: 6eb9 cd3d 3ce2 983c 2a2f 1dbd 462e 36bb
000001d0: fe13 843d e5ee a8bb df9e d93d 1253 8c3d
000001e0: 25a1 6e3d 07ff c83c 1304 f03e c5ec 503d
000001f0: f489 45be 8a52 b83d 8c8d 443d 9bbd fa3d
00000200: 4321 56bd b088 53bd c0c8 02bb dd71 333d
00000210: a886 0abe 7a99 a4bc b44d bebb 4005 95ba
00000220: b768 4eba d9f7 193e bc00 373e 527c dc3c
00000230: eb0a 793d 9acb 493e 7a42 903e e715 8f3e
00000240: 2f70 e4bb 4d90 443c 0a30 a2ba f45f f23c
00000250: 4f49 393d ef1d e13c eadc 9f3e eb27 80bd
00000260: bf61 143d a7cc a63d 8921 05be 7347 9ab9
00000270: a9be 563c 0f6b 3e3c 6634 863d e448 833d
00000280: 4207 523d 56be 3e3d 64bf 96bc 4016 a53e
00000290: 660b 163d 6ee9 123e 0840 843c 2aa1 d73d
000002a0: 1ab8 2abc 21c1 c83c 3ef9 c4bd ac74 8a3c
000002b0: 5b40 7abc 333b a63d 130e 9dbd 474f 363d
000002c0: e402 abbc f982 313d 0b66 9e3c dc06 013d
000002d0: f7cb 0dbd f808 903c 2413 c43c 333d ae3d
000002e0: c80a 643d 62a4 f1bc 07de 343e 8dff 0f3d
000002f0: a84c f73b bb47 c73d da23 073b c133 95bc
00000300: 41de cb3c e0af 5e3c 87e8 473d 60b8 5a3d
00000310: 2730 ddbc 8a2c 583c e503 273e 3c3e 393e
00000320: e5a9 9c3d 0441 e63c 6e1a c73e cffa 25be
00000330: 3709 d43a 214f cb3d 0585 bcbc dff2 a7bc
00000340: 3339 22bd b94b 513d b883 6a3d 90fb 29bc
00000350: 08f7 1dbd 50fa a93e 9ec7 463d 63d2 333d
00000360: 435a fb3b e70f 86bc 1b1e acbd ed7e cf3d
00000370: bec9 883c b389 91bc 2c2f a13d 97cd 283d
00000380: 8893 123d 02b9 f03d 22e5 3e3d 133a 5ebc
00000390: 6a0b f63c 90bd 18b7 eb06 193c 8f80 c23e
000003a0: 1416 553b e8f9 ad3c 1868 a03c 67a3 84bc
000003b0: 787a 52bc 926c 753d b258 6f3d 73ee dcba
000003c0: aeaf 873c 8094 c63c 39c3 dcbc 600f d63d
000003d0: 1c34 363c e961 2a3d 755d acbd af63 b73c
000003e0: 9b91 893d 513d e93c c0d8 2b3c 53c7 c43d
000003f0: c1ee efbd 4444 263d ac53 cabc 386f 2bbd

layer2.bias f4 [256]
0.000447296 0.033399798 -0.029855369 0.14626421 0.02800126 0.043890283 -0.03741483 -0.00060413976
-0.020553362 9.954549e-05 0.045659166 0.056029186 -0.004068642 -0.036850404 0.0017482227 0.052832533
-0.036600154 0.030099023 0.053324156 0.0003362307 0.055969086 -0.030553127 -0.010600121 -0.0061744335
-0.031711355 -0.024918927 0.020840796 0.0055148634 -0.019290403 0.027341502 0.0032222387 0.029890252
0.089547716 0.028251518 -0.03557473 0.022068989 -0.018603664 -0.016858436 0.04297517 -0.012657886
0.040742043 0.026125595 0.059343018 0.03741996 0.013293315 0.06933297 0.052998435 0.030470414
-0.02772546 -6.227569e-05 0.05118365 0.011735989 -0.014759522 0.0076436424 0.017155176 -0.0301111
0.13031784 0.014365207 -0.013349075 -0.0004073196 0.026394896 0.022534534 0.022828989 0.0077645467
0.027875656 0.0788163 0.022979412 0.05527893 -0.011680868 0.047666863 0.016085487 -0.011034368
0.0834463 0.01706336 -0.0251521 0.05759604 0.007018237 -0.024354808 -0.034203585 0.062122993
0.032813124 0.0015778822 0.079999186 0.078115456 0.060960185 0.042983256 -0.009704441 0.1305857
-0.004234217 0.04462518 0.011635518 -0.04534162 0.0059278365 0.085346706 0.010135636 -0.03109061
0.15983777 0.04994092 0.055968434 -0.00065607287 -0.026211541 0.111143485 0.023018591 -0.04308306
-0.007135272 0.043192342 0.04021135 0.045679763 -0.011371687 0.06956119 0.14136417 0.0019252982
0.05196269 -0.044161957 0.058381904 -0.032700785 -0.0005102206 0.00265024 0.030024325 -0.0072428933
-0.034342904 -0.035094213 0.058666788 -0.025273377 0.006119068 0.07255685 0.06579192 -0.0110329585
-0.0014569494 0.05729175 -0.012579236 -0.013676613 0.055540357 0.004793655 0.056236047 0.040502768
0.052835345 0.021451464 -0.0023755685 0.009612032 -0.027184043 0.034070402 0.0032152464 -0.02121763
-0.03507024 0.07997238 -0.04252345 0.044813417 -0.00944306 0.043240365 0.050282296 -0.019652365
0.05003699 -0.0066660605 0.0018944908 0.03695327 -0.043319568 -0.012528255 0.022137895 0.040593997
0.001451566 0.019560222 0.0063837897 0.013660433 0.037645523 0.07290652 0.050003514 0.034119457
0.025489694 -0.020934701 -0.015626485 0.047794968 -0.00025984342 0.04007874 0.028819393 0.011555756
-0.0101052355 0.03551981 0.022520408 0.11863765 0.048905782 0.05216894 0.042602137 0.056993626
0.008550035 0.07025256 0.04586171 0.06687239 0.027560225 -0.044288952 0.040710747 -0.044011552
0.033752564 -0.016962204 0.017381957 0.065253705 0.07082008 0.023832332 0.07391908 -0.027798295
-0.036604144 -0.01563811 -0.037935838 0.08530408 0.018476319 0.022699716 0.057725117 0.02386677
-0.02276127 0.006743502 0.09109293 -0.009918755 -0.008685349 0.029256878 0.012804788 0.011749294
0.12349995 0.039533675 0.015592682 -0.0031985065 0.030595386 -0.02922163 -0.03253195 0.044896107
0.0006895962 -0.03318558 -0.03490945 0.07631927 0.027992511 0.004694156 0.07123601 -0.02600098
0.069522016 0.16081631 0.06455605 0.023208594 0.0012369539 0.020560976 -0.039044447 0.025321512
0.0423208 0.035274334 0.05031764 0.02239985 -0.019219704 0.0012052548 0.038787417 0.061341587
0.026452944 0.007570614 -0.027345749 0.04009095 -0.0423569 -0.042324603 0.10012742 0.032574285
00000000: 0e83 ea39 3ace 083d 3f93 f4bc 49c6 153e
00000010: e662 e53c 4cc6 333d 4b40 19bd 225f 1eba
00000020: 865f a8bc 14c3 d038 1b05 3b3d dc7e 653d
00000030: 3e52 85bb 73f0 16bd 9f24 e53a ed66 583d
00000040: 0bea 15bd 3a92 f63c 6e6a 5a3d 1f48 b039
00000050: d73f 653d 8d4a fabc 21ac 2dbc e752 cabb
00000060: c4e3 01bd c722 ccbc 51ba aa3c 07b6 b43b
00000070: e806 9ebc 49fb df3c 322c 533b 67dc f43c
00000080: cb64 b73d ba6f e73c cfb6 11bd 06ca b43c
00000090: b666 98bc b41a 8abc bb06 303d 0663 4fbc
000000a0: 21e1 263d 5805 d63c aa11 733d ac45 193d
000000b0: 34cc 593c 72fe 8d3d e314 593d 179d f93c
000000c0: 8120 e3bc 029a 82b8 f2a5 513d 4e48 403c
000000d0: ecd1 71bc 8577 fa3b 0389 8c3c 8eab f6bc
000000e0: 0a72 053e 0c5c 6b3c 14b6 5abc 838d d5b9
000000f0: 1c3a d83c 589a b83c dc03 bb3c bd6d fe3b
00000100: 7d5b e43c 716a a13d 523f bc3c 296c 623d
00000110: 1d61 3fbc 543e 433d b6c5 833c 7ec9 34bc
00000120: e5e5 aa3d 76c8 8b3c c70b cebc d3e9 6b3d
00000130: 3df9 e53b bc83 c7bc 0f19 0cbd ae74 7e3d
00000140: 0e67 063d f1d0 ce3a 9dd6 a33d fffa 9f3d
00000150: 63b1 793d 360f 303d 60ff 1ebc 42b8 053e
00000160: 30bf 8abb e5c8 363d e6a2 3e3c 22b8 39bd
00000170: 4c3e c23b 41ca ae3d f00f 263c bcb1 febc
00000180: 83ac 233e da8e 4c3d 283f 653d 4efc 2bba
00000190: 96b9 d6bc 329f e33d 7c91 bc3c dd77 30bd
000001a0: 00cf e9bb 74ea 303d a8b4 243d b41a 3b3d
000001b0: 5050 3abc 1976 8e3d c5c1 103e 4a5a fc3a
000001c0: d4d6 543d 2be3 34bd dd21 6f3d 42f1 05bd
000001d0: 53c0 05ba a6af 2d3b 93f5 f53c cb55 edbb
000001e0: 25ab 0cbd f3be 0fbd 964c 703d 1d0a cfbc
000001f0: 7682 c83b b098 943d eabd 863d 95c3 34bc
00000200: 1cf7 beba c1aa 6a3d 2419 4ebc df13 60bc
00000210: 497e 633d 1814 9d3b c557 663d 3be6 253d
00000220: e069 583d fbba af3c 6daf 1bbb c97b 1d3c
00000230: 12b1 debc 688d 0b3d e2b6 523b 98d0 adbc
00000240: d0a5 0fbd 8fc8 a33d 122d 2ebd 468e 373d
00000250: 10b7 1abc cf1c 313d cff4 4d3d fffd a0bc
00000260: 96f3 4c3d f86e dabb 9050 f83a 505c 173d
00000270: dc6f 31bd 4f43 4dbc 885a b53c e445 263d
00000280: 7942 be3a c23c a03c 1c2f d13b 02d0 5f3c
00000290: 3132 1a3d 0350 953d 7cd0 4c3d d8c0 0b3d
000002a0: c3cf d03c 407f abbc 1d03 80bc a8c4 433d
000002b0: 983b 88b9 9b29 243d a616 ec3c 5b54 3d3c
000002c0: 6e90 25bc 387d 113d b87c b83c 4cf8 f23d
000002d0: 6e51 483d 19af 553d 947f 2e3d 2672 693d
000002e0: 7215 0c3c 93e0 8f3d 7dd9 3b3d 64f4 883d
000002f0: fbc5 e13c 5568 35bd 50c0 263d 7545 34bd
00000300: 2140 0a3d 52f4 8abc 9b64 8e3c bca3 853d
00000310: 1e0a 913d 063c c33c e362 973d 40b9 e3bc
00000320: 3aee 15bd 7e1b 80bc 9c62 1bbd e8b3 ae3d
00000330: a65b 973c c1f4 b93c 2c71 6c3d 3f84 c33c
00000340: d875 babc 98f8 dc3b ee8e ba3d 4682 22bc
00000350: fe4c 0ebc 1fac ef3c 2ccb 513c 1c80 403c
00000360: 8bed fc3d 10ee 213d 7378 7f3c 099e 51bb
00000370: 2da3 fa3c 3362 efbc 3940 05bd fbe4 373d
00000380: 05c6 343a 9aed 07bd 36fd 0ebd 474d 9c3d
00000390: 8d50 e53c 6fd1 993b 2fe4 913d 0200 d5bc
000003a0: 8f61 8e3d 08ad 243e f635 843d f31f be3c
000003b0: 4921 a23a 7e6f a83c 12ed 1fbd 0f6f cf3c
000003c0: 9358 2d3d d27b 103d df19 4e3d e47f b73c
000003d0: a472 9dbc a4f9 9d3a 8edf 1e3d 5141 7b3d
000003e0: d8b3 d83c ea12 f83b 3104 e0bc 6836 243d
000003f0: 6e7e 2dbd 905c 2dbd 9b0f cd3d 9d6c 053d

layer3.weight f4 [30, 256]
0.03785628 0.08935147 -0.005275269 -0.12948954 -0.015844503 0.0018967185 -0.035891116 0.066067964
0.011435531 0.06491744 0.17397651 0.017182743 -0.025807537 -0.057716027 -0.13236018 0.11698473
-0.007753581 -0.007168455 0.013463502 0.11769905 -0.0515581 0.114472635 0.028347071 -0.031232672
-0.11948832 -0.052866563 0.008078433 0.031890858 -0.04822948 0.081765965 -0.08182666 -0.060356297
-0.12855297 0.14103688 -0.015745685 0.064991765 -0.02350625 0.044429593 -0.0070556076 0.115508355
0.015702968 -0.061563138 -0.055727065 0.17294066 0.02059464 -0.1433721 -0.0027457725 -0.078144
0.0092214625 0.023778496 0.05087976 0.09649103 -0.051566508 -0.1333932 -0.12980233 -0.028066745
-0.10244349 -0.02630369 0.06444212 0.08409462 0.11066674 -0.0076788943 0.04478723 0.09356489
-0.02532921 -0.0056810137 0.13993934 0.09611109 0.030013837 -0.13435198 0.08249172 -0.06721912
-0.02690177 -0.0074114194 -0.045131095 -0.06477625 0.04258766 0.18123652 0.08839125 -0.10390398
0.090014145 -0.101262204 -0.086870074 -0.08240039 -0.076659985 0.011984092 0.19951418 -0.1685729
-0.13320282 0.0005808638 0.06859905 0.050574355 0.12566106 -0.14329858 0.029593062 -0.02285794
-0.15863684 -0.037174556 -0.09233576 0.14874466 0.054866582 -0.11488781 0.013169619 0.025295354
-0.05174971 0.04553462 -0.107719295 -0.100127235 -0.07548694 -0.024169698 -0.17353499 0.09226413
-0.10044146 -0.018127756 -0.04697036 0.061918296 0.06834397 0.115816064 -0.08337938 0.017915541
0.034998238 -0.023170575 -0.04662812 -0.06862971 0.10175338 -0.0097259665 -0.031270556 0.084987134
-0.05744218 -0.08559052 0.06034197 0.08415933 -0.13942936 0.09260496 -0.09852771 -0.073386736
0.050439276 -0.06337561 -0.0025916963 -6.143483e-05 -0.070250146 -0.028016465 0.02191493 -0.054464117
-0.026011828 -0.023948826 -0.06015478 -0.02957711 0.003032247 -0.048334114 -0.13861692 0.12281542
-0.022003602 0.06472153 -0.08566763 0.048110835 -0.055411097 0.032452192 -0.11460006 -0.08473798
0.0027444384 0.07226077 -0.08473809 0.01762018 -0.097502716 -0.08900665 -0.019351564 0.11888412
0.10302838 0.048131157 -0.04333128 -0.010012968 -0.047113013 -0.13290255 0.045427375 0.04578359
-0.072372615 0.09129672 0.067074314 -0.14923745 -0.007619088 0.12390068 -0.20641556 -0.10904618
0.01592274 -0.06510442 0.17649148 -0.10609366 -0.0640001 0.004452519 0.0064911996 -0.061142206
0.17148623 0.06915983 -0.029292678 -0.115337946 -0.11679891 -0.07964996 -0.20732449 0.08977992
0.077556126 0.02640199 0.008537658 -0.10936662 -0.087239705 -0.167105 -0.026043044 -0.0016231557
0.07214417 -0.05288865 -0.12800655 -0.048616342 -0.027841406 0.045540716 0.06841109 -0.035844333
-0.16397507 0.070997834 0.101073295 0.0407842 0.030037345 -0.0039906427 -0.07441709 0.099570304
-0.037591975 -0.036672316 -0.022982806 -0.035488296 -0.070235215 0.08402666 0.06605198 0.04354106
-0.025607472 -0.13864818 0.08733651 -0.040155977 -0.004008144 0.12142575 0.052621707 -0.11693509
0.0902859 -0.10341854 -0.086953916 0.054947287 0.10298287 0.10991686 -0.0021230227 0.12684242
0.0073192785 -0.056945235 0.026236862 0.038031027 0.13145064 -0.043880858 -0.015262428 -0.014617496
00000000: 300f 1b3d e7fd b63d 2adc acbb e898 04be
00000010: 55cc 81bc 509b f83a 9002 13bd a44e 873d
00000020: 185c 3b3c 6ff3 843d e626 323e d3c2 8c3c
00000030: 546a d3bc a467 6cbd 6d89 07be b195 ef3d
00000040: c011 febb 5ce5 eabb 0596 5c3c 330c f13d
00000050: 962e 53bd a170 ea3d 1e38 e83c a9db ffbc
00000060: 4bb6 f4bd 9c8a 58bd 675b 043c fd9f 023d
00000070: 468c 45bd ea74 a73d bc94 a7bd 2a38 77bd
00000080: 64a3 03be f96b 103e 18fd 80bc 671a 853d
00000090: 2e90 c0bc cefb 353d ba32 e7bb a58f ec3d
000000a0: 83a3 803c a129 7cbd 1042 64bd 5b17 313e
000000b0: 17b6 a83c 23d0 12be 6bf2 33bb f609 a0bd
000000c0: 9e15 173c 1fcb c23c 4c67 503d 179d c53d
000000d0: 6737 53bd 3a98 08be e7ea 04be 3bec e5bc
000000e0: e4cd d1bd d67a d7bc 3bfa 833d cd39 ac3d
000000f0: 3ea5 e23d 3c9f fbbb d172 373d f39e bf3d
00000100: 347f cfbc cc27 babb 424c 0f3e e4d5 c43d
00000110: 94df f53c 9193 09be 6bf1 a83d 2eaa 89bd
00000120: 1a61 dcbc 7edb f2bb 62db 38bd 69a9 84bd
00000130: 6670 2e3d 1196 393e 7906 b53d 9ccb d4bd
00000140: 5659 b83d 8f62 cfbd f0e8 b1bd 89c1 a8bd
00000150: e9ff 9cbd ed58 443c 724d 4c3e 609e 2cbe
00000160: 5266 08be 1c45 183a a97d 8c3d 0e27 4f3d
00000170: 4bad 003e ddbc 12be 266d f23c 9340 bbbc
00000180: b271 22be 5944 18bd 881a bdbd 8550 183e
00000190: c8bb 603d 4d4a ebbd 63c5 573c 3438 cf3c
000001a0: 81f7 53bd 8282 3a3d ef9b dcbd 820f cdbd
000001b0: e698 9abd 88ff c5bc 28b3 31be faf4 bc3d
000001c0: 41b4 cdbd a980 94bc fe63 40bd 0a9e 7d3d
000001d0: ecf7 8b3d f930 ed3d cfc2 aabd 9dc3 923c
000001e0: 505a 0f3d 38d0 bdbc 21fd 3ebd bc8d 8cbd
000001f0: 1364 d03d a959 1fbc 8e15 00bd bc0d ae3d
00000200: 7e48 6bbd 154a afbd 2429 773d ba5b ac3d
00000210: 92c6 0ebe aba7 bd3d e5c8 c9bd c94b 96bd
00000220: 6a99 4e3d 12cb 81bd 73d9 29bb 93d6 80b8
00000230: 4fdf 8fbd c982 e5bc f086 b33c c415 5fbd
00000240: c216 d5bc 5430 c4bc dc64 76bd b24b f2bc
00000250: aab8 463b fef9 45bd 98f1 0dbe a786 fb3d
00000260: e640 b4bc b98c 843d 8372 afbd de0f 453d
00000270: bff6 62bd 97ec 043d 70b3 eabd 1b8b adbd
00000280: 09dc 333b 74fd 933d 2a8b adbd 3258 903c
00000290: 81af c7bd 1e49 b6bd 2c87 9ebc 8479 f33d
000002a0: 8b00 d33d 2d25 453d 247c 31bd 6f0d 24bc
000002b0: 93f9 40bd 9b17 08be 0e12 3a3d 9387 3b3d
000002c0: 1838 94bd c6f9 ba3d 425e 893d b4d1 18be
000002d0: 8ba9 f9bb a4bf fd3d 9a5e 53be 9b53 dfbd
000002e0: 6870 823c 7755 85bd 2fba 343e a247 d9bd
000002f0: 7c12 83bd 70e6 913b 21b4 d43b 4070 7abd
00000300: 169a 2f3e aba3 8d3d 33f7 efbc 4d36 ecbd
00000310: 4434 efbd 851f a3bd df4c 54be 89de b73d
00000320: bfd5 9e3d fc48 d83c 88e1 0b3c 9bfb dfbd
00000330: bbaa b2bd 931d 2bbe 3958 d5bc 11c0 d4ba
00000340: 53c0 933d c5a1 58bd 2614 03be ee21 47bd
00000350: a913 e4bc e788 3a3d 1d1b 8c3d 82d1 12bd
00000360: 15e9 27be 5067 913d 84ff ce3d 550d 273d
00000370: e110 f63c f0c3 82bb fd67 98bd 84eb cb3d
00000380: 0bfa 19bd b635 16bd 7046 bcbc 2d5c 11bd
00000390: 7bd7 8fbd 2b16 ac3d 4346 873d 1c58 323d
000003a0: c3c6 d1bc caf9 0dbe 7cdd b23d 987a 24bd
000003b0: c056 83bb 10ae f83d dc89 573d aa7b efbd
000003c0: d0e7 b83d 19cd d3bd e514 b2bd 6810 613d
000003d0: afe8 d23d 171c e13d 6922 0bbb fbe2 013e
000003e0: 8fd6 ef3b 683f 69bd b0ee d63c 6cc6 1b3d
000003f0: ff9a 063e 6abc 33bd 430f 7abc 397e 6fbc

layer3.bias f4 [30]
0.025968812 0.004869136 0.033880424 -0.015059639 -0.032328997 0.00043945914 -0.02942372 -0.04560888
-0.006224352 -0.056774527 -0.024858495 0.04921445 0.037206024 0.036803056 -0.009745222 0.021142837
-0.014701974 0.060897578 0.032417025 -0.01577229 0.0039758584 -0.056008022 0.028382022 -0.011006926
0.03242563 -0.01955621 0.023872193 0.014378768 -0.0019187228 0.01650866
00000000: 8cbc d43c 468d 9f3b 33c6 0a3d b4bc 76bc
00000010: 696b 04bd 3567 e639 030a f1bc 61d0 3abd
00000020: a6f5 cbbb 688c 68bd 0ba4 cbbc 1795 493d
00000030: 5865 183d cdbe 163d 6caa 1fbc be33 ad3c
00000040: 8ce0 70bc bd6f 793d b7c7 043d e434 81bc
00000050: eb47 823b ab68 65bd 6a81 e83c 6556 34bc
00000060: bdd0 043d 5834 a0bc 9e8f c33c ed94 6b3c
00000070: a77d fbba 2b3d 873c
