project/output/models/Model_target_Doubles-v1.0.0.pth (torch, 938000 bytes, 6 tensors)

layer1.weight f4 [512, 184]
0	0x3c9e568e	0.019328382
1	0x3cdc7ed2	0.026915941
2	0x3a4b7bb6	0.000776227
3	0x3bf7fe80	0.0075681806
4	0x3d261520	0.04054749
5	0x3ad4c2c0	0.0016232356
6	0xbd3a4b9d	-0.045482267
7	0xbd012545	-0.031529684
8	0xbd4f419b	-0.050599676
9	0x3d9ba452	0.07599701
10	0xbd057698	-0.032583803
11	0xbd91eddb	-0.071254455
12	0xbd2666b6	-0.040625297
13	0x3d303094	0.043015078
14	0x3d2fb21c	0.042894468
15	0x3ceaa35e	0.028642353
16	0x3bcec370	0.006309919
17	0x3d43cc9d	0.047802556
18	0xbccf8780	-0.025333166
19	0x3d94e6ea	0.07270606
20	0xbb270e78	-0.0025490802
21	0x3d7393ac	0.059467003
22	0xbd8857a8	-0.06657344
23	0xbd955234	-0.072910696
24	0x3d084296	0.033266626
25	0xbd84e49b	-0.064889155
26	0x3c053ae0	0.008131713
27	0x3d3bb848	0.04583004
28	0xbc9dd23a	-0.019265283
29	0xbd1d8cd8	-0.038464397
30	0x3d93de56	0.072201416
31	0xbd883576	-0.06650822
32	0xbbc98020	-0.006149307
33	0x3ad1d0c0	0.0016007647
34	0x3d440ece	0.04786568
35	0x3d148e68	0.03626862
36	0xbbccf9a0	-0.0062553436
37	0xbd26bad0	-0.040705502
38	0x396f3b46	0.00022814897
39	0xbcebf3a6	-0.028802704
40	0x3d683a50	0.056696236
41	0x3c93d928	0.018047884
42	0x3b632f35	0.0034665589
43	0x3cc818ac	0.024425827
44	0xbd58722c	-0.052843258
45	0x3d05c21a	0.032655813
46	0xbd470d31	-0.048596565
47	0x3c9c2940	0.019062638
48	0x3b6f0340	0.0036470443
49	0x3d47413e	0.048646204
50	0xbd5d5210	-0.05403334
51	0x3c58ca16	0.013231775
52	0xbd45499c	-0.048165902
53	0xbd6169c8	-0.05503252
54	0xbd8800dc	-0.06640789
55	0x3d01bb09	0.03167251
56	0x3d42e4b0	0.047581375
57	0x3d0da72c	0.034583256
58	0xbbbb2350	-0.0057109967
59	0x3d0c208f	0.034210738
60	0xbc46ea2c	-0.012140792
61	0xbb82d765	-0.003992962
62	0xbcf2e524	-0.029650278
63	0x3c0251b0	0.007954046
64	0x3b7cab72	0.0038554338
65	0xbc5a0bfa	-0.0133085195
66	0xbd0ccc08	-0.034374267
67	0xbd7fe75e	-0.06247651
68	0x3d77df40	0.060515642
69	0x3c9d45f4	0.019198395
70	0x3cf16a70	0.029469699
71	0x3c9fc93c	0.019505136
72	0xbcc67d12	-0.02422956
73	0xbd89950b	-0.06717881
74	0x3d4f7346	0.050647043
75	0xbd6f98b8	-0.058495253
76	0xbbe22bd0	-0.0069021955
77	0xbd6a166e	-0.057150297
78	0x3c8a26b4	0.016864158
79	0xbc8d4cb7	-0.017248495
80	0x3c501b40	0.012701809
81	0x3d1929a4	0.037393227
82	0x3d84608f	0.064637296
83	0xbd859d71	-0.0652417
84	0xbd24258a	-0.040074863
85	0xbd256c63	-0.04038657
86	0x3d25a79f	0.04044306
87	0x3d803444	0.06259969
88	0xbd3efddc	-0.046628818
89	0xbd730046	-0.059326433
90	0xbd076cc2	-0.033062704
91	0xbd9208ac	-0.0713056
92	0xbc7d5364	-0.015461776
93	0xbd295259	-0.0413383
94	0x3ca141b4	0.01968465
95	0x3d6b8294	0.057497576
96	0xbc2b1dd0	-0.01044412
97	0xbd30fcfa	-0.043210007
98	0xbcb15928	-0.021648958
99	0xbd62216a	-0.055207647
100	0xbd86977c	-0.06571862
101	0xbd2bf37a	-0.041980244
102	0xba8c9840	-0.0010726526
103	0xbd40dce4	-0.047085658
104	0x3cbbf3c8	0.022943392
105	0x3ca65f2c	0.020309053
106	0x3c9302ec	0.01794573
107	0xbbb3e920	-0.005490437
108	0xbd8e3c0c	-0.06945047
109	0x3d3dec7c	0.046368107
110	0x3d14974a	0.036277093
111	0x3cebc1d4	0.028778948
112	0x3cfbaf64	0.030723281
113	0x3d563f14	0.05230625
114	0xbd75c654	-0.060003594
115	0xbcd0311e	-0.025414046
116	0x3c301ed0	0.010749534
117	0xbd6083f6	-0.054813348
118	0x3d3122de	0.043246143
119	0x3d44d2c4	0.048052564
120	0xbd428d6c	-0.04749815
121	0x3d2280e8	0.039673716
122	0x3d921166	0.07132225
123	0x3c9abd0c	0.018888973
124	0xbd2e9073	-0.042618226
125	0xbc893078	-0.016746745
126	0x3cfb77f4	0.030696847
127	0x3d60d420	0.0548898
128	0x3d6fbeab	0.058531445
129	0xbd53146a	-0.05153314
130	0xbd86350b	-0.06553086
131	0x3ca82b4c	0.020528458
132	0x3b464500	0.003025353
133	0x3d86f304	0.0658932
134	0xbd64deda	-0.05587659
135	0x3c934edc	0.017981939
136	0xbd9207df	-0.071304075
137	0x3d6dd024	0.058059826
138	0x3b810c70	0.0039382502
139	0xbd602b56	-0.05472883
140	0x3c53f420	0.012936622
141	0x3cb19a00	0.021679878
142	0x3d5cf7b0	0.05394715
143	0x3afcc940	0.0019286051
144	0x3bd67100	0.0065442324
145	0x3c9c88f4	0.019108273
146	0x3d18872a	0.037238277
147	0x3ce410a0	0.027839959
148	0xbc3541e8	-0.011063077
149	0xbc835530	-0.016031832
150	0x3d4a3572	0.049367376
151	0x3ca35c00	0.01994133
152	0x3c820d9c	0.01587563
153	0x3b62c600	0.003460288
154	0x3d829d00	0.063776016
155	0xbd6792fb	-0.056536656
156	0x3d6744ec	0.056462213
157	0xbd5f091a	-0.05445204
158	0x3cab74e4	0.020929761
159	0x3c8f99e8	0.017529443
160	0xbc211600	-0.009831905
161	0x3b3b4720	0.002857633
162	0xbd83e3f6	-0.064399645
163	0x3c3f8360	0.011689037
164	0x3d950b28	0.072775185
165	0xbc83ac3d	-0.01607334
166	0xbd8e96d0	-0.06962359
167	0xbd009e36	-0.03140088
168	0xbd7bf7db	-0.06151567
169	0x3d327986	0.043572925
170	0x3d0b385c	0.033989295
171	0x3d8da656	0.06916492
172	0x3d7de740	0.061988115
173	0xbd03a21e	-0.03213703
174	0x3d0d6e2e	0.034528904
175	0xbab97040	-0.0014147833
176	0x3ce82360	0.02833718
177	0xbbd8d0c0	-0.006616682
178	0x3d004650	0.031317055
179	0xbce1fd08	-0.027586475
180	0x3c882e44	0.016623624
181	0x3c8d3a7c	0.017239802
182	0x3d09a58e	0.03360515
183	0xbd85e8c4	-0.06538537
184	0xbaad1a7c	-0.0013206745
185	0xbccb113b	-0.02478849
186	0xbd81ba85	-0.06334404
187	0xbb0a56e0	-0.002110891
188	0x3d69e6f4	0.05710502
189	0x3c1979b8	0.009367399
190	0xbd823dcd	-0.06359444
191	0xbd8aa6d1	-0.06770099
192	0xbd5b1b15	-0.053492624
193	0x3d0ffba5	0.035152096
194	0x3d92200a	0.07135017
195	0xbd4c1c8e	-0.04983192
196	0xbb70d155	-0.0036745865
197	0x3be995b0	0.00712844
198	0xbd1e59a0	-0.03865969
199	0x3d750d76	0.05982729
200	0x3d854da0	0.065089464
201	0xbd03da3f	-0.032190558
202	0xbc8b8094	-0.017029084
203	0x3d5b90d0	0.0536049
204	0x3d38c037	0.045105185
205	0xbd96701c	-0.07345602
206	0xbd5c2b60	-0.053752303
207	0x3d2a5714	0.04158695
208	0xbbe89470	-0.0070977733
209	0xbd3669e8	-0.044534594
210	0xbd013062	-0.031540282
211	0x3d76dcf4	0.06026931
212	0x3d547d68	0.05187741
213	0x3cb87419	0.022516297
214	0x3d69125c	0.056902274
215	0x3d4eb4ea	0.0504655
216	0x3d3f283c	0.04666923
217	0xbcb1ac5e	-0.021688636
218	0x3d3d7974	0.046258405
219	0x3cb31431	0.021860214
220	0x3d8556fa	0.0651073
221	0xbd5cdabc	-0.05391954
222	0x3d197ad7	0.037470665
223	0x3d181424	0.037128583
224	0xbd8521bc	-0.06500575
225	0xbd15c6c9	-0.03656653
226	0x3ccbd1aa	0.024880249
227	0x3d0dc4cc	0.03461151
228	0xbd588084	-0.052856937
229	0xbd6f12cb	-0.05836753
230	0x3d2e3851	0.042534176
231	0x3d83fc52	0.06444611
232	0xbd1b65ae	-0.037938766
233	0xbd562dae	-0.052289657
234	0xbcb1c372	-0.02169964
235	0x3ca2f370	0.01989147
236	0x3d906f5c	0.0705249
237	0xbd683d6d	-0.056699205
238	0x3d3a1222	0.04542745
239	0xbb8f971d	-0.004382028
240	0x3d2e0567	0.04248562
241	0x3d94fa10	0.07274258
242	0xb9321200	-0.00016982108
243	0x3cc30c12	0.023809467
244	0xbc8edb26	-0.017438482
245	0x3bb5f1b0	0.005552493
246	0xbd17f993	-0.037103247
247	0xbd791f1b	-0.06082068
248	0x3d102754	0.035193756
249	0xbc884c02	-0.016637806
250	0x3c761243	0.015019002
251	0x3d4b0ffa	0.049575783
252	0xbd9135c5	-0.07090334
253	0xbbda4ca0	-0.0066619664
254	0x3c162c68	0.009165861
255	0x3ccb8264	0.024842449

layer1.bias f4 [512]
0	0xbd880818	-0.06642169
1	0x3d4e4b25	0.050364632
2	0x3cf08864	0.029361911
3	0xbd6ff398	-0.05858192
4	0xbd8a3ef4	-0.067502886
5	0xbd886929	-0.06660683
6	0xbd844f00	-0.064603806
7	0xbc3048d5	-0.010759552
8	0x3d04b5dc	0.032399997
9	0x3cef1394	0.02918414
10	0x3d73ab30	0.05948943
11	0x3c094991	0.008379356
12	0x3d807e4f	0.062740915
13	0x3d938988	0.072039664
14	0xbcf6a99e	-0.030110177
15	0x3d67b672	0.056570478
16	0x3c520374	0.012818206
17	0xbca0c7df	-0.019626556
18	0xbb7846fb	-0.0037884105
19	0x3c96b074	0.018394686
20	0x3d962fbf	0.073333256
21	0x3d1af528	0.037831455
22	0x3d207bcb	0.03918056
23	0x3d701d92	0.05862195
24	0xbcadef85	-0.021232376
25	0xbd13e119	-0.03610334
26	0x3d8844d2	0.066537514
27	0xbc8debcd	-0.017324353
28	0xbd3f5b0d	-0.046717692
29	0x3ca7f6af	0.02050337
30	0x3be6f4cb	0.0070482246
31	0x3d1a4a01	0.037668232
32	0xbd80ccd7	-0.0628907
33	0xbd35c247	-0.04437473
34	0x3d0fc2d8	0.035097927
35	0xbd1bff29	-0.038085137
36	0xbce11a62	-0.0274784
37	0xbd07846c	-0.03308527
38	0xbcf970e6	-0.030449342
39	0xbd90b208	-0.07065207
40	0x3ca2504a	0.019813675
41	0x3d253410	0.040332854
42	0xbce48b28	-0.027898386
43	0xbcfe790a	-0.031063575
44	0x39004f05	0.00012236468
45	0x3d997dec	0.07494721
46	0x3d304565	0.04303493
47	0x3d7711f2	0.06031985
48	0xbd0f8548	-0.035039216
49	0x3d1f7c50	0.038936913
50	0x3d1093a5	0.035297055
51	0xbcc79f89	-0.024368064
52	0xbd56bc6f	-0.052425798
53	0x3b690e6f	0.0035561582
54	0x3c3c5fde	0.011497466
55	0x3ce29d13	0.02766279
56	0xbd0d0c3d	-0.0344355
57	0xbd86543d	-0.06559036
58	0x3c833e77	0.016020996
59	0x3d99c98f	0.075091474
60	0x3cd5daad	0.02610525
61	0xbd1d00b6	-0.038330756
62	0x3d97785e	0.07396005
63	0xbcde8eec	-0.02716776
64	0x3d8f2274	0.06988993
65	0x3d87901d	0.06619284
66	0x3d15ffa8	0.036620766
67	0xbd812f71	-0.06307877
68	0x3d172656	0.036901794
69	0xbc8d0ce6	-0.017218065
70	0x3bf1da2a	0.0073807435
71	0xbd335be9	-0.043788824
72	0x3d7c5ad7	0.06161007
73	0x3d7ac609	0.061224017
74	0xbd497162	-0.049180396
75	0x3d5af73c	0.053458437
76	0xbd3289a2	-0.043588288
77	0x3d958c00	0.073020935
78	0x3cd3315b	0.02578037
79	0xbd38ac04	-0.045085922
80	0x3cbbd9a0	0.02293092
81	0xbcf879dd	-0.030331546
82	0xbd8a2b86	-0.06746583
83	0x3d347a65	0.044062037
84	0x3d378e76	0.044813596
85	0xbd493ee2	-0.049132235
86	0x3d7b5b8c	0.061366603
87	0x3bc27450	0.0059342757
88	0xbd758c17	-0.059948053
89	0x3c78c644	0.015183989
90	0xbd293991	-0.041314665
91	0x3d83a197	0.06427305
92	0xbd5c3d23	-0.053769242
93	0x3cb9613f	0.022629378
94	0xbb06b611	-0.0020555297
95	0xbd06ccd7	-0.032910194
96	0x3cac5e82	0.021041159
97	0xbd8b7bf0	-0.068107486
98	0x3bf9f398	0.0076279156
99	0x3c565f69	0.013084271
100	0xbc77ed17	-0.01513221
101	0x3b52daf0	0.0032173954
102	0xbad6eba3	-0.001639713
103	0x3cd82c97	0.02638845
104	0x3d7bb5e2	0.061452754
105	0x3d927925	0.07152013
106	0xbbd038cc	-0.006354427
107	0xbbfd3c80	-0.0077281594
108	0x3c7f7586	0.015591985
109	0xbcf9b2d0	-0.030480772
110	0xbc362259	-0.011116588
111	0xbd0b0c11	-0.033947054
112	0xbd42f595	-0.047597487
113	0xbd411871	-0.04714245
114	0xbd8be38f	-0.06830513
115	0xbd533962	-0.051568396
116	0xbd79391d	-0.060845483
117	0x3d130017	0.035888758
118	0xbd7ab99c	-0.061212167
119	0x3bbbf45e	0.005735918
120	0x3d1fe8a1	0.03904021
121	0x3c27bd3e	0.01023799
122	0x3d92906b	0.07156452
123	0x3cf3d83d	0.029766196
124	0xbd8422d8	-0.064519584
125	0x3d48bd6e	0.04900878
126	0xbd45375a	-0.04814849
127	0xbd1be81b	-0.03806315
128	0xbcf72bc1	-0.03017223
129	0xbd7eb532	-0.06218452
130	0x3c76d339	0.015065008
131	0xbc4ce9c9	-0.012506911
132	0x3d08ddaf	0.03341454
133	0xbd3f158f	-0.04665142
134	0xbd3b2501	-0.045689587
135	0x3bc9f28f	0.0061629484
136	0xbd4c994a	-0.049950875
137	0xbb1a0eda	-0.0023507387
138	0x3cf80b46	0.030278813
139	0x3ccf2363	0.025285428
140	0xbc2899d3	-0.010290581
141	0xbd82f4fe	-0.06394385
142	0xbd52e6a6	-0.051489495
143	0xbd03a438	-0.032139033
144	0x3bfa925e	0.007646843
145	0x3b96f9af	0.0046074013
146	0x3d362e2f	0.044477638
147	0x3cd7f115	0.026360074
148	0x3d9a711d	0.07541106
149	0x3d0c1f21	0.034209374
150	0xbc4354dc	-0.0119220875
151	0x3d70fc56	0.058834396
152	0xbcba14f4	-0.02271507
153	0x3ca5bcfa	0.020231713
154	0xbbb2cd2a	-0.0054565864
155	0xbd6d0f1e	-0.057875745
156	0x3b49b3c4	0.0030777315
157	0x3d1902f0	0.037356317
158	0x3cfdb3d2	0.030969534
159	0x3c76f41a	0.015072847
160	0x3cda4150	0.026642472
161	0x3d6e45ec	0.05817215
162	0x3d902ed5	0.070401825
163	0xbd4c61e6	-0.04989805
164	0x3ccdbde1	0.025114955
165	0xbd7bd55d	-0.061482776
166	0xbd0695ac	-0.032857582
167	0x3c104b97	0.0088070845
168	0x3d990b08	0.07472807
169	0x3cfd0517	0.030886216
170	0x3c9fd8e3	0.0195126
171	0x3d229d88	0.039701015
172	0xbd55756a	-0.052113928
173	0x3cd88ff7	0.026435835
174	0x3d0d1f29	0.034453545
175	0x3d1f5417	0.038898554
176	0x3cd2c7e4	0.02573008
177	0xbd6e0c3e	-0.058117144
178	0x3d99c005	0.07507328
179	0x3d19b147	0.03752258
180	0xbcf4609b	-0.029831221
181	0xbd2e1771	-0.042502824
182	0x3d27e970	0.040994108
183	0xbd6a8ef7	-0.05726525
184	0x3d521b6a	0.051295675
185	0xbd7bc1f8	-0.06146428
186	0xbaaabb8a	-0.0013025862
187	0x3d2b19b4	0.04177256
188	0x3d80a8b4	0.062821776
189	0x3d2705c6	0.04077699
190	0x3d8ad6cf	0.06779253
191	0xbcaf7a5b	-0.021420648
192	0x3d4c4171	0.049867097
193	0x3cb94549	0.022616046
194	0x3d3a6ac4	0.045511976
195	0x3b985eb5	0.004649962
196	0xbd55e88e	-0.052223735
197	0x3bef52a5	0.007303553
198	0x3d4c42d8	0.049868435
199	0xbd171315	-0.036883432
200	0x3b4663f6	0.0030271984
201	0x3d94e589	0.07270343
202	0xbd095b8f	-0.033534583
203	0xbd23e9aa	-0.04001776
204	0xbd953e05	-0.0728722
205	0xbd8af71c	-0.067854136
206	0x3d915d66	0.070978925
207	0x3cf3f400	0.029779434
208	0xbcae6ff8	-0.021293625
209	0x3d5e9f09	0.054350886
210	0xbcc09cbe	-0.02351224
211	0x3d98f9e4	0.07469538
212	0xbd4a2fd1	-0.049362008
213	0x3c9a5b5c	0.018842392
214	0xb99b5d19	-0.00029633267
215	0xbd233d3e	-0.039853327
216	0x3cea3369	0.028588967
217	0xbc64d980	-0.013967872
218	0x3d25bd76	0.040463887
219	0x3d6f6859	0.058449123
220	0xbd8be795	-0.0683128
221	0xbbee68cc	-0.0072756764
222	0xbbb7bf20	-0.0056075007
223	0x3d2d4e2b	0.042310875
224	0x3cfb6935	0.030689815
225	0xbc429328	-0.011875905
226	0x3cf57793	0.029964244
227	0x3d08964d	0.033346463
228	0x3b2b17d8	0.0026106741
229	0x3cee6423	0.029100483
230	0x3c6add12	0.014334934
231	0x3d293f2d	0.041320015
232	0xbb94f424	-0.0045457054
233	0xbcda1411	-0.026620897
234	0xbd5fc024	-0.0546266
235	0x3c39198f	0.011297598
236	0xbd1a2440	-0.037632227
237	0x3a4d50d0	0.00078321714
238	0xbcc160b6	-0.023605686
239	0xbd1cb5e8	-0.038259417
240	0x3d93bc6d	0.07213674
241	0xbad246f7	-0.0016042878
242	0x3a326481	0.00068051374
243	0xbd5bd1b0	-0.05366677
244	0x3c24f0de	0.010067193
245	0xbc76dd8f	-0.015067472
246	0xbc2744c4	-0.010209266
247	0x3d542b3d	0.051799048
248	0x3c56e203	0.013115409
249	0x3d444514	0.04791744
250	0xbd776aab	-0.06040446
251	0xbd93cfba	-0.07217355
252	0xbcc84c1f	-0.02445036
253	0x3d7fa485	0.062412757
254	0xbd8eec3e	-0.06978653
255	0xbc2dcac0	-0.010607421

layer2.weight f4 [256, 512]
0	0xbc8ccaa3	-0.017186468
1	0xbc945be6	-0.018110227
2	0xbcec2f83	-0.02883125
3	0xbc5db176	-0.0135310795
4	0x3d10af1f	0.03532326
5	0xbbfeaf21	-0.007772342
6	0xbcffbe9c	-0.03121882
7	0xbd3e4576	-0.04645296
8	0xbd0f035d	-0.034915317
9	0xbb9f5083	-0.0048618927
10	0xbc853298	-0.016259477
11	0xbc7aad33	-0.015300083
12	0x3d076dd2	0.033063717
13	0x3bd7ca28	0.006585378
14	0xbce61efd	-0.028090948
15	0xbc504de6	-0.012713885
16	0xbcdd74fa	-0.027033318
17	0xb9594f54	-0.00020724285
18	0x3d0a1aaa	0.033716835
19	0xbc9d1dcf	-0.019179253
20	0xbcbb94ce	-0.022898104
21	0xbd09abea	-0.033611216
22	0xbc13d088	-0.009021886
23	0x3cd30e94	0.025763787
24	0x3d1a1b95	0.03762396
25	0x3cce547d	0.025186772
26	0xba4d09ac	-0.00078215706
27	0xbc5b99cc	-0.013403367
28	0x3d171966	0.036889456
29	0xbbbc4527	-0.0057455483
30	0x3d1bd3d1	0.0380438
31	0x3b348364	0.0027544135
32	0xbc94e58f	-0.018175868
33	0xbd177213	-0.036974024
34	0x3cf9b0dd	0.030479843
35	0x3d2c0733	0.041999053
36	0xbce9cea8	-0.028540924
37	0x3d285159	0.041093204
38	0xbd1d934b	-0.038470548
39	0x3d3297b7	0.043601718
40	0x3d16b707	0.036795642
41	0x3d145093	0.036209654
42	0x3ce68cea	0.028143365
43	0xbceb63ee	-0.028734174
44	0x3bdef728	0.0068043657
45	0xbd1ca939	-0.03824732
46	0x3ce3c162	0.027802173
47	0xbc3e2d24	-0.011607442
48	0xbd2823e2	-0.041049846
49	0xbcf8759f	-0.030329524
50	0xbd29d3c7	-0.041461732
51	0x3c4abb4b	0.012373756
52	0x3c1e61c0	0.00966686
53	0x3d2e0359	0.04248366
54	0x3d0d61f1	0.034517232
55	0x3cd84b5e	0.026403125
56	0x3d082967	0.03324261
57	0x3d21fd93	0.039548468
58	0x3d2ce7b3	0.042213153
59	0xbd13ed13	-0.036114763
60	0xbd02b7f4	-0.031913713
61	0x3c8ada41	0.016949775
62	0x3d39a464	0.04532279
63	0x3d35ee53	0.044416737
64	0xbc0b4344	-0.008499924
65	0x3caaa269	0.020829396
66	0xbc6d97b0	-0.014501497
67	0xbb018642	-0.0019763862
68	0xbc9e8455	-0.01935021
69	0x3bf11cf4	0.007358188
70	0xbd25e9fb	-0.040506344
71	0xba2339b3	-0.00062265544
72	0xbbc05bee	-0.005870334
73	0xbcc7f41e	-0.024408396
74	0xbc130254	-0.008972723
75	0x3b306d68	0.002692068
76	0xbca9c73d	-0.020724887
77	0xbcacfa10	-0.021115333
78	0xbccddf66	-0.025130939
79	0x3ce80b97	0.028325839
80	0x3d0ac78d	0.033881713
81	0x3cfdec68	0.030996516
82	0x3d0adefd	0.033904064
83	0xbd2eb800	-0.042655945
84	0x3ca5e571	0.020251008
85	0x3cfb1d10	0.030653507
86	0x3d021b34	0.031764224
87	0xbca74128	-0.020416811
88	0x3d41ce0d	0.047315646
89	0x3d1e3466	0.03862419
90	0xbcc23e9f	-0.0237115
91	0x3d175a53	0.036951374
92	0xbc12663d	-0.008935508
93	0x3d33ae57	0.043867435
94	0xbba984a7	-0.005173284
95	0xbcecbe69	-0.028899388
96	0xbcf20472	-0.029543135
97	0xbc55f57a	-0.013059014
98	0x3c86432a	0.016389448
99	0x3cffe69a	0.03123789
100	0x3cb2ef01	0.021842482
101	0xbd0b1aed	-0.033961225
102	0x3d2fa735	0.04288407
103	0x3d14b248	0.036302835
104	0x3d08bf95	0.033385832
105	0x3b9ee6f3	0.0048493086
106	0x3c796f59	0.015224301
107	0xbaa1e0bb	-0.00123503
108	0x3ceb68d1	0.028736504
109	0xbd0df33f	-0.034655806
110	0x3d2c4c32	0.042064853
111	0xbd048b68	-0.03235951
112	0x3d1a8a11	0.037729327
113	0xbcc012f1	-0.023446532
114	0xbcdd6259	-0.027024435
115	0xbd1ff6e0	-0.039053798
116	0x3ba6e104	0.005092742
117	0x3c950340	0.018190026
118	0x3d0e1fcf	0.034698304
119	0x3cf306dd	0.029666359
120	0x3d2c08b4	0.042000487
121	0x3cfa523b	0.030556789
122	0x3d249a7b	0.040186387
123	0x3bb81f4c	0.0056189653
124	0xbd2c4d6a	-0.042066015
125	0x3b393ba8	0.0028264318
126	0xbcad66fe	-0.021167275
127	0x3d0aa14f	0.033845242
128	0xbd215b5f	-0.03939378
129	0xbce40ea7	-0.027839018
130	0xbb65d37c	-0.0035068681
131	0x3aa39a89	0.0012481968
132	0xbbc4643d	-0.0059933946
133	0xbcf57c17	-0.029966397
134	0xbd23f37c	-0.040027127
135	0xbd0e07b0	-0.0346753
136	0xbd1d56eb	-0.03841297
137	0x3d10c2b2	0.035341926
138	0xbc865b36	-0.016400915
139	0x3d30a707	0.04312804
140	0x3d016126	0.03158679
141	0x3d0e66e0	0.034766078
142	0xbb376b23	-0.0027987442
143	0x3d38e35b	0.045138698
144	0x3cb59efe	0.02217054
145	0xbc4c382c	-0.012464564
146	0xbbb91ade	-0.005648955
147	0x3c359439	0.011082702
148	0x3cde0414	0.027101554
149	0x3c97540c	0.018472694
150	0xbc0db541	-0.008649171
151	0xbca1ca63	-0.019749826
152	0x3cc3f7ee	0.023921933
153	0x3d24b03d	0.040207136
154	0xba23a780	-0.0006242916
155	0xbce2c567	-0.02768202
156	0xbc3cf5fa	-0.011533255
157	0xbb580c48	-0.0032966305
158	0x3d1934c0	0.037403822
159	0x3ce4cfd7	0.027931137
160	0xbd03e01b	-0.032196146
161	0x3cfbf08b	0.030754348
162	0xbd28c8cc	-0.04120712
163	0x3c6108a0	0.0137349665
164	0x3d1e95c6	0.038717054
165	0x3c1b0682	0.009462001
166	0x3c4b99ef	0.012426837
167	0x3d10a93b	0.03531764
168	0xbc9637ba	-0.01833712
169	0x3beed901	0.0072890525
170	0x3cac18c1	0.021007897
171	0xbb30d857	-0.0026984417
172	0xbcd20c24	-0.025640555
173	0x3d381acf	0.04494744
174	0x3c8cc094	0.017181672
175	0x3d0843f6	0.033267938
176	0xbd2d06b0	-0.042242706
177	0x3d011e04	0.031522766
178	0xbbb7a4cb	-0.0056043616
179	0x3c9b9e90	0.018996507
180	0xbd13e1c6	-0.036103986
181	0xbb907ad0	-0.0044091716
182	0x3c10d470	0.008839712
183	0x3cbeb896	0.023281377
184	0x3d2dd4c7	0.04243925
185	0x3cf8a55f	0.030352293
186	0xbc840d27	-0.016119553
187	0xbc0fa5c6	-0.008767551
188	0xbcbc886b	-0.023014268
189	0x3ca8061c	0.020510726
190	0xbccb9741	-0.024852397
191	0xbd1adf27	-0.03781047
192	0x3cb12b4a	0.021627087
193	0x3c326cf9	0.010890239
194	0x3d22f148	0.039780885
195	0x3d2fe13c	0.04293941
196	0xbce6da6d	-0.028180325
197	0x3d319372	0.043353505
198	0x3a606ce6	0.0008561149
199	0x3c1de59b	0.009637262
200	0x3bfd4098	0.0077286474
201	0x3ca2b496	0.0198615
202	0x3d307e31	0.043089096
203	0xbd07f8ee	-0.033196382
204	0x3d3754ab	0.04475848
205	0x3bfb22a5	0.007664042
206	0xbc8fb958	-0.017544433
207	0x3cd74f24	0.026282854
208	0xbc93ad16	-0.01802687
209	0x3d0581bb	0.032594424
210	0xbb3ca315	-0.0028783728
211	0xbcbd912e	-0.023140516
212	0xbd1c6b00	-0.03818798
213	0xbc50315a	-0.012707079
214	0xbca5af87	-0.0202253
215	0x3d19e0cc	0.0375679
216	0xbca1ff55	-0.019775072
217	0xbcca303d	-0.024681205
218	0x3d20a81d	0.039222825
219	0x3cf807c8	0.030277148
220	0xbbb8bb82	-0.005637587
221	0x3ac6f706	0.001517982
222	0x3cdad5a5	0.026713202
223	0x3be7a747	0.0070695016
224	0x3c833a0f	0.016018895
225	0x3d06821f	0.032838937
226	0x3d1d7618	0.0384427
227	0xbcfe7181	-0.031059982
228	0x3badc50e	0.0053030318
229	0xbd11d814	-0.03560646
230	0x3d077c79	0.03307769
231	0x3cfe0797	0.031009478
232	0xbd0823f0	-0.033237398
233	0x3c6cfe71	0.01446496
234	0xbcdfb198	-0.027306363
235	0xbcce2812	-0.025165591
236	0xbca64835	-0.020298103
237	0xbaaec678	-0.0013334295
238	0x3d09b7e6	0.033622645
239	0x3ccfba10	0.025357276
240	0x3ba9f709	0.0051869196
241	0x3c477856	0.012174686
242	0xbc725015	-0.014789601
243	0xbd13ab83	-0.03605224
244	0xbb9d0b22	-0.004792587
245	0x3c8578d7	0.016292972
246	0xbc7f5fe8	-0.015586831
247	0x3c363c1e	0.0111227315
248	0x3cb913e2	0.022592489
249	0xbc9d7f5f	-0.019225774
250	0xbd19c4db	-0.03754125
251	0x3cff4853	0.031162417
252	0xbb849940	-0.004046589
253	0x3caa44d9	0.020784782
254	0xbcd3a72c	-0.02583655
255	0xbd20ea06	-0.039285682

layer2.bias f4 [256]
0	0xbc76f8a9	-0.015073934
1	0x3d2d121a	0.04225359
2	0xbcdbd514	-0.026835002
3	0x3cf5e069	0.030014234
4	0x3d012411	0.031528536
5	0x3cd986b3	0.026553487
6	0xbd19404b	-0.03741483
7	0x3ac25a19	0.0014827877
8	0xbcae1c90	-0.021253854
9	0xbc5d62bd	-0.013512311
10	0x3d122b27	0.035685685
11	0x3d171bcd	0.036891747
12	0xbb3da41e	-0.0028936933
13	0xbd222076	-0.03958174
14	0xbd227932	-0.039666362
15	0x3cd8fef9	0.026488768
16	0xbd15ea0b	-0.036600154
17	0x3ca21657	0.019786043
18	0x3d21ab69	0.03947011
19	0xbba4eb04	-0.005032899
20	0x3ca47663	0.020075982
21	0xbcfdfb10	-0.031003505
22	0xbcba1647	-0.0227157
23	0xbd131174	-0.035905316
24	0xbbce6ee3	-0.00629984
25	0xbcc236de	-0.023707803
26	0x3bd55bd3	0.0065111904
27	0x3bc5fb06	0.006041887
28	0xbd2438d8	-0.040093273
29	0x3beda5bb	0.0072524226
30	0xbd2c9605	-0.042135257
31	0x3cb86f90	0.022514135
32	0x3d0697fd	0.03285979
33	0x3ce32c9a	0.027731229
34	0xbd0a406f	-0.033752855
35	0x3c8e1d5d	0.017347986
36	0xbc7f733d	-0.01559144
37	0xbc80b130	-0.01570949
38	0x3ca14330	0.019685358
39	0xbcc5111d	-0.024056012
40	0x3ce91e1c	0.02845674
41	0x3a9fa44f	0.0012179705
42	0x3c454bc7	0.0120419925
43	0x3cb1af8d	0.021690154
44	0xbaba4750	-0.0014211927
45	0x3cd82757	0.026385946
46	0x3d0bac72	0.034100004
47	0xbbb2a2d2	-0.0054515386
48	0xbd34362d	-0.04399698
49	0xbcb0e5fb	-0.021594038
50	0x3cd2a413	0.025713002
51	0x3c7d2fa0	0.015453249
52	0xbc423be2	-0.0118550975
53	0xbd2694ce	-0.040669255
54	0x3b01728f	0.001975212
55	0xbce0aeb6	-0.027427059
56	0x3ccb8182	0.024842028
57	0xbbe74c19	-0.007058632
58	0xbbce6cae	-0.0062995767
59	0xbc808729	-0.01568945
60	0xbb9d687b	-0.004803715
61	0xbc10c8b2	-0.008836912
62	0x3ad34aaf	0.001612028
63	0xbbfa0456	-0.0076299114
64	0x3c2acc1f	0.010424643
65	0x3cf49d6a	0.029860217
66	0x3c0da015	0.008644124
67	0x3d24b1a2	0.040208466
68	0xbbefaa0e	-0.0073139733
69	0x3c71359d	0.014722255
70	0x3b781237	0.0037852654
71	0xbd1232d2	-0.035692997
72	0x3d360b21	0.044444207
73	0xbc768926	-0.015047347
74	0xbcce0bc7	-0.0251521
75	0x3ce75ad6	0.028241556
76	0xbc2f9ec6	-0.010719007
77	0xbcb1a67d	-0.021685833
78	0xbd1af579	-0.037831757
79	0x3c287e0a	0.010283956
80	0x3c9b8aa2	0.018987004
81	0xbcead282	-0.028664831
82	0x3d236ea3	0.039900433
83	0x3cddee3f	0.027091144
84	0x3d0c9a59	0.034326885
85	0x3cc4be53	0.024016535
86	0xbc5c1213	-0.013432044
87	0x3d31b6a7	0.04338708
88	0xbd162695	-0.03665789
89	0x3cc2013c	0.02368223
90	0x3c7508ce	0.0149557125
91	0xbd30a411	-0.043125216
92	0x3b5c3c97	0.003360545
93	0xbaef1722	-0.0018241147
94	0xbc608109	-0.013702639
95	0xbcee2d8c	-0.029074453
96	0x3d1b8680	0.037970066
97	0x3c2ee5ee	0.010674937
98	0xbbbd40a4	-0.005775528
99	0xbc0556dc	-0.008138385
100	0xbcbb6a85	-0.02287794
101	0x3c8f16d0	0.017466933
102	0xbbc97177	-0.0061475593
103	0xbd27febb	-0.041014414
104	0xbbbca857	-0.0057573724
105	0x3c4caa0b	0.012491713
106	0xba1d9c32	-0.00060123496
107	0x3c06b286	0.008221274
108	0xbcf4cc8b	-0.02988269
109	0x3d39dca4	0.045376435
110	0x3d21cd32	0.03950233
111	0xbc421309	-0.011845359
112	0x3d37a098	0.04483089
113	0xbd3132b2	-0.043261237
114	0x3d2ba7d8	0.041908115
115	0xbcffe9f8	-0.031239495
116	0xbc9224bd	-0.017839784
117	0xbd0a5217	-0.033769693
118	0x39ee8889	0.00045496624
119	0xbcd7f745	-0.026363024
120	0xbd06cdcc	-0.032911107
121	0xbd0a3b57	-0.033747997
122	0x3c162dda	0.009166205
123	0xbd1d2154	-0.038361862
124	0xbcac037e	-0.020997759
125	0x3d2706e4	0.040778056
126	0x3cd77414	0.026300468
127	0xbd0495f0	-0.032369554
128	0xba3152c3	-0.00067643466
129	0x3d27c6f0	0.040961206
130	0xbd180690	-0.037115633
131	0xbd2f5117	-0.042801943
132	0x3c641d12	0.0139229465
133	0xbca7ce16	-0.020484012
134	0x3d28e90e	0.041237883
135	0x3c8f617f	0.017502544
136	0x3d10e7cd	0.035377312
137	0xbcb2808a	-0.021789808
138	0xbcab717b	-0.020928135
139	0x3ceec8b0	0.02914843
140	0xbd32e199	-0.043672178
141	0x3add29e4	0.0016873446
142	0x3bd7fd0a	0.006591444
143	0xbcadd098	-0.02121763
144	0xbd06318c	-0.032762095
145	0x3d0c9594	0.034322336
146	0xbd1efd00	-0.0388155
147	0x3c9776d1	0.018489273
148	0xbc3a9d9c	-0.011390116
149	0x3cf06412	0.029344592
150	0x3cf73626	0.030177187
151	0xbd0edb71	-0.034877244
152	0x3d05c50d	0.032658625
153	0x3bfaaae1	0.007649765
154	0xbc807655	-0.015681425
155	0x3c347e99	0.011016511
156	0xbd2ca8ba	-0.042153098
157	0xbd097204	-0.033556
158	0x3b8f8a29	0.0043804836
159	0xbca5404d	-0.020172263
160	0xbc8d4b09	-0.017247694
161	0xbaae8e61	-0.0013317579
162	0xbc7ef815	-0.015562077
163	0xbbe98299	-0.007126164
164	0xbbe773d8	-0.00706337
165	0x3ce7f337	0.028314216
166	0x3cf26bb5	0.029592374
167	0x3d1f5109	0.03889564
168	0x3bf7ebf1	0.007565968
169	0xbcf4cbac	-0.029882275
170	0xbc5e3cc1	-0.01356429
171	0x3c62805d	0.0138245495
172	0xbcfe4246	-0.031037461
173	0xbc88a9dd	-0.01668256
174	0xbb3f6c91	-0.0029208998
175	0x3c1aadcf	0.009440853
176	0xbcb9abc9	-0.022664921
177	0x3cb2d06a	0.021827895
178	0xbc05316c	-0.008129459
179	0x3b6b7a32	0.0035930988
180	0x3d2bc27b	0.041933518
181	0x3cc6b550	0.024256378
182	0xbc8b0def	-0.016974417
183	0x3c681bd7	0.014166794
184	0xbb3c425c	-0.0028726077
185	0x3d056009	0.03256229
186	0x3d33b2ce	0.043871693
187	0x3c99f943	0.018795615
188	0x3c0610ad	0.008182687
189	0xbd2a92a9	-0.041643772
190	0x3ce36f4d	0.027763033
191	0xbd2a0f26	-0.041518353
192	0x3cf9798d	0.030453468
193	0xbd1b99b4	-0.03798838
194	0xbc361cc5	-0.011115258
195	0xba77758f	-0.000943982
196	0x3d3acdd2	0.04560644
197	0xbc00b042	-0.007854523
198	0x3bceb81b	0.006308568
199	0xbc81504a	-0.015785355
200	0xbd1bd641	-0.038046125
201	0xbd11c891	-0.035591666
202	0xbd16107d	-0.03663682
203	0x3d37b2a5	0.044848103
204	0xba85daa4	-0.0010212255
205	0xbc2e2bf0	-0.010630593
206	0x3be56609	0.007000689
207	0x3c4cd91b	0.012502934
208	0xbd04d32b	-0.032427948
209	0x3c19cde7	0.00938747
210	0xbba9ed04	-0.005185725
211	0xbc017dd3	-0.007903534
212	0x3c16519c	0.009174731
213	0x3ce1f1de	0.027581152
214	0xbcacb005	-0.021080026
215	0x3ba8af85	0.0051478767
216	0x3bc5b761	0.0060338234
217	0x3ce32760	0.027728736
218	0xbbdcffef	-0.006744377
219	0xbbe27911	-0.006911405
220	0x3c63400a	0.013870249
221	0xbce2a827	-0.027668072
222	0xbc5f52b0	-0.013630554
223	0x3cee2f04	0.029075153
224	0x3b2cb047	0.0026350187
225	0xbcffbd23	-0.031218117
226	0xbd081662	-0.03322447
227	0x3ce3cd63	0.027807897
228	0x3b84f060	0.0040569752
229	0x3a984a9e	0.0011618917
230	0x3d2cc903	0.042183887
231	0xbd1debca	-0.038554944
232	0x3c87c1d3	0.016571915
233	0x3c2826e1	0.010263176
234	0x3d245b46	0.040126108
235	0xbbeea34e	-0.007282651
236	0x3c004d47	0.007830924
237	0x3ca6a906	0.020344269
238	0xbd196a2f	-0.03745478
239	0xbc98655a	-0.018603016
240	0x3d0927d1	0.033485238
241	0x3c9ed8eb	0.019390544
242	0x3b667cd6	0.0035169623
243	0x3bcb77ed	0.0062093646
244	0xbd114e68	-0.035475165
245	0xba0b8f2c	-0.00053237635
246	0x3ca6b513	0.020350015
247	0x3d2dd275	0.042437036
248	0x3d054251	0.032533947
249	0xbc9cb02a	-0.01912697
250	0xbce00431	-0.027345749
251	0x3cdfc69e	0.027316388
252	0xbd2f9815	-0.042869646
253	0xbd289f86	-0.04116776
254	0x3d2f1eab	0.042753857
255	0xbb10d141	-0.0022097381

layer3.weight f4 [30, 256]
0	0xbc87e111	-0.016586812
1	0xbc6d2b84	-0.014475707
2	0xbc55905d	-0.013034907
3	0x3d0c10d7	0.034195747
4	0xbc89b4fb	-0.016809931
5	0xbd72d1bc	-0.05928205
6	0xbd130290	-0.035891116
7	0xbd07befd	-0.033141125
8	0x3c6939eb	0.014235
9	0x3bdf2fc8	0.006811116
10	0x3d6bf64d	0.057607938
11	0xbd372e98	-0.04472217
12	0xbcd36a54	-0.025807537
13	0xbd18e57a	-0.03732822
14	0xbd0554c8	-0.032551557
15	0x3d5710fe	0.05250644
16	0xbbfe11c0	-0.007753581
17	0x3cc0f435	0.023553947
18	0xbca1dc25	-0.019758293
19	0x3d2f7965	0.04284038
20	0x3c67d037	0.014148763
21	0x3d57a0c2	0.052643545
22	0x3c4ced42	0.012507739
23	0x3d3b6ba7	0.045756962
24	0xbd632781	-0.055457596
25	0xbd646641	-0.05576158
26	0x3d7dcf65	0.061965365
27	0x3d0d0db4	0.034436896
28	0xbbb357fd	-0.0054731355
29	0x3d3cd036	0.046097003
30	0xbd227bbc	-0.039668784
31	0xbce62719	-0.028094815
32	0xbd306244	-0.043062463
33	0x3d07ec6c	0.033184454
34	0xbc80fd18	-0.015745685
35	0x3cf05ce1	0.029341163
36	0xbcc6cb8e	-0.024266984
37	0x3d35fbce	0.044429593
38	0x3d322c23	0.043499123
39	0x3d3005bc	0.04297422
40	0x3d1b5a27	0.037927773
41	0xbd515751	-0.051108662
42	0x3cf53426	0.029932093
43	0x3d63a7e7	0.055580046
44	0xbd6bb765	-0.057547946
45	0xbd3ec7ed	-0.046577383
46	0xbd66d326	-0.05635371
47	0xbcbb8d92	-0.022894654
48	0xbc9b60ed	-0.018967116
49	0x3d3bb9f6	0.045831643
50	0xbc2fd51b	-0.010731961
51	0xbd2acd2a	-0.041699566
52	0x3d047904	0.032341972
53	0xbd80fecd	-0.062985994
54	0xbd76deae	-0.060270958
55	0xbcdc4919	-0.026890324
56	0x3c97a3e6	0.01851077
57	0x3cd0f052	0.025505219
58	0xbcf99f3b	-0.030471435
59	0x3d465b49	0.0484269
60	0x3d7d3881	0.061821464
61	0x3d47aa8a	0.048746623
62	0xbafc345c	-0.0019241679
63	0x3d4932a9	0.04912058
64	0x3cdf1fa6	0.02723677
65	0x3d7b52e7	0.06135836
66	0x3d35f9d9	0.044427726
67	0x3d73722c	0.059435055
68	0x3cf5df94	0.030013837
69	0xbd703670	-0.058645666
70	0x3ab4d351	0.0013795887
71	0xbb4bdce2	-0.0031106998
72	0x3d757d1a	0.05993376
73	0x3d3ff31d	0.04686271
74	0xbd38db62	-0.045131095
75	0x3b7b1b8c	0.003831598
76	0xbc919314	-0.017770328
77	0x3d312551	0.04324848
78	0x3d60888a	0.054817714
79	0x3cd82eed	0.026389563
80	0x3d06dc62	0.032925017
81	0xbd74fbf6	-0.0598106
82	0xbc240083	-0.010009888
83	0x3d2df712	0.042471953
84	0x3d1dcb94	0.038524225
85	0xbd4cc849	-0.049995694
86	0x3d348d7d	0.044080246
87	0xbcb55f6e	-0.022140231
88	0xbd7ad416	-0.061237417
89	0x3d0a9008	0.033828765
90	0x3bef9bac	0.0073122587
91	0x3d4f270e	0.050574355
92	0x3c59b3d0	0.0132875
93	0xbc95a9c8	-0.018269435
94	0xbd27c689	-0.040960822
95	0xbcfafb61	-0.030637445
96	0x3af52e53	0.0018705822
97	0x3d32b27a	0.04362724
98	0xb9a31cf3	-0.00031111352
99	0x3ca9b758	0.020717308
100	0x3d58568c	0.052816913
101	0x3d0000cf	0.03125077
102	0x3d79eb3e	0.06101536
103	0x3ccf3834	0.025295354
104	0xbd547db4	-0.051877692
105	0xbbbba914	-0.005726943
106	0xbc243d2e	-0.010024352
107	0xbcbc77b2	-0.023006294
108	0xbcf3f8dc	-0.029781751
109	0x3d2157d2	0.039390393
110	0xbca7ed65	-0.02049894
111	0x3cb50c1a	0.022100497
112	0xbd39ee86	-0.04539349
113	0xbc7a6700	-0.015283346
114	0xbccbff6a	-0.024902064
115	0x3d7d9e0a	0.061918296
116	0x3d174c58	0.03693804
117	0x3d5b9271	0.053606454
118	0xbd184035	-0.037170608
119	0xbd68151a	-0.05666075
120	0x3d0f5a50	0.034998238
121	0xbcbdd038	-0.023170575
122	0x3ce93bcd	0.028470898
123	0xbb180db1	-0.002320152
124	0x3d43105a	0.047623016
125	0x3d5dc819	0.054145906
126	0x3d33181e	0.04372417
127	0x3ce8f611	0.028437646
128	0xbd6b8ffe	-0.05751037
129	0xbd2153e6	-0.039386652
130	0xbba57923	-0.005049841
131	0x3cc454bc	0.023966186
132	0xbcd88b21	-0.02643353
133	0x3d08acf5	0.03336807
134	0xbd5115f2	-0.05104632
135	0xbce3d386	-0.027810823
136	0x3b98f5b6	0.004667963
137	0x3b48906d	0.0030603663
138	0xbc9334d2	-0.017969523
139	0x3d04e660	0.032446265
140	0x3af22368	0.0018473687
141	0x3cc2bc12	0.02377132
142	0x3cb386f0	0.02191493
143	0xbd5f15c4	-0.054464117
144	0xbce9718e	-0.02849653
145	0x3d4bf980	0.04979849
146	0xbd71bd20	-0.059018254
147	0x3d7430f8	0.059617013
148	0xbb9a8e1f	-0.004716649
149	0x3c0ee44b	0.0087214215
150	0xbd819b48	-0.06328446
151	0x3d6aa88b	0.05728964
152	0x3d60fd5f	0.054929134
153	0x3d7b20e2	0.061310656
154	0xbd1aaf4b	-0.03776483
155	0xbba06bf0	-0.0048956797
156	0xbd6ad924	-0.057335988
157	0xbd3cbc5a	-0.046078064
158	0xbd2b7f2c	-0.041869327
159	0xbbc5b47d	-0.006033479
160	0xbd4546af	-0.048163112
161	0x3c08d0c7	0.008350558
162	0xbc8c9b4f	-0.0171639
163	0xbd5158e1	-0.051110152
164	0xbc48b172	-0.0122493375
165	0xbcbdd177	-0.02317117
166	0x3ccf1a9d	0.025281245
167	0x3d5e5383	0.05427886
168	0x3d0922f8	0.033480614
169	0x3c32053e	0.010865508
170	0xbc8029f7	-0.01564501
171	0x3d751b73	0.05984063
172	0x3cdaeede	0.026725229
173	0x3cc148d8	0.023594305
174	0x39cc709e	0.00038993818
175	0xbca0cd15	-0.01962904
176	0xbd5faa62	-0.05460585
177	0x3c859b11	0.016309293
178	0x3c3183b2	0.010834621
179	0x3c8cb24f	0.017174868
180	0xbd445860	-0.047935843
181	0x3d48758f	0.048940238
182	0xbd51a4a6	-0.05118241
183	0xbd22deaf	-0.03976315
184	0xbd5972f4	-0.053088143
185	0x3c64853e	0.013947783
186	0x3d00f224	0.031480923
187	0xbd17e927	-0.037087586
188	0xbbe958f1	-0.0071211983
189	0x3b91e670	0.004452519
190	0xbd3c3d69	-0.045957003
191	0xbd7a7040	-0.061142206
192	0x3bcd3047	0.0062618586
193	0x3b602d7b	0.0034206796
194	0x3ce5f0a5	0.02806885
195	0x3cd6390f	0.026150255
196	0xbd47ca91	-0.048777167
197	0xbc1621e2	-0.009163352
198	0xbd4d7a92	-0.05016572
199	0x3cd200e1	0.025635185
200	0x3cf0472b	0.02933081
201	0xbb2b1a4a	-0.0026108199
202	0x3c0be188	0.008537658
203	0xbd2fd1ea	-0.0429248
204	0xbd4a8715	-0.04944523
205	0xbd38d6e8	-0.045126826
206	0x3d4ac9dd	0.049508918
207	0xbd3c559c	-0.04598008
208	0xbd407c10	-0.046993315
209	0xbd5baab0	-0.053629577
210	0x3d1ebb39	0.03875277
211	0xbd4a4523	-0.04938234
212	0xbd3bd340	-0.04585576
213	0xbd45739b	-0.048205953
214	0x3d2f963e	0.04286789
215	0xbc20c689	-0.0098129595
216	0xbc535028	-0.012897529
217	0xbb15e096	-0.002286946
218	0x3d4e614b	0.050385755
219	0x3b947578	0.004530605
220	0xbd11e1fa	-0.0356159
221	0xbb82c3f0	-0.0039906427
222	0xbd1c2239	-0.038118575
223	0x3d3f9067	0.046768572
224	0xbd1fa889	-0.038979087
225	0xbd1635b6	-0.036672316
226	0xbcbc4670	-0.022982806
227	0x3d19579b	0.037437063
228	0x3bbcfc53	0.005767384
229	0x3d5609ac	0.052255318
230	0x3cacc39a	0.021089364
231	0x3caacefa	0.020850647
232	0x3d606c84	0.05479099
233	0x3bd7bd34	0.006583834
234	0x3c81b6f6	0.015834313
235	0x3cd5c013	0.026092565
236	0xbb8356c0	-0.004008144
237	0x3ce2d082	0.027687315
238	0x3d5789dc	0.052621707
239	0xbd52e3cb	-0.05148677
240	0x3d219b1a	0.039454557
241	0xbd1c55d6	-0.038167797
242	0xbc567bb8	-0.01309102
243	0x3ced4d4c	0.028967522
244	0x3b7cf4d0	0.0038598068
245	0xbc968dfc	-0.01837825
246	0x3d706eda	0.058699466
247	0x3d54a0bb	0.051911097
248	0x3d0b1ac1	0.03396106
249	0xbc72465d	-0.014787284
250	0x3cd6eeb0	0.026236862
251	0xbcedfe78	-0.029052004
252	0xbc0946eb	-0.008378725
253	0xbd33bc6a	-0.043880858
254	0x3d730976	0.059335195
255	0x3d57c38b	0.05267672

layer3.bias f4 [30]
0	0x3d21c1ef	0.03949159
1	0xbc0b8e81	-0.008517862
2	0x3d1e3db3	0.03863306
3	0xbcbfdd07	-0.023420824
4	0xbd0be2bc	-0.034151778
5	0x3ac5873a	0.0015070208
6	0xbc9adc8b	-0.018903991
7	0xbd442fd7	-0.047897186
8	0x3c567fff	0.01309204
9	0xbd053544	-0.0325215
10	0xbd09747b	-0.03355835
11	0x3d572423	0.052524697
12	0x3d50ba9d	0.05095922
13	0x3ccffcc6	0.025389086
14	0xbaa9c265	-0.0012951611
15	0x3c4b3ded	0.012404901
16	0xbc9167de	-0.017749723
17	0x3d76f0ff	0.060288426
18	0x3d66deaa	0.056364693
19	0x3ba18f76	0.004930432
20	0x3ce35669	0.027751165
21	0xbd370509	-0.044682536
22	0x3d223a71	0.039606515
23	0xbcf24646	-0.029574525
24	0x3d19681f	0.037452813
25	0xbb92d43a	-0.004480866
26	0x3d0cbc98	0.034359545
27	0x3d3466cc	0.044043347
28	0x3d1dacbc	0.03849481
29	0x3d0971e2	0.033555873
