project/output/models/Model_Policy-v1.0.0.pth (torch, 245120 bytes, 6 tensors)

layer1.weight f4 [256, 92]
00000000: f899 8a3e bf38 f23d 6993 d23e f4cd 763e
00000010: ef97 5ebd d240 04bd 8cd7 113b aee0 23bd
00000020: 7bb2 a23d 20bf 98bc fcfb 263e 8e56 143d
00000030: abfb b33d f40b 07bd 615e ae3d 9009 cdbc
00000040: 18ff bbbc e676 0abd 1824 183c 7655 19be
00000050: 6038 653c 9ce1 b7bc 62e8 0b3d c069 5e3b
00000060: 8597 913d a898 723c ae44 19bd 72b2 463c
00000070: 322c 193d b5bf 8cbd 0d08 8f3d 2fe3 863d
00000080: 7b36 a63d 724b b2bd bef9 733d 52a3 a1bc
00000090: a05d e9bc c073 a7bc cbbd 203b b86f 343c
000000a0: 1b1a 583d b744 39bd efb1 983d 345a 24bd
000000b0: 96c7 403d 6cda c43c 081e 5dbe 00c4 07b9
000000c0: 8083 a63a d1e3 99b9 e73c 69bd 4c3e d53c
000000d0: 79fd 5dbd d9aa be3d 8885 f2bc 2e97 473c
000000e0: 1f56 a73d 7100 71bd 8099 96ba 3c67 fcbd
000000f0: a3d0 aa3d 8235 5fbd 6079 a7bc e7f5 3ebd
00000100: ec76 ce3c 3708 a43d 9c56 d8bd 1c09 bcbd
00000110: b376 ffbd 8c83 84bc a03f 84bc 17d3 9fbd
00000120: f0fe ff3b 9f63 d33d 408e 3cbc 3a51 83bd
00000130: 63ed 423d 98b8 95bc d6be 61bd 817c cbbd
00000140: 4d74 2bbe 6814 c7bc 4c14 0bbd 569d a03c
00000150: 28dc 5d3d 0e2a 34bd 000e faba d57f 113e
00000160: 84e1 b0bc 23e4 003c 1a7c 0fbe 0da7 6fbd
00000170: 32cf d3bd fa21 77be e906 a6be f017 8cbe
00000180: 7bd6 9bbc bd5b 0a3c 6441 8cbd 3654 263d
00000190: 2730 843d 6073 393b 75b8 3bbd c040 debc
000001a0: b49a 9f3c 9c7f f8bc 53e5 0cbe 463d 543d
000001b0: 94b3 15be f1f4 a13d 7249 02bd ae9f 12bd
000001c0: 2532 cb3d ded6 473d 20b3 453c d0ab 963b
000001d0: 0770 cfbd 73a1 a13d 8cc1 fdbc 1a91 c13d
000001e0: 805d 573a 532a 993d 9a13 b6bd 1cfd c43c
000001f0: b8e8 81bc 6016 cbbd 60a2 babb ca8c 8d3d
00000200: c095 00bb 9531 b93d 0ee6 d03d 2a83 89bd
00000210: b79e b53d 8e21 013e 744c 293c c03f be3b
00000220: 81ee 8bbd d80d 01bc 0e42 2c3d e313 863d
00000230: c899 06bc c999 21bd 6c04 643d e86b a5bd
00000240: e787 30bd fef8 073d 7adc 0d3d 203c f4bd
00000250: 6a07 e43b 6a6f a53d 809e f9ba a9ce 213e
00000260: 30b3 81bb 009f b3b9 dd56 8e3d e635 41bd
00000270: b056 c93b 46ae 98bc d69f b1bd c439 e13c
00000280: 5a89 8e3d cba0 a73d b43e c03c 1f0b b93d
00000290: e4f9 bcbd a02e 323c 4d83 9e3d 3287 a6bd
000002a0: 8851 813d 59d9 b83d 5a3a 003d affe aa3d
000002b0: 6a2e 9bbd 06b9 663d a9f5 583d 3331 113d
000002c0: 5d76 923c 0ad5 00be 3d32 c0bd b4b3 813d
000002d0: ba3c 62bd 235b 09be eb3e 433c 07dc 823d
000002e0: aea9 3bbe 372a bbbd deb0 15be 2be8 4cbe
000002f0: acb6 cdbd f3b7 2d3c 6d9a 01bc 2998 803d
00000300: d4ee 4a3d 2a9f 2f3d b90e 9ebd 9b90 833d
00000310: 0c0e 0ebd b297 133d d355 6b3d 20f1 1abb
00000320: 6a96 e8bc e0d1 f1bc fcc8 8cbd e380 9c3d
00000330: 60df edbc 977d 923d c27d 33bd 0224 04bd
00000340: 1801 abbd 7232 333d 1797 c73d beb8 9b3d
00000350: b138 a53d fb52 be3d 7596 c8bc bebb bfbd
00000360: ed83 853d 47a8 823d 80a0 73bb 55ab b73d
00000370: a7af 52bd 6e05 513d ee0d 8f3c c691 293d
00000380: 87b9 85bd b319 d3bc cfe5 86bd b6a0 babd
00000390: a9ed df3c 8464 fdbc b81b af3d 10d9 833b
000003a0: 008b 1c3b 067f f63c 1eb4 833c 10f6 3bbd
000003b0: 1913 cb3c 34e7 f13c 415f 42bd 9f91 8abb
000003c0: a078 26be 6512 5fbd aa02 1c3d 8940 333d
000003d0: 18ac edbc e4ca bbbd f516 9abd 185a a0bd
000003e0: 0951 973d f0c4 bc3b d576 1d3d fdbc 9d3d
000003f0: 12bb 71be 2168 2cbd 307c 403c 082a b43d
0.27070594 0.1182723 0.4112809 0.24102002 -0.054344114 -0.03228838 0.002225372 -0.040009193
0.07944199 -0.018645823 0.16307062 0.036215357 0.08788236 -0.032970384 0.08514095 -0.025028974
-0.022948787 -0.033804797 0.009285949 -0.14974007 0.013990492 -0.022446446 0.034157164 0.0033937544
0.07108978 0.014806904 -0.037419014 0.012127506 0.037395664 -0.06872503 0.069839574 0.065863006
0.0811586 -0.08705796 0.059564345 -0.019731198 -0.028487027 -0.020440936 0.0024527188 0.011012964
0.05275927 -0.045231547 0.07455813 -0.040125087 0.04706534 0.024029933 -0.21593487 -0.00012947619
0.0012703985 -0.0002935217 -0.056942847 0.026030682 -0.05419681 0.0930993 -0.029604688 0.01218204
0.08170723 -0.05883831 -0.0011489838 -0.12324378 0.083405755 -0.05449439 -0.020443618 -0.04662123
0.02520319 0.08009379 -0.105633944 -0.09181425 -0.12473812 -0.016176008 -0.01614362 -0.07803934
0.0078123733 0.103217356 -0.011508524 -0.06411977 0.04758967 -0.018276498 -0.055113636 -0.099358566
-0.16743584 -0.024301723 -0.033954903 0.019606274 0.054165035 -0.04398542 -0.0019077659 0.1420892
-0.02159191 0.007866892 -0.14012185 -0.05850892 -0.10342254 -0.24134055 -0.32427147 -0.27362013
-0.01902317 0.008444724 -0.0684841 0.040607654 0.06454497 0.0028297529 -0.04583021 -0.027130485
0.019482948 -0.030334286 -0.13759355 0.051816247 -0.14619285 0.07908047 -0.031808324 -0.035796814
0.09921674 0.048788898 0.0120666325 0.0045981184 -0.101287894 0.07892122 -0.03097608 0.09451504
0.00082155317 0.07478776 -0.088904575 0.024046473 -0.01585804 -0.09916377 -0.005695626 0.06911619
-0.0019620508 0.0904266 0.102001294 -0.06714471 0.08868163 0.12610456 0.010333169 0.0058059394
-0.068326004 -0.007876836 0.042055182 0.06546762 -0.008215375 -0.0394533 0.05566828 -0.08077222
-0.043098357 0.03319644 0.03463409 -0.119255304 0.0069588916 0.08077891 -0.0019044429 0.15801491
-0.0039581284 -0.00034260005 0.069501616 -0.047170542 0.006144367 -0.018637788 -0.086730644 0.027493365
0.069597915 0.08184966 0.0234674 0.09035324 -0.0922735 0.010875374 0.077398874 -0.08131255
0.06314379 0.09025831 0.03130565 0.08349358 -0.07577212 0.056328796 0.052968655 0.03544731
0.017878706 -0.12581268 -0.09384582 0.06333104 -0.055233695 -0.13413672 0.011916856 0.06389623
-0.18326446 -0.09138911 -0.1461825 -0.2001044 -0.100446075 0.010602939 -0.007910353 0.06279022
0.04954417 0.0428764 -0.07717652 0.06424066 -0.034681365 0.03603334 0.057454895 -0.0023642257
-0.028392036 -0.029519022 -0.06874272 0.07641771 -0.029037178 0.071528606 -0.043821104 -0.032260902
-0.08349818 0.04374928 0.09745615 0.07603596 0.08067454 0.09293171 -0.024485806 -0.09361981
0.065193035 0.063797526 -0.0037174523 0.08968226 -0.051437046 0.05103057 0.017462697 0.041398786
-0.06529527 -0.02576909 -0.06586801 -0.091126844 0.027335005 -0.030931719 0.08550209 0.0040236786
0.0023886561 0.030089866 0.016077098 -0.04588896 0.02478938 0.029529192 -0.047454122 -0.004228785
-0.16256952 -0.0544609 0.03808848 0.043762717 -0.029012725 -0.09169558 -0.0752391 -0.07829684
0.07388503 0.0057607815 0.038443405 0.07702062 -0.23606518 -0.042091493 0.011748359 0.08797079

layer1.bias f4 [256]
00000000: d6d3 2f3d be68 d03d a06c a1bd ce0b 593d
00000010: b3ca be3d 8618 213d fe6c 0f3e 43f7 a53d
00000020: fa13 4fbd 3040 8c3b e14c 8e3d 9aae 6e3d
00000030: b727 6f3c 8874 06bd 7626 2f3c ef72 293d
00000040: d714 91bc 9088 ccbc 4927 843d bbbd 783d
00000050: 7c21 e73d 93e6 113d b039 083e 73d4 7438
00000060: 1afd 25bd 4f47 f53d 458a e9bd e34c 62bc
00000070: b23f ce3d 7a8f eb3d dd4e f339 75aa d63d
00000080: 2416 d83d 3b59 c73d bdac 8abb 0a20 c9bd
00000090: 263a a93d 8450 85ba c794 9fbd 71f0 6cbc
000000a0: 1e69 77bd 4284 bfbb 1d7e 883d d157 17bb
000000b0: 8321 76bd f83b bbbc 5cc8 673d 1cdb 1f3d
000000c0: bca4 ccbd 4a4b 2b3d 99b5 e23d cf66 01bd
000000d0: 6996 c4bc 9538 c53c fd60 afbd 6be1 2a3d
000000e0: 4521 e6ba 93b4 f4bc cbda 8e3d 2430 cabd
000000f0: 2b6f bc3d ed42 ec3c bec3 2cbd f412 b03d
00000100: c1c4 583d 8f5a 023b cdc8 bcbc 9e91 003c
00000110: 9f79 8abd 09da 853c 4600 213b b7d8 a03a
00000120: b7d9 553c fce8 713a 0775 2e3c 0119 c8bb
00000130: 0d2d 883c 6ce7 80bd e48c 913a a60d 673d
00000140: f8ab a2bc 3ed2 1bbd 77d5 9d3d 641a 023e
00000150: 0dd4 2dbb 732f 9c3c 392d 7cbc 5c85 20bc
00000160: f461 903d 5680 513d a95c a7bb 73d9 863d
00000170: 143b 193d ce97 40bd bc01 103e 23f5 9cbd
00000180: 3135 103e 4315 bebc 5b21 e63c e516 7e3d
00000190: d8ad 36bd 35f8 683b 9bd9 1cbc 48c7 bc3c
000001a0: f88e cebd 76a7 3dbd 08e8 a2bd 5e40 5a3d
000001b0: 57e2 a9bd 59cc 723d a5d9 dcbb 9ae9 9f3d
000001c0: 1df1 69bd 8686 06bc 861c c23d 6e3b 2fbc
000001d0: 8e6a fa3d b0cd c9bd 0c57 963d 5dff 5b3d
000001e0: 41df 9e3d 6f12 023e 58df b93c c215 a3bd
000001f0: cd15 0ebd 8d45 e6bb d852 b3bd b138 ab3d
00000200: 8735 943d 07fd 3abd 984b ae3c 4c61 8b3d
00000210: 24cf 48bd 5ab4 c13d 5eb5 b13c be43 383d
00000220: f8c5 573d dfc8 17bd 1c20 7d3b 4798 0ebc
00000230: d359 99bd 05a9 9cbb be4e 103d cbee 7cbd
00000240: b32c 683d 707c 2b3e 0cca 2c3b 309d 803b
00000250: ce7c 103d 8a97 123d 2ea2 aa3d 3e7c 65bd
00000260: 7aae 8b3c 7e23 543b 7871 9dbc 13e8 b3bb
00000270: a575 75bd 92d2 7d3d 7c82 97bb 6d67 803d
00000280: e832 7d3d 5f98 5abd afa1 fc3d 7bb1 6dbd
00000290: 8552 f73b d881 d9b9 de78 463d 9b8f c0bc
000002a0: 0e1c 073d d11c bdbd 3fea 8f3d c3f9 f43d
000002b0: 7095 003d ca5e e63d 470a 803c 75d8 8b3d
000002c0: 0a6f 5dbd 16d6 db3d 7fec 1f3d 0687 c539
000002d0: 6439 0dbc 9ae0 fe3c e370 bdbb b353 bebd
000002e0: db36 b9bd 9857 dcbc a830 883d 3991 c3bc
000002f0: d783 c73d c88d 12bd fe55 87bd ef2c a6bc
00000300: 00b1 bebd 7bf1 57bb aa64 2fbc 143d 2ebd
00000310: 85d9 af3d 5217 a63d 8703 d5bd 95de 16bd
00000320: cb9a 2eba 40d0 423d e9bb 293e 9c03 7f3d
00000330: 2025 8c3c 7ba4 1fbd c7b0 e13d bf79 a2bd
00000340: afb6 ba3d 3df9 1fbd 6b4d 8f3d 7fa4 e3bc
00000350: fbc9 49bd cca3 8c3c b31a a93d b2f0 ee3d
00000360: 8333 393d eb42 aa3b 369b 193d 481b 373d
00000370: f8bd 7e3d 8b3d da3d 7adf 023e 35ed a93d
00000380: 300a 293d 1373 973d 8014 58bd 89d1 b33d
00000390: 2516 003b 33d0 cc3c 685d 8f3c bc68 073e
000003a0: 6077 2c3d 2050 a7bc 6a9c e5bc cf2a d43d
000003b0: 95cb a23d 0dbd 6ebd c7b8 60bd f1b7 813d
000003c0: 2056 04bd 6a03 48bd 7116 7d3c a30f 07bd
000003d0: 473e 8dbd b9d3 30bc 69a1 bb3d c5e2 54bd
000003e0: 42bb 0fbd a31e ce3d 2343 7f3d 466a 7b3d
000003f0: fa63 1b3d cf47 c83d e319 39bd 56fd 633d
0.042926632 0.10176228 -0.07882047 0.052989773 0.093160056 0.039330028 0.14006421 0.08103802
-0.05055616 0.0042801127 0.06948257 0.05827198 0.014596871 -0.032825977 0.010690322 0.041369375
-0.017710133 -0.024967462 0.064528055 0.060727816 0.112856835 0.035620283 0.13303256 5.8371992e-05
-0.04052458 0.11976492 -0.11403326 -0.013812277 0.10070743 0.11501975 0.0004640733 0.10481731
0.10551098 0.09733816 -0.004232018 -0.09820564 0.08263044 -0.001017109 -0.07792049 -0.014461623
-0.060402982 -0.005844624 0.06664679 -0.0023093114 -0.060090553 -0.022855744 0.056587562 0.03902732
-0.09992358 0.041819848 0.11069793 -0.031592187 -0.023997502 0.024074832 -0.08563421 0.04171888
-0.0017557523 -0.02987126 0.06975325 -0.09872463 0.09200891 0.028840506 -0.04217886 0.08597365
0.052922014 0.0019890403 -0.023044968 0.007847218 -0.06761479 0.016339319 0.0024566813 0.0012271617
0.013052396 0.0009228138 0.010648019 -0.0061064963 0.016623044 -0.0629414 0.0011104611 0.0564095
-0.019857392 -0.0380423 0.07706731 0.1270538 -0.0026524097 0.019065594 -0.015391641 -0.00979742
0.07049933 0.05114778 -0.0051074815 0.06584444 0.037409857 -0.047019772 0.14063162 -0.076639436
0.14082791 -0.023203498 0.028092077 0.062033553 -0.044599384 0.0035548334 -0.009573366 0.023044243
-0.10085863 -0.04630228 -0.07954413 0.05328404 -0.08295124 0.059276912 -0.0067398124 0.07808228
-0.05711471 -0.008210784 0.09478097 -0.0106953215 0.12227355 -0.09853685 0.073408216 0.05371033
0.07757426 0.12702344 0.022689506 -0.07963134 -0.03468876 -0.007027334 -0.087560356 0.083604224
0.07236772 -0.045651462 0.02127628 0.06805667 -0.04902567 0.094582275 0.021692928 0.04498648
0.052679032 -0.0370568 0.0038623875 -0.008703298 -0.07487836 -0.004780891 0.035231344 -0.06175117
0.056683253 0.16746688 0.0026365547 0.003924988 0.035275273 0.03578905 0.083317146 -0.05602669
0.01705097 0.0032369788 -0.019219145 -0.005490312 -0.059926648 0.061968394 -0.0046237092 0.06269727
0.061816126 -0.05336797 0.12335526 -0.058030587 0.007547679 -0.00041486206 0.04845511 -0.023505976
0.03298574 -0.09234012 0.07027101 0.11961701 0.031392515 0.11248548 0.0156299 0.06828395
-0.054060973 0.10734193 0.0390439 0.00037675368 -0.00861964 0.031112958 -0.0057812794 -0.09293308
-0.09043666 -0.026897237 0.066499054 -0.023872958 0.09741943 -0.035779744 -0.066081986 -0.020285098
-0.09311104 -0.003295033 -0.0107051525 -0.042538717 0.085864104 0.08109917 -0.104010634 -0.036833365
-0.0006660639 0.047561884 0.16575588 0.0622593 0.017107546 -0.03897522 0.11020046 -0.079333775
0.091168754 -0.03905605 0.06997188 -0.027788399 -0.04926489 0.017167948 0.082570456 0.11667003
0.04521514 0.0051959655 0.037501536 0.04470375 0.062192887 0.1065627 0.12780562 0.08297197
0.04126948 0.073949955 -0.052753925 0.087802 0.001954445 0.02500162 0.017500594 0.13223547
0.042106032 -0.020423949 -0.028028686 0.103597276 0.079489864 -0.05828576 -0.054863717 0.06333912
-0.032308698 -0.04883138 0.015447245 -0.032973897 -0.06896644 -0.010792666 0.09161646 -0.051974077
-0.035090692 0.10064437 0.062319886 0.061380647 0.037937142 0.097793214 -0.045190703 0.05566152

layer2.weight f4 [128, 256]
00000000: 944f 643c 613f fc3c c05f 323d 8145 983d
00000010: d76b ebbd ca60 afbb feb2 263d e096 48bd
00000020: 95f4 febc 39e9 353e 0987 413d ebd8 873e
00000030: c983 edbc d80f e53c c653 19bd 5418 14bc
00000040: 861e 6c3d f4e5 153d e7ea b4bd 498c ccbc
00000050: 4226 0d3e c1bf 1cbd 00b2 523d 9217 3cbc
00000060: 9b37 2f3e 9bd9 d23d a858 bdbd 3c27 eb3b
00000070: b53b f53c c7f7 e6bd b5c5 89bc b3a5 babd
00000080: b526 0ebd b3c4 e63c 840e 6cbd 4bcd 14bd
00000090: 6bb3 6fbd ef59 c03a b2ef 5d3d 81f0 d43b
000000a0: 2df4 b8bd e6ec 41bd ddf0 0cbc efa3 7abc
000000b0: 68e1 b43c 8df4 1d3e 3a02 0e3d 303f 03be
000000c0: 7fb0 3ebe 5cb4 5b3d e218 78bd c105 eebb
000000d0: 551f 073e 7ca3 53bb bc72 a4bd 475a c9bd
000000e0: 0c8a e23d fc1f 443d 97a0 953d 700a 2f3e
000000f0: dd97 36be 8322 dbbb f455 1c3c 1015 0f3d
00000100: 34e2 033d 9b2e 1dbc 2e0b 873d 6b15 063d
00000110: 0440 0fbd 24d9 263c f03e 39ba 4bf0 13bd
00000120: a6ec fbbd d31b c0bd 5989 20bc 62a2 0f3e
00000130: bc5f fa39 bc41 ae3c 6762 8e3c 3844 d2bc
00000140: fc65 9c3d f13f 4a3d f853 88be 1915 33bc
00000150: 2282 743d 44af 433c d440 483e 30f9 f4bd
00000160: 0a3b 563d 3b55 04bd 07ab dbbd cbc8 60bd
00000170: 5012 8cbd 64f3 cd3d c902 8c3c ae5f 6bbd
00000180: 2d29 753d 958c 6dbd 5399 803c 7fda 38bc
00000190: 315d 1f3c 01cb 81bc 2024 a93d 7e78 d9bc
000001a0: 754f 0d3d b496 193d 545e 26be 9ccd d2bb
000001b0: 36bf 3cbd 58e8 313d 4a2b bebc 4238 823d
000001c0: bd76 f23b 4420 1ebe a061 7f3d 2fb6 68bd
000001d0: db98 d03b 6b3f dabd 688d b13d 5c97 36bd
000001e0: bdbc 8a3b 7b05 9d3d 28d1 543d 58f6 813b
000001f0: a96d ab3d 8b7a fcbd 7140 2dbe e39d cabd
00000200: f084 54ba 8a08 c83d 114b 2b3d 11df d1bc
00000210: e7ad 2a3d 1ae8 bdbd ab6c 203e 5f32 003d
00000220: 3531 0a3d 10bb 893b 9f16 c03b bacd a93c
00000230: 5258 22be 9df3 123d 9d46 dfbd 75de 693d
00000240: 570f be3e 3ef1 413d 030e fbbb 556e d7bc
00000250: a9ea 283d 8ff3 043d ed2c 99bd 04e2 1b3e
00000260: 34b3 e2bc 1da1 553d 8651 25be 0db9 1a3a
00000270: 5de9 b43d 3816 10bc 1b23 23bd 3b9c 793d
00000280: c1f4 59bd 7dd1 313d 1376 273b c67b 1fbc
00000290: 4456 36bd 3d9e 82bc 8fb6 74bb cf4b 96bc
000002a0: afbc 883e ea36 39be 4752 f13d 3c55 97bd
000002b0: 3012 323e 54b2 3dbc 2fcc a63b d3f5 123c
000002c0: 8dcd f1bc 2d48 0d3e 5b2b 29bc 71a9 8cbc
000002d0: c01d 133e 0f0e d03d 7459 23bc 9d04 49bd
000002e0: 8368 183d c23c d1bd 7bbe c0bc 18d5 103c
000002f0: 2dc8 1d3c 4421 fc3d 1b99 7a3c ad2d c8bd
00000300: ae99 973c c187 073e f54f f53d ebbf a5bd
00000310: 0d5c 6d3e f55f 36bd fc43 56bd 216f 4dbc
00000320: 2d12 b43c 959a bb3d 66a1 0e3c d423 c23d
00000330: 80ab 313d 3da1 42bd 4f12 c63d 985b 453e
00000340: d333 4dbd 5178 263d b64c da3b 197e 413e
00000350: 28ce 163d 3458 2c3c 8515 9bbd b52c ae3d
00000360: 966a 8d3d 2c00 2fbe c309 e9bd e9f0 4d3d
00000370: 90c7 313d c1e5 ecbc 1e72 eabc a4a8 423d
00000380: 6222 26bb 68d3 bdbc 0990 7c3d 4231 62bd
00000390: 7a91 80bd 0543 2c3d 682f fc3b 14a1 da3d
000003a0: 82a6 16be 0eb4 f33c 98f9 dfbc 7017 4ab9
000003b0: 2f2e 10be 90fb 5bbd d4ee 033b 62cb 63bd
000003c0: eb8c 0e3d 51ad 27bd 7596 3bbe 6459 a6bd
000003d0: afa6 653d d1d3 c13c a9a4 883d cd29 0e3e
000003e0: 2c7d c33c 3ec2 5b3d de3a aa3c 050c 75bc
000003f0: 0fe8 e53c a4d0 843d 1747 1ebe f015 2abd
0.0139349885 0.03079194 0.043548346 0.07435132 -0.11495178 -0.0053521143 0.040698044 -0.04897201
-0.031122485 0.17764749 0.04724792 0.26532683 -0.028993504 0.027961656 -0.03743341 -0.009039003
0.057646297 0.036596254 -0.088338666 -0.024969237 0.13784125 -0.03826881 0.051439285 -0.011480229
0.17111056 0.10295411 -0.092454255 0.007176308 0.029935697 -0.112777285 -0.016817907 -0.09113636
-0.034704883 0.028169965 -0.05763103 -0.036328595 -0.058520716 0.001467524 0.05418367 0.006498397
-0.09030948 -0.047345065 -0.008602348 -0.015297874 0.022080138 0.1542532 0.034670092 -0.12817073
-0.18622015 0.0536388 -0.060570605 -0.0072638695 0.13195546 -0.003229349 -0.08029696 -0.09831672
0.110614866 0.047882065 0.07306021 0.17093825 -0.17831369 -0.0066874637 0.009541977 0.034932196
0.032198146 -0.009593631 0.06593929 0.03273527 -0.03497316 0.010183606 -0.00070665684 -0.036117833
-0.123009965 -0.09380307 -0.009798371 0.14026788 0.00047755043 0.021271579 0.017380906 -0.025667295
0.076366395 0.049377386 -0.26626563 -0.010930323 0.059694417 0.011943642 0.1955598 -0.11961591
0.052302398 -0.032307845 -0.1072598 -0.05487899 -0.0683943 0.10056189 0.017091172 -0.057464294
0.05985372 -0.057995398 0.01569811 -0.011282562 0.009726808 -0.01584387 0.082588434 -0.026546713
0.034499604 0.037497237 -0.16246921 -0.006433202 -0.04608079 0.04343447 -0.023214001 0.063583866
0.0073994086 -0.15441996 0.06234896 -0.05681437 0.006365878 -0.10656627 0.08669549 -0.04457794
0.004233925 0.07667061 0.05195728 0.003966134 0.083705254 -0.12328061 -0.16919114 -0.09893396
-0.00081069674 0.09767254 0.041819636 -0.025619062 0.041669752 -0.092727855 0.15666454 0.031298038
0.033738334 0.004203208 0.0058620716 0.02072798 -0.15854004 0.03587686 -0.1090214 0.057096917
0.37121078 0.047349207 -0.0076615824 -0.026297728 0.041239414 0.032458838 -0.07479272 0.15222937
-0.027673341 0.052155603 -0.1614438 0.00059022085 0.08833573 -0.00879436 -0.0398284 0.06094001
-0.05321193 0.043412674 0.0025552555 -0.0097341 -0.044515863 -0.015944595 -0.0037340259 -0.018346695
0.26706454 -0.18087354 0.11783271 -0.07389304 0.1738975 -0.011578161 0.0050902585 0.008969742
-0.02951696 0.13797064 -0.010325278 -0.01717064 0.14366817 0.101589315 -0.009970058 -0.049076665
0.037209045 -0.10216667 -0.023528328 0.008839868 0.009630245 0.123110324 0.015295292 -0.09774337
0.018505897 0.1323538 0.11978141 -0.08093246 0.23179646 -0.044525106 -0.05231093 -0.012538702
0.021981323 0.091603436 0.008705473 0.0947949 0.043376446 -0.04751705 0.09671461 0.19273221
-0.05009825 0.040642086 0.0066619767 0.18895759 0.0368177 0.010519076 -0.07572464 0.08504621
0.06905095 -0.1708991 -0.11378815 0.050278578 0.04340321 -0.028918149 -0.028618868 0.04752411
-0.0025350084 -0.023172095 0.0616608 -0.055222757 -0.062777475 0.042056102 0.007696081 0.106752545
-0.14711955 0.029748943 -0.027340695 -0.00019272952 -0.14080118 -0.053706706 0.0020131366 -0.055613883
0.03480236 -0.04093677 -0.18319114 -0.08122519 0.056067165 0.023660572 0.066720314 0.13883133
0.023863398 0.05365204 0.020780023 -0.014956479 0.028064756 0.064851075 -0.15456806 -0.041524827

layer2.bias f4 [128]
00000000: 790b 973d 2a94 6ebd 6642 163d 6a78 8fbc
00000010: ea43 d63d e397 8e3c fdeb 67bd 8c03 353c
00000020: e034 553d c278 ec3b a7eb a2bb 74b3 5a3d
00000030: 5a10 053c ddef dcbc 6976 233d b2c8 b53a
00000040: d3d5 283b 72c4 1b3d 7315 a73c 1e4c debc
00000050: ca2c b63d d1c9 5a3d 76b8 b03d 536b c33d
00000060: fa0b 893c e8dc 213c 2570 323d 9baa 403d
00000070: 7210 02bc 6d46 8e3d 5c88 1f3d 0c6a 603d
00000080: 506d b03c 2153 683d 4329 823d 1746 ed3d
00000090: f102 9ebc 8b0f 6bbb ad7f 253d 57b8 e2bc
000000a0: da0f 8a3c 40b8 b83b 123c ff3a 65f8 1f3d
000000b0: 5333 a63d 385a a73d 7087 d8bc 6be1 07bd
000000c0: e9fe cd3d b51a 3eb9 d1bc 4ebc ac9d 853d
000000d0: 2ace 8d3b 5cfd 733d 5399 883d dc7a 8ebd
000000e0: 18ca 813d 633d d0bb 6929 983c 43f0 09bd
000000f0: feae 70bd 6955 b43c 72b1 563d fd51 093d
00000100: 3e28 e33c ea7f 42bd d175 863d 145f 8ebc
00000110: f555 183d ac58 cf3d 1d3f b63d a8ff 8d3d
00000120: 9926 5f3d 342d 353d 784b 023d 8aa1 c23c
00000130: 7b7b 633d 2556 113d d40f 64bc 09f5 95bc
00000140: 9db0 153d 1c2c 343d f532 b0ba 97ec d93d
00000150: c157 4e3d f5ff 873d b331 60bb 30b8 663d
00000160: 5ade 9f3d ca0e 863c 7a97 9d3d 0331 c8bc
00000170: 1c0b 923d d22e cfbc 6b45 d13c 7135 cc3c
00000180: efd5 c9bc ef2e 08bc ba66 b13c e9d3 25bd
00000190: 8201 303d 6fba 423d f042 7b3c 8380 823d
000001a0: 13ce 53bd 8f5a 453d bbcc 0bbc c80f 8b3c
000001b0: 6ae1 843d f0bd a63d 0100 a5bc 09d4 4ebc
000001c0: d0f5 703d b738 6dbc d0f1 163c 0cf5 44bb
000001d0: 2ac4 e13c 12f8 e23c fadc ba3d 07c8 323d
000001e0: 810e 4bbd b0c8 c8bc b082 cf3c 2e88 b7bc
000001f0: 126e 713c 51e9 5f3d 79f2 bbbc 7f14 883d
0.07375235 -0.05824677 0.036684416 -0.017513473 0.10462172 0.01740641 -0.05662154 0.011048209
0.05205238 0.007216544 -0.0049719396 0.053393796 0.008121574 -0.026969844 0.039907847 0.0013869016
0.0025762215 0.03802914 0.02039597 -0.027135905 0.088952616 0.053415123 0.08628933 0.09541955
0.016729344 0.009879328 0.04356398 0.047037702 -0.007938491 0.069470264 0.0389484 0.054788634
0.0215365 0.056719903 0.06355526 0.11585634 -0.019288512 -0.0035867419 0.040404964 -0.02767579
0.016853262 0.0056371987 0.0019472858 0.039055247 0.08115258 0.08171505 -0.02643177 -0.03317396
0.10058386 -0.00018129761 -0.0126182595 0.06524214 0.004327555 0.059567794 0.06669869 -0.06957027
0.063373744 -0.006354974 0.018574433 -0.033676397 -0.058760636 0.022013383 0.05241532 0.033525456
0.02772915 -0.04748527 0.065654404 -0.017379321 0.03719135 0.10124335 0.08898757 0.06933528
0.05448017 0.044232562 0.031810254 0.023758668 0.055537682 0.035482544 -0.013919789 -0.018305318
0.036545385 0.04398738 -0.0013442921 0.10640829 0.050376657 0.06640617 -0.003420931 0.056328
0.07806082 0.016364474 0.076949075 -0.024437433 0.07131025 -0.02529088 0.025545796 0.024927827
-0.024638144 -0.008311971 0.02165543 -0.040485296 0.042970188 0.04754108 0.015335783 0.06372168
-0.0517102 0.048182067 -0.008532698 0.016975299 0.06488307 0.081416965 -0.020141603 -0.012623795
0.058828175 -0.014478854 0.009212926 -0.0030053286 0.027559359 0.02770618 0.09124179 0.043647792
-0.04957438 -0.024509758 0.025330871 -0.022403803 0.014735715 0.054665867 -0.022942768 0.06644534

layer3.weight f4 [30, 128]
00000000: bfb2 063e c56d cabe c8ca 1a3e 8462 453e
00000010: 0bca dabe d96f 3c3e b3a0 87be 2ac2 823e
00000020: 32c6 523e b5f9 3d3e 29cc 9fbd f201 07be
00000030: d32c d63d d8da cabe 9518 3fbe 0dc6 07be
00000040: 2bec 593e 130b 383e b528 36be 411b c3be
00000050: 065d 20be 945a 2a3e c841 54be 887a e33e
00000060: 1406 113e 4eac 35be 3c6b a1bd 2549 03bf
00000070: 8414 a93e 38a6 d13d 80bc c6be e35c 31be
00000080: 3a27 36be 2658 4d3e 952d 4fbe c774 f9be
00000090: 869e 5a3e 1bba 07be cbee 443e bac6 a23e
000000a0: e2ca d3be 509f 213e 345d dcbd 7461 d0be
000000b0: a34e fcbd ce83 77be 387d 6a3e 3e77 a03d
000000c0: 5335 34be edd8 363d 73f2 39be 1798 cb3d
000000d0: 2e1c f5be 3ae8 9b3e 9c3e 76be 28a5 8f3e
000000e0: 40bf f33d 5468 5f3e c57f f03d 1442 bfbe
000000f0: df15 a2bd 1423 cf3e e902 fbbd 1678 23be
00000100: d74b d53d 61c5 223e 035e a53e 2725 583e
00000110: 4c31 6ebe e2a4 00bf 15bf 60be 3d08 a93d
00000120: 13d2 07bf 11b1 4ebe d942 c03e 3afa 1c3e
00000130: 56c7 f2be 49c3 563e 68f6 0a3e 2ea5 04bd
00000140: 2f8e 133e 51c8 1e3e 56b2 46be 779b 04bf
00000150: b885 243e a17f 43be 8843 d8be 4de2 12be
00000160: 5365 1dbf fe40 95be f691 fabe 9025 f4be
00000170: de8b bc3e e68a 733e b8c5 403e c6c7 05be
00000180: bdc9 143e 7919 0a3e 7af8 71be 0781 423e
00000190: a299 d53e 29f9 373e 89dd a33e 08da c9bd
000001a0: 1fc5 e43d 0c3a 89bd 13d3 543e f7cc 113e
000001b0: f563 fe3e 4b60 3dbe 12b2 633e 633a cd3c
000001c0: 7da3 66be 595d 543e d7ec 2a3e 0a8e e73d
000001d0: d90f 70be 5425 1abf c41b 55be c164 85be
000001e0: 5b30 253e f8ab 3b3e b9f2 5e3e 87a7 543e
000001f0: 7806 393e 0607 4c3d 215a 05be 92d2 bfbe
00000200: 3006 1e3e 42e4 843e 379d 08bc 771e 16bd
00000210: 5772 d4be 30e9 ba3d b6a7 d0be eea7 383e
00000220: b6e2 8d3c 965e d23d e7ac 8a3d ccfe b4bd
00000230: 012e acbd 077f 7abe 5678 febd 2c9c 803d
00000240: b551 d33d e9d0 17be 36fb abbd 040b aabe
00000250: 494f b13d ca1c 98bd 0817 10be 9237 8dbd
00000260: edc0 e4bd d2f6 a2bd 9745 f83d 79b3 93be
00000270: 8eb7 8ebe 69ba 103e 8aaa bbbe c0b8 c73d
00000280: 2cd4 c53d 7b6d 153d 0ba2 cebd 6f5c babe
00000290: be47 9b3d 0e62 113e 970b acbd 2e08 7e3e
000002a0: 3e52 a5be 1cc3 a8bd fa74 1cbe 9d2a d7bc
000002b0: 0d6e 103e 01ec c1bd 0be9 0ebe 7d7d 803b
000002c0: 4860 8ebd 2e32 083e 5f6a d53c 8972 a8be
000002d0: da36 bf3c 0338 c4be d44b 1dbd 6361 02bd
000002e0: 15d3 073e 08b1 253d f059 983e c2ce 003e
000002f0: d801 6ebd ef9d 7b3e d09c 81bd 3154 cdbd
00000300: 2294 56be 0ca5 d33d 613f 06bf d0ba 523d
00000310: 6bb5 a8bd edd6 d43c 415d 8dbd d4bd 803e
00000320: 653a eebe 6dad acbc 61a2 59be 9bd3 b7bb
00000330: 79bf 2c3d 1dbc afbd 7cb7 daba 67f5 f53d
00000340: ff7c 393e 5ddd 0c3e f7d4 44bd b541 88be
00000350: 1a55 b33d aabd 76bc 5027 3e3e e397 a33d
00000360: 6f35 14bd 3356 50be 1b11 10be 82af 863e
00000370: e0b2 a7be cf47 15be 0327 2d3e 78ba 8fbd
00000380: dc30 503d 4469 1bbe dcb2 5cbe 043f 643e
00000390: 3cc9 8abe 1489 0d3e 39cf f5be 4489 323e
000003a0: 3f90 28bd 3289 7a3d 5b3c b33d 5771 d63d
000003b0: ad9e b93d 1366 b4ba 82ef 123d 6622 ebbd
000003c0: 5d83 9abd 4c4f dd3d bdfb 97bd 63b7 2dbe
000003d0: 959a 45bd 503e 4ebe 2242 a23d 911c 153c
000003e0: fe72 18be e95c 01be 55eb b2be 2984 edbe
000003f0: ef7d d43d fcc0 4b3e fca4 143c e089 1e3e
0.13154124 -0.39536873 0.15116417 0.19275862 -0.42732272 0.18402041 -0.2648979 0.2553876
0.20583418 0.18552287 -0.07802612 -0.13184336 0.10457768 -0.3962009 -0.18661721 -0.13259144
0.21281497 0.17972974 -0.17788966 -0.3810673 -0.15660486 0.16636115 -0.20728219 0.4442942
0.14162475 -0.1774151 -0.078817815 -0.51283485 0.33023465 0.10236782 -0.3881569 -0.1732059
-0.17788401 0.20053157 -0.20232232 -0.48721907 0.21349534 -0.13254587 0.19231717 0.3179224
-0.41365725 0.15783429 -0.107599646 -0.4069935 -0.12319686 -0.24171373 0.2289933 0.07835244
-0.17598467 0.04464047 -0.18158893 0.09941118 -0.47873062 0.30450612 -0.24047321 0.28055692
0.119017124 0.21817142 0.1174312 -0.373551 -0.07914328 0.4045645 -0.122564144 -0.15963778
0.10414856 0.15895607 0.32298288 0.21107922 -0.23260993 -0.5025159 -0.21947892 0.082535245
-0.5305492 -0.20184733 0.37551 0.15329829 -0.47417706 0.20972933 0.13570559 -0.03238409
0.14409707 0.15506102 -0.19403967 -0.5179972 0.16066635 -0.19091655 -0.42239022 -0.1434414
-0.61482733 -0.29151148 -0.48939484 -0.47684908 0.3682546 0.23783454 0.18825424 -0.13064489
0.14530082 0.1348628 -0.23629943 0.18994533 0.41718775 0.17966141 0.32004955 -0.09856039
0.1117041 -0.06700525 0.20783643 0.14238344 0.49685636 -0.18493764 0.22235897 0.025052255
-0.22523303 0.20738734 0.1669191 0.11306389 -0.23443545 -0.6021321 -0.20811373 -0.26053432
0.16131727 0.1832732 0.21772279 0.20767032 0.18068874 0.049811386 -0.13022663 -0.3746534
0.15432048 0.25955397 -0.008338264 -0.036650147 -0.41493484 0.09126508 -0.40752953 0.1803281
0.017320018 0.10271947 0.0677126 -0.08837661 -0.08407212 -0.2446252 -0.12425296 0.062797874
0.10318319 -0.14825787 -0.08397524 -0.3321153 0.086577006 -0.07427366 -0.14071286 -0.06895365
-0.1116961 -0.079572335 0.12122648 -0.28847864 -0.27874416 0.1413361 -0.36653548 0.09752035
0.09659609 0.03648136 -0.10089501 -0.36398646 0.07582043 0.14197561 -0.08400648 0.24807808
-0.32289308 -0.08240339 -0.15278998 -0.026265437 0.14104481 -0.09468842 -0.13956086 0.0039212094
-0.06951958 0.13300392 0.026051698 -0.32899883 0.023341585 -0.38323984 -0.038402393 -0.031831156
0.13264115 0.040452033 0.29756117 0.12578872 -0.058107227 0.24571966 -0.06328738 -0.10025824
-0.20954946 0.103342146 -0.5244046 0.05144769 -0.08237728 0.02598139 -0.069025524 0.25144827
-0.46528926 -0.02107879 -0.21253349 -0.005609942 0.04217479 -0.08580802 -0.0016686763 0.120096974
0.18114088 0.13756318 -0.04805466 -0.2661263 0.08756466 -0.015059868 0.18569684 0.079879545
-0.03618377 -0.20345382 -0.14069025 0.26305777 -0.32753658 -0.14578174 0.16909413 -0.07017988
0.050827846 -0.15176874 -0.21552604 0.22289664 -0.27106655 0.13821822 -0.4800966 0.17435175
-0.04115319 0.061165996 0.08751746 0.104708366 0.09063468 -0.0013763331 0.035872944 -0.1148117
-0.07544587 0.1080614 -0.07421062 -0.16964488 -0.048243124 -0.20140958 0.0792277 0.009101049
-0.14887616 -0.12633099 -0.3494517 -0.46389893 0.103755824 0.19897836 0.009072538 0.15482283

layer3.bias f4 [30]
00000000: 4d3d b9bd 74e3 82bd beba 923d 77bc 82bd
00000010: 622f ce3d af71 a6bc 0992 0c3d f4b6 133d
00000020: afee 0dbd eeb7 263d c064 0dbb 70c0 a43c
00000030: eb94 8f3d 3c9a b6bc 807d 093d c1fa 3abd
00000040: a0ae a9bb 9e5c 3d3d ea9d fbbc 4c28 903c
00000050: 422a 9bbd f77f 993d ce9d 5a3d a247 21bd
00000060: 523d 333d ec0f 8a3c 86ea 25bd a668 743d
00000070: 4813 75bc 6078 0dbb
-0.09044895 -0.063910395 0.071645245 -0.06383603 0.10067631 -0.02031788 0.034318957 0.03606315
-0.034651455 0.040702753 -0.0021574944 0.020111293 0.07010826 -0.022290342 0.03356695 -0.045649294
-0.0051782876 0.046230905 -0.030714948 0.01759734 -0.075764194 0.074951105 0.05337315 -0.039374955
0.04375965 0.016853295 -0.040506862 0.059670113 -0.01495821 -0.0021586642
