project/output/models/Model_Policy_Doubles-v1.0.0.pth (torch, 938000 bytes, 6 tensors)

layer1.weight f4 [512, 184]
000000 d8 9f 5b 3e 92 c9 be 3d 22 31 60 bc 80 fe f7 3b
       0.21447694 0.0931579 -0.013683589 0.0075681806
000010 20 15 26 3d c0 c2 d4 3a 51 b1 b2 bd bf e3 38 be
       0.04054749 0.0016232356 -0.08725227 -0.18055628
000020 f9 a0 ca bd e1 67 0f 3e 98 76 05 bd a3 ae 93 bd
       -0.09893984 0.1400447 -0.032583803 -0.07211044
000030 d9 1f 12 be 94 30 30 3d 1c b2 2f 3d 74 bc 3a 3d
       -0.14269961 0.043015078 0.042894468 0.04558988
000040 70 c3 ce 3b 32 3b ab 3d 80 87 cf bc ea e6 94 3d
       0.006309919 0.083609 -0.025333166 0.07270606
000050 34 f1 9d 3d ac 93 73 3d 3d a1 c1 bc 7c dd ea bd
       0.077120215 0.059467003 -0.023636455 -0.11468026
000060 96 42 08 3d 9b e4 84 bd e0 3a 05 3c 48 b8 3b 3d
       0.033266626 -0.064889155 0.008131713 0.04583004
000070 3a d2 9d bc 89 9c 01 be 50 de 93 3d 76 35 88 bd
       -0.019265283 -0.1265737 0.07220137 -0.06650822
000080 20 80 c9 bb c0 d0 d1 3a ce 0e 44 3d 32 f8 59 3d
       -0.006149307 0.0016007647 0.04786568 0.053215213
000090 a0 f9 cc bb d0 ba 26 bd e4 10 45 bd a6 f3 eb bc
       -0.0062553436 -0.040705502 -0.04811181 -0.028802704
0000a0 50 3a 68 3d 28 d9 93 3c 96 5c 14 3d ac 18 c8 3c
       0.056696236 0.018047884 0.03622111 0.024425827
0000b0 2c 72 58 bd 1a c2 05 3d ea ba f2 bc 40 29 9c 3c
       -0.052843258 0.032655813 -0.029630143 0.019062638
0000c0 40 03 6f 3b 3e 41 47 3d 16 93 a8 bd 75 fc 99 3d
       0.0036470443 0.048646204 -0.082311794 0.075188555
0000d0 09 a3 e3 3b 10 c2 27 be dc 00 88 bd 4a c7 bf 3d
       0.0069469255 -0.16382623 -0.06640789 0.09364183
0000e0 4c 8b 4c 3d 2c a7 0d 3d 50 23 bb bb 45 77 8f 3d
       0.04993753 0.034583256 -0.0057109967 0.07005171
0000f0 2c ea 46 bc a9 36 b4 bd 24 e5 f2 bc b0 51 02 3c
       -0.012140792 -0.08799488 -0.029650278 0.007954046
000100 f8 b2 43 3c f8 0b 5a bc 7a 74 23 bd b6 dd b9 bd
       0.011944525 -0.013308518 -0.039906003 -0.09075491
000110 40 df 77 3d f4 45 9d 3c 70 6a f1 3c 3c c9 9f 3c
       0.060515642 0.019198395 0.029469699 0.019505136
000120 12 7d c6 bc eb 67 a7 bd 46 73 4f 3d b8 98 6f bd
       -0.02422956 -0.08174118 0.050647043 -0.058495253
000130 d0 2b e2 bb 6e 16 6a bd b4 26 8a 3c 37 4b 98 3c
       -0.0069021955 -0.057150297 0.016864158 0.018590553
000140 40 1b 50 3c a4 29 19 3d 5f 3e f5 3d 71 9d 85 bd
       0.012701809 0.037393227 0.11974787 -0.0652417
000150 8a 25 24 bd 63 6c 25 bd 3b e9 e7 3d 44 34 80 3d
       -0.040074863 -0.04038657 0.11323782 0.06259969
000160 dc fd 3e bd 46 00 73 bd 4d c8 9b bc 37 d2 52 be
       -0.046628818 -0.059326433 -0.01901641 -0.20588003
000170 64 53 7d bc 59 52 29 bd b4 41 a1 3c 94 82 6b 3d
       -0.015461776 -0.0413383 0.01968465 0.057497576
000180 d0 1d 2b bc fa fc 30 bd 28 59 b1 bc 6a 21 62 bd
       -0.01044412 -0.043210007 -0.021648958 -0.055207647
000190 7c 97 86 bd 7a f3 2b bd 40 98 8c ba e4 dc 40 bd
       -0.06571862 -0.041980244 -0.0010726526 -0.047085658
0001a0 c8 f3 bb 3c 2c 5f a6 3c ec 02 93 3c 20 e9 b3 bb
       0.022943392 0.020309053 0.01794573 -0.005490437
0001b0 0c 3c 8e bd 7c ec 3d 3d 4a 97 14 3d d4 c1 eb 3c
       -0.06945047 0.046368107 0.036277093 0.028778948
0001c0 64 af fb 3c 14 3f 56 3d 54 c6 75 bd 1e 31 d0 bc
       0.030723281 0.05230625 -0.060003594 -0.025414046
0001d0 d0 1e 30 3c f6 83 60 bd de 22 31 3d c4 d2 44 3d
       0.010749534 -0.054813348 0.043246143 0.048052564
0001e0 6c 8d 42 bd e8 80 22 3d 64 11 92 3d 0c bd 9a 3c
       -0.04749815 0.039673716 0.07132223 0.018888973
0001f0 73 90 2e bd 78 30 89 bc f4 77 fb 3c 20 d4 60 3d
       -0.042618226 -0.016746745 0.030696847 0.0548898
000200 a0 be 6f 3d 6a 14 53 bd 0b 35 86 bd 4c 2b a8 3c
       0.058531404 -0.05153314 -0.06553086 0.020528458
000210 00 45 46 3b 04 f3 86 3d da de 64 bd dc 4e 93 3c
       0.003025353 0.0658932 -0.05587659 0.017981939
000220 df 07 92 bd 24 d0 6d 3d 70 0c 81 3b 56 2b 60 bd
       -0.071304075 0.058059826 0.0039382502 -0.05472883
000230 20 f4 53 3c 00 9a b1 3c b0 f7 5c 3d 40 c9 fc 3a
       0.012936622 0.021679878 0.05394715 0.0019286051
000240 00 71 d6 3b f4 88 9c 3c 2a 87 18 3d a0 10 e4 3c
       0.0065442324 0.019108273 0.037238277 0.027839959
000250 e8 41 35 bc 30 55 83 bc 72 35 4a 3d 00 5c a3 3c
       -0.011063077 -0.016031832 0.049367376 0.01994133
000260 9c 0d 82 3c 00 c6 62 3b 00 9d 82 3d fb 92 67 bd
       0.01587563 0.003460288 0.063776016 -0.056536656
000270 ec 44 67 3d 1a 09 5f bd e4 74 ab 3c e8 99 8f 3c
       0.056462213 -0.05445204 0.020929761 0.017529443
000280 00 16 21 bc 20 47 3b 3b f6 e3 83 bd 60 83 3f 3c
       -0.009831905 0.002857633 -0.064399645 0.011689037
000290 28 0b 95 3d 38 ac 83 bc d0 96 8e bd 36 9e 00 bd
       0.072775185 -0.016073331 -0.06962359 -0.03140088
0002a0 db f7 7b bd 86 79 32 3d 5c 38 0b 3d 56 a6 8d 3d
       -0.06151567 0.043572925 0.033989295 0.06916492
0002b0 40 e7 7d 3d 1e a2 03 bd 2e 6e 0d 3d 40 70 b9 ba
       0.061988115 -0.03213703 0.034528904 -0.0014147833
0002c0 60 23 e8 3c c0 d0 d8 bb 50 46 00 3d 08 fd e1 bc
       0.02833718 -0.006616682 0.031317055 -0.027586475
0002d0 44 2e 88 3c 7c 3a 8d 3c 8e a5 09 3d c4 e8 85 bd
       0.016623624 0.017239802 0.03360515 -0.06538537
0002e0 44 1c b2 3d f3 38 35 bf 1f 75 bb bc e0 56 0a bb
       0.086967975 -0.7079002 -0.022882996 -0.002110891
0002f0 f4 e6 69 3d b8 79 19 3c 23 cf ae bd 0a fa 34 bd
       0.05710502 0.009367399 -0.08535602 -0.04418377
000300 61 a9 8d bd 36 4b ba 3c 0a 20 92 3d 16 0a 48 bd
       -0.06917072 0.022740941 0.07135017 -0.048837744
000310 77 67 86 bc b0 95 e9 3b a0 59 1e bd 13 cb 8b 3b
       -0.016406758 0.00712844 -0.03865969 0.0042661517
000320 a0 4d 85 3d 52 91 11 bd 94 80 8b bc d0 90 5b 3d
       0.065089464 -0.03553898 -0.017029084 0.0536049
000330 c0 6c 14 3e 1c 70 96 bd 6d df 00 bd f2 69 a2 3c
       0.1449461 -0.07345602 -0.031463075 0.01982591
000340 70 94 e8 bb e8 69 36 bd 62 30 01 bd f4 dc 76 3d
       -0.0070977733 -0.044534594 -0.031540282 0.06026931
000350 68 7d 54 3d c1 bf 0f b9 5c 12 69 3d ea b4 4e 3d
       0.05187741 -0.00013708977 0.056902274 0.0504655
000360 3c 28 3f 3d 5e ac b1 bc 74 79 3d 3d 61 0a 0a bd
       0.04666923 -0.021688636 0.046258405 -0.033701304
000370 fa 56 85 3d bc da 5c bd a6 85 b2 3c 24 14 18 3d
       0.0651073 -0.05391954 0.021792244 0.037128583
000380 bc 21 85 bd c9 c6 15 bd 09 5a 6e 3d cc c4 0d 3d
       -0.06500575 -0.03656653 0.058191333 0.03461151
000390 84 80 58 bd c0 12 6f bd ad 06 06 3c 52 fc 83 3d
       -0.052856937 -0.05836749 0.008180303 0.06444611
0003a0 aa 65 1b bd ae 2d 56 bd 36 96 2d bd ba e9 65 bc
       -0.03793875 -0.052289657 -0.04237958 -0.014032776
0003b0 cc 80 0a 3d 29 6e 95 bd 22 12 3a 3d de 05 7e bb
       0.033814237 -0.07296402 0.04542745 -0.0038760821
0003c0 0f 3a 3b bc 10 fa 94 3d 00 12 32 b9 42 f3 23 ba
       -0.0114274165 0.07274258 -0.00016982108 -0.0006254205
0003d0 26 db 8e bc 82 74 1a 3d 93 f9 17 bd 1b 1f 79 bd
       -0.017438482 0.037708767 -0.037103247 -0.06082068
0003e0 28 f6 b3 3c 02 4c 88 bc 5f 1c 56 3c ad b9 ec 3c
       0.021967962 -0.016637806 0.013068288 0.02889713
0003f0 c5 35 91 bd a0 4c da bb 68 2c 16 3c 64 82 cb 3c
       -0.07090334 -0.0066619664 0.009165861 0.024842449

layer1.bias f4 [512]
000000 71 87 56 bd bf 81 a6 3d b9 6b c8 3c bf 66 6b bd
       -0.05237526 0.08130216 0.024465429 -0.057471033
000010 f3 8e 44 bd 73 62 57 bd 98 f9 9c bd fd f7 04 bc
       -0.04798789 -0.052584123 -0.07664794 -0.008115766
000020 ca f7 0e 3e 1e eb ef 3d 60 c9 1c 3e ab e7 80 3d
       0.13961712 0.11714767 0.15311193 0.06294187
000030 f8 4a f3 3d 27 bd df 3d 31 1d ce 39 6c 6a cc 3d
       0.118795335 0.1092475 0.0003931313 0.09981236
000040 79 dd cb 3d 22 a4 99 bc cd 7e c2 3d ea e0 5b bc
       0.09954352 -0.018755022 0.094968416 -0.013420323
000050 38 5a 09 3e 7b 68 0d 3c f4 3a bc 3d 87 ba 23 3e
       0.13413322 0.008630867 0.09190932 0.15989123
000060 20 9d df b9 99 41 fd 3b 04 98 10 3e 4e 6f 83 3d
       -0.00042650942 0.007728767 0.1412049 0.06417714
000070 c8 10 1d bd 83 9d 03 3d 43 92 a6 bc 00 93 da 3d
       -0.038346082 0.032132637 -0.020333415 0.10672569
000080 b3 1c 3e bd a5 e8 34 bd 32 c9 08 3d 51 66 05 bb
       -0.04641409 -0.04416718 0.033395 -0.0020355175
000090 b4 0a f7 bc 6e 2e 46 bd 27 f1 fc bc c5 24 0b bd
       -0.03015647 -0.048384123 -0.03087671 -0.033970613
0000a0 08 41 b9 3d 4c 12 3c 3d 17 bb a2 3d bf 34 58 bd
       0.09045607 0.045915887 0.07945841 -0.052784678
0000b0 c7 1b 97 bc fc a6 1b 3e 17 a4 fb 3d 9a 94 11 3e
       -0.018445862 0.15200418 0.12287157 0.14216843
0000c0 ff e0 53 bd 34 71 86 3d 1a 3d ac 3c bd 42 48 bd
       -0.051728245 0.065645605 0.02102523 -0.04889177
0000d0 34 ab e7 3c f1 a5 6d 3c 42 0d c8 b9 a2 e1 e1 3d
       0.028279878 0.014504896 -0.0003815685 0.11029364
0000e0 f4 59 b3 bc 56 21 63 bd 8a 4e de 3d 0b 1f 19 3e
       -0.021893479 -0.055451714 0.10854824 0.14953248
0000f0 4d 74 78 bc ad 6a 07 ba d5 25 99 3d d0 8e 28 bd
       -0.015164447 -0.0005165737 0.07477919 -0.04115182
000100 90 f2 2e 3e 40 a6 05 3e 40 44 dc 3c 83 dc 33 bd
       0.17084718 0.130517 0.026888013 -0.04391147
000110 d4 66 bd 3c d1 90 43 bd 4e 7f 7c 3d b1 9f 01 bd
       0.023120321 -0.04774553 0.061644845 -0.031646434
000120 a1 fa 24 3e 7e ec e7 3d 03 a2 0e bd 13 38 db 3d
       0.16111232 0.11324404 -0.034822475 0.10704055
000130 7e f5 a9 bd 4f ab 22 3e c0 83 f3 3d 0b 7c 1d bd
       -0.08298777 0.15885662 0.11890364 -0.038448375
000140 ef 18 5b 3c fc 43 e3 bc 79 9f a3 bd d4 41 18 3e
       0.013372644 -0.027742378 -0.07989401 0.14868861
000150 ee cc 85 3d b9 b4 02 bc 0d 7a 16 3e ab b9 0f bc
       0.06533228 -0.007977658 0.14694996 -0.008772294
000160 6e f6 3e bd 13 f1 a4 3c e5 cb 76 3d 51 74 17 3e
       -0.046621732 0.020134484 0.060253043 0.14790465
000170 d8 af af bc 57 12 de bb 5e 10 b1 3d bf a7 c4 bc
       -0.021446154 -0.0067770886 0.086457 -0.024005769
000180 0c 7e b9 3c 82 cd 8e bd 37 8b 06 3d 9f 6e 01 3d
       0.022643112 -0.06972791 0.03284761 0.031599637
000190 d0 e6 af bc 2d 2e 63 3d 26 f2 0d bd 81 49 44 3d
       -0.021472365 0.05546396 -0.03465476 0.04792166
0001a0 00 f1 aa 3d 83 29 3d 3e 9b e0 0b 3d 29 10 3e bc
       0.08346748 0.18472867 0.034149747 -0.011600533
0001b0 26 ad 8d 3d 27 ca 0c bc 80 99 b4 3d 2c 40 ac bc
       0.06917791 -0.008593119 0.0881834 -0.021026693
0001c0 89 5a 82 bd 9f f1 88 bd 84 fd 59 bd 61 3c 23 bd
       -0.063649245 -0.066867106 -0.053220287 -0.039852504
0001d0 1d 14 8e bd 42 62 81 3d 43 5f bf bc 89 34 e6 3b
       -0.0693743 0.06317569 -0.023360854 0.0070253056
0001e0 f4 c9 98 3d 52 e6 1e bd 6e a5 1a 3e 60 42 6c 3c
       0.074603945 -0.03879387 0.15102169 0.014420122
0001f0 ea cb ed 3c 78 49 2d 3d 1c 41 9d bd 94 52 54 bc
       0.029027898 0.042306393 -0.07678434 -0.012959141
000200 b9 de be bc da df 1c 3b 30 c1 4b 3d 39 dd aa 3d
       -0.023299562 0.0023937137 0.049744785 0.08342976
000210 15 40 d2 3d 63 25 5f bc cc 56 f0 bc 2c fe 5f 3c
       0.10266129 -0.0136197535 -0.029338263 0.013671439
000220 c7 1f e3 bb 96 b1 ba 3c b7 02 cc 3d da ea 05 3d
       -0.0069312784 0.022789758 0.09961455 0.032694675
000230 8d 59 c3 3b 46 36 2f bd c0 e7 3a 3d af a1 5b 3d
       0.005961603 -0.04277637 0.04563117 0.05362099
000240 27 89 34 3d 26 25 cb 3d a4 6b 07 3d 86 ce ed 3b
       0.04407611 0.09919195 0.03306164 0.0072572855
000250 d5 12 14 3e dd 79 dc 3c 8e 53 5e 3d 63 3a 08 3e
       0.14460309 0.026913578 0.054278903 0.13303523
000260 07 11 94 3d 2e 9f 88 ba a5 5c 98 3d 13 a6 05 bd
       0.0722981 -0.0010423416 0.074395455 -0.032629084
000270 c9 f4 7c 3d 57 f6 da 3d e6 88 dc 3d e8 a3 05 3e
       0.061756883 0.10691517 0.10768299 0.13050807
000280 d5 e9 b5 3d f6 de 0a 3e 91 a9 a5 3d 9d 4b 82 3d
       0.088824905 0.13561615 0.08088983 0.06362078
000290 35 31 0a 38 50 59 4d bc b6 6d bb bd 09 51 1e 3d
       3.294759e-05 -0.012533501 -0.09151785 0.0386515
0002a0 79 a3 0c 3e d0 9d c4 3d 86 ee f9 3d 85 82 01 3e
       0.13734235 0.09600413 0.12203698 0.12647445
0002b0 dc c7 0c 3d 29 ff 4c 3d 19 c8 00 3e cd c1 0d 3d
       0.03437029 0.050048027 0.12576331 0.03460865
0002c0 9a 84 61 3b 89 84 67 bd e8 d6 2c 3e 87 62 64 b9
       0.0034411312 -0.05652288 0.16878855 -0.00021780479
0002d0 2c e1 5e bd 6e 29 dc bc 56 23 99 3d c9 78 8a bd
       -0.05441396 -0.026875224 0.07477443 -0.06761319
0002e0 88 f4 a1 3d ea 14 2a b9 83 8d 16 3d 18 46 07 bd
       0.07907969 -0.00016220254 0.03675605 -0.03302583
0002f0 71 a3 00 3e b8 9e 29 3d e0 04 36 3e cb df 8f 3c
       0.12562348 0.04141113 0.17775297 0.017562767
000300 8b fc 0d 3e bb a6 a2 bc 0d d4 c7 3d a3 76 65 3d
       0.13865869 -0.019854894 0.09757242 0.056021344
000310 56 7c 8e 3c 17 1b 9a 3d 89 72 bc 3d 26 5f ea ba
       0.017393272 0.07524698 0.09201533 -0.001788114
000320 d8 59 a9 3c 7d 80 61 3d 95 18 84 3d f8 ec 32 3d
       0.020672724 0.055054177 0.06450001 0.043683022
000330 cb 02 47 bd 30 dc 28 bd 4e ae 26 3d 29 52 fa 3d
       -0.048586648 -0.041225612 0.040693574 0.12222702
000340 20 6a dd 3c fb bc 04 3e 1b 35 17 bd 20 4b 35 3e
       0.027028143 0.12962715 -0.03691588 0.17704439
000350 e5 dd 7a 3c 5b c5 ed 3d 4a 4c 19 3d aa 3c ab bc
       0.015311693 0.11609908 0.03742627 -0.02090295
000360 57 44 f8 bb d9 20 83 bd 6a 76 eb 3d 3d a8 43 3d
       -0.007576506 -0.064027496 0.11497195 0.047767866
000370 b6 c6 c7 bd 7b fd 79 3d 78 ab d9 3d 87 f6 09 3e
       -0.09754698 0.061032753 0.10628408 0.13472949
000380 cd 0c 9f 3d bd 57 67 bc ac 4d ec 3d b7 46 ba 3d
       0.077661134 -0.0141200395 0.11538252 0.09095519
000390 08 41 31 bc 43 40 16 3b 31 6a c8 3d bb 27 ae 3d
       -0.010818727 0.0022926487 0.097858794 0.08503672
0003a0 70 86 0f bb 30 7e c0 3c 23 95 10 bd 2b 45 c2 3d
       -0.00219002 0.02349767 -0.035298478 0.09485849
0003b0 85 36 9b bd 67 1d bb 3d 52 10 38 bb 41 8a b6 bd
       -0.07578758 0.091364674 -0.00280859 -0.089130886
0003c0 b6 a2 25 3e bc 3e 5a 3d 6d 4a 62 3c 39 dd 2b 3c
       0.1617535 0.053282484 0.01381169 0.010489755
0003d0 8b 59 b6 3d 8f e5 86 3d bf 36 a0 3d 6f b5 1a 3e
       0.08903798 0.065867536 0.07822942 0.15108274
0003e0 19 3f 37 bb 05 06 e4 3c c5 0b 20 bd 72 ef bf bd
       -0.0027961193 0.027834902 -0.039073724 -0.093718424
0003f0 20 ba 10 bd cd 44 0e 3e e8 cd c4 bb ca e5 14 3d
       -0.035333753 0.13893433 -0.0060059913 0.036351956

layer2.weight f4 [256, 512]
000000 26 02 b3 3c e0 bd cb 3c e4 a6 ab 3c fb 9e 84 3b
       0.02185161 0.024870813 0.020953603 0.0040472723
000010 bb b9 96 3d 5e 92 49 3d d4 31 8d 3d fb a4 a2 bd
       0.07359644 0.049211852 0.068942696 -0.07941624
000020 55 3e 63 bd f5 e0 08 bd c1 90 f1 ba fc 25 a4 ba
       -0.055479366 -0.03341766 -0.0018429981 -0.0012523527
000030 63 ad 42 3d 9a e8 0b be 21 b0 c4 3d a7 9b 57 ba
       0.047528636 -0.13662949 0.096039064 -0.0008224793
000040 23 f7 eb bc 74 72 04 3b 93 1e 97 be 46 00 ca bb
       -0.028804367 0.002020982 -0.29515514 -0.0061645834
000050 4b 06 39 bc b6 5f ca 3b b9 57 c8 bd c5 ad c9 3c
       -0.011293004 0.0061759604 -0.09782357 0.024618993
000060 da 7b 05 3e 96 ef 09 bb 30 60 02 be 8d 54 ba 3d
       0.13035527 -0.0021047345 -0.12732005 0.09098158
000070 36 4a 42 3d 72 a1 d3 bc e3 60 9f 3d 4c a3 a1 3d
       0.047434054 -0.025833819 0.077821516 0.078924745
000080 f3 44 93 bd 91 7e c1 3c 0a fb 31 3d c5 20 b4 3d
       -0.071908854 0.023619922 0.0434523 0.08795313
000090 20 de e8 bc 7e c2 e2 3d 8e c9 ed 3d e6 8f 9e 3d
       -0.02842623 0.11072253 0.11610709 0.0774229
0000a0 4a 73 7d 3d 38 cf 83 3d b2 fb 8a 3d 1e a3 cf 3c
       0.061877526 0.06436008 0.06786288 0.025346335
0000b0 d1 17 b0 3b cd 28 60 bd 67 1c b1 3d d5 04 9d be
       0.005373933 -0.05472641 0.086479954 -0.3066775
0000c0 fb 5f cf 3c a5 41 d2 bc ca 7d 14 bc f7 aa 37 3d
       0.025314322 -0.025666067 -0.009063194 0.04484078
0000d0 86 5e 89 3d e7 12 97 3d b9 3a 2b 3d f8 56 e6 3c
       0.06707482 0.07376652 0.04180405 0.028117642
0000e0 4b bc e7 3d a3 7b 4d 3d 86 f5 e4 3c 9a 79 b8 be
       0.11315211 0.050166737 0.027949106 -0.36030275
0000f0 38 ca 66 bc 3e fa bb 3d 52 5d 83 3d a1 7f 6d 3d
       -0.014086299 0.09178589 0.06414284 0.057983045
000100 c4 4f e2 3c 58 bd dc 3c 4c 1f 66 3d ea 12 a6 3c
       0.027625926 0.026945755 0.05618219 0.02027269
000110 80 27 a7 bc 27 6f 87 3d 0f 0d d2 bc 52 7f 20 3d
       -0.020404577 0.066129975 -0.025640992 0.039183922
000120 42 15 af be da 95 20 bc 09 9b 1b 3d b9 68 aa bd
       -0.34195906 -0.009801352 0.03798965 -0.083207555
000130 9e c6 f2 3b 49 44 b3 3b a5 6c 96 be da ea 7b 3d
       0.007408931 0.0054707867 -0.29379764 0.06150327
000140 96 64 7e 3d 00 03 ab 3d c2 b0 ae 3d 83 4e 9f bd
       0.062107645 0.083501816 0.085298076 -0.07778647
000150 f3 e4 15 3c c8 57 f2 3d c8 ab e2 3e 60 68 ed bc
       0.009148824 0.11833149 0.44271684 -0.028980434
000160 c8 c8 de 3d f8 ad 6e 3d d1 55 56 3e 48 73 1c be
       0.1087814 0.05827138 0.20931174 -0.15278351
000170 e0 25 ec 3d 64 8a a3 3c df f2 3c be 53 7d c3 b9
       0.115306616 0.01996345 -0.18452023 -0.00037286672
000180 03 8f 2a 3d 16 0b aa bc 6b 4c 38 3d d7 46 04 3d
       0.041640293 -0.02075724 0.044994753 0.03229412
000190 8e 58 79 3d 33 e8 9a bc 17 b4 95 3d f1 17 ff 3c
       0.060875468 -0.01890955 0.0730974 0.031139346
0001a0 e9 fe 48 3d dd 6f b1 be f9 a6 9a 3d 90 ce 9d 3c
       0.049071226 -0.34655657 0.07551379 0.019263536
0001b0 6d 56 93 bd 50 f7 e1 3c ad ce 71 3d 5b ef 07 bd
       -0.07194219 0.027583748 0.059034992 -0.03318725
0001c0 16 1d fe 3d 70 59 00 3d 3a fd 17 bd 6d ba 62 ba
       0.124078915 0.031335294 -0.03710673 -0.00086489954
0001d0 27 98 c2 3c a3 b6 5a bb 13 35 a6 3d a2 0e 33 3d
       0.023754193 -0.003337302 0.08115592 0.043715127
0001e0 ee 13 9f 3d 09 b9 c6 3c e0 0f f5 3e de 94 2a 3d
       0.07767473 0.024258154 0.47863674 0.041645877
0001f0 2f ce 53 be d8 5e bd 3d de 07 e5 3d 0a 8a 0d 3e
       -0.20684122 0.09246606 0.11183141 0.13822189
000200 89 83 4c bd 6d 58 84 bd 88 63 e1 3a 19 34 12 3d
       -0.04993013 -0.064621784 0.00171958 0.035694215
000210 30 8b 66 be 63 66 e8 bb ed 39 87 3c bd 5f 17 3c
       -0.22514033 -0.0070922836 0.016507113 0.009239134
000220 9f b1 85 bb 0e 71 06 3e 41 52 3a 3e 6b ca 8c 3d
       -0.004080012 0.13129064 0.1819544 0.06874546
000230 81 af bb 3c 7b 2f 5f 3e 75 90 8e 3e 47 f2 8a 3e
       0.022910835 0.21795456 0.27844587 0.27137968
000240 51 24 05 3d 0e 40 f5 b8 2a 02 bf 3b fa 35 19 3c
       0.032505337 -0.000116944415 0.0058291154 0.009351248
000250 21 ca 49 3d f8 3b f6 3c d4 d9 91 3e ea 0a 95 bd
       0.04926503 0.030057892 0.28486502 -0.07277472
000260 14 4b fc 3c 8b ff 52 3d d3 7b 12 be f7 97 3b bc
       0.030797519 0.051513236 -0.14305048 -0.011449805
000270 3a ab 83 b8 5a 8a aa 3b 44 dd 41 3d 7e 47 50 3d
       -6.27846e-05 0.005204481 0.047330156 0.05084943
000280 2b bc c6 3d f5 08 27 3d 7d 83 a4 3d 3f 94 af 3e
       0.09703859 0.040780026 0.08032892 0.3429279
000290 a9 49 41 3d 9e b2 ef 3d ab 32 02 3c 4a 57 f9 3d
       0.04718939 0.117039904 0.0079466505 0.12174852
0002a0 3a 80 d9 bc 40 7a d7 3c df c4 2c be 38 39 7d 3c
       -0.026550401 0.02630341 -0.16871975 0.015455537
0002b0 ee f9 5d bc 8e 29 bd 3d ea 95 c3 bd 92 1e fa 3c
       -0.013548357 0.092364416 -0.09550078 0.030532155
0002c0 8d 8d 90 bc 81 6e 48 3d 12 d6 07 3c 02 5a 8a 3c
       -0.017645622 0.04893351 0.008290784 0.016888622
0002d0 67 dd bc bc 4d 56 0e 3e 4e e6 cb 3c e6 9f b4 3d
       -0.023054792 0.13900109 0.024890091 0.08819561
0002e0 2a 7c f7 3c 69 46 f7 bc f7 88 b1 3d f6 7c 11 bc
       0.030210573 -0.030184941 0.08668702 -0.008879891
0002f0 02 8c 5f 3c ec 7a cb 3d 91 55 f9 3c b3 e7 21 bc
       0.01364422 0.09935555 0.030436309 -0.009881902
000300 c6 26 bd 3c f6 64 98 3c c9 bb af bc 24 e5 40 3d
       0.023089778 0.01860283 -0.021451848 0.047093526
000310 93 db 76 3b 8e cd 0c bd bc f4 26 3e 39 55 e0 3d
       0.0037667498 -0.03437572 0.16304296 0.10953755
000320 73 59 9e 3d b7 87 ff 3c b7 a4 cb 3e b2 50 2b be
       0.07731905 0.031192644 0.39774105 -0.16730002
000330 01 6c b3 3c 89 27 23 3e 4d 3e 9b 3c 23 d1 5b bd
       0.021902086 0.1593305 0.018950606 -0.053666245
000340 b0 3f 89 bd 5f 47 60 3d e7 9c dd 3c 8c c8 00 3c
       -0.067016006 0.054755565 0.027052356 0.007860314
000350 25 80 f5 bc 31 38 b3 3e bf d6 e5 3d 72 73 20 3c
       -0.02996833 0.35003808 0.112226 0.009793149
000360 d0 a5 13 3d 12 15 63 bb 6d dc e3 bd 1c 26 fa 3d
       0.036046803 -0.003465001 -0.11126027 0.122143
000370 38 98 16 ba be 75 91 bd 62 e3 61 3d f1 e5 84 3c
       -0.0005744728 -0.07102536 0.05514849 0.016222926
000380 c4 1d 45 3d 6f fc b4 3d 7e 12 0c 3d 68 fe 33 bc
       0.04812409 0.088372104 0.034197323 -0.010985948
000390 19 bd 86 bb 45 7d cc bc ea 16 d6 bc 23 90 cb 3e
       -0.0041118977 -0.024962077 -0.026133973 0.39758405
0003a0 c9 83 f1 ba 9a 4b 75 3c 7f 08 86 3d f7 a0 cd bc
       -0.0018426116 0.014971638 0.06544589 -0.025101168
0003b0 bf b4 3c bc cd 5f 66 3d cd c6 86 3d a0 a8 36 3c
       -0.011517703 0.056243706 0.06580887 0.011148602
0003c0 a1 39 cb 3b 63 6b 8b 3c a3 03 1f 3c 16 09 a1 3d
       0.0062019383 0.01701898 0.009705457 0.07863061
0003d0 9c ed 29 3c fc f0 3c 3d ec c6 ae bd b8 32 81 3c
       0.010371592 0.046128258 -0.08534035 0.015771255
0003e0 c2 1e b8 3a a7 93 7b 3c bd 40 6f 3d cc 18 7f 3d
       0.0014047252 0.015355027 0.05841135 0.062279508
0003f0 f0 ae c0 bd e2 65 30 3d 3c b0 a8 bc 40 9e 7a bc
       -0.09408367 0.043065913 -0.020591848 -0.015296519

layer2.bias f4 [256]
000000 60 17 84 bb 3a ee a1 3c 56 b1 9f bd f0 e9 3e 3e
       -0.004031107 0.019766916 -0.07797496 0.18643928
000010 1c ff c1 3c f0 74 1d 3d 29 b5 2d bd cc 9b 42 bd
       0.023681216 0.0384416 -0.042409096 -0.04751186
000020 e3 6d d6 bc 0e 47 01 bc 4f 40 2c 3d ee af 48 3d
       -0.026175445 -0.007890476 0.042053517 0.048995905
000030 7e 7c 02 bc b5 08 5a bd f9 00 d2 3c 22 36 3d 3d
       -0.007964252 -0.05323096 0.02563523 0.046194203
000040 4e 1a 21 bd a4 7b 44 3d ec 77 9a 3c 17 a2 78 bc
       -0.039331727 0.047969475 0.018856011 -0.015175364
000050 62 54 15 3d 3c 58 13 bd a5 a1 8b bd 53 bf 24 bd
       0.036457427 -0.03597282 -0.068179406 -0.040221523
000060 d1 2a d0 bc 88 71 d9 bc 2a 80 60 ba 75 3a b5 bc
       -0.025411041 -0.026543394 -0.000856402 -0.022122601
000070 c4 cd 5d bd ed 7e f3 bc 50 28 ae bb b3 68 83 3c
       -0.05415131 -0.029723609 -0.005314864 0.016041135
000080 59 ae e6 3d d3 97 c1 3c cf b6 11 bd 9b 69 a1 3c
       0.11263723 0.023631966 -0.03557473 0.019703677
000090 e8 a7 b1 bc 38 55 91 bc 5c 3c 1d 3d c4 f8 4a bc
       -0.02168651 -0.01774083 0.03838764 -0.012388412
0000a0 ae c4 b8 bc fb 81 b3 3c d0 47 58 3d 6a 43 5b 3c
       -0.022554722 0.021912565 0.05280286 0.013382772
0000b0 d0 8c 3a 3c 46 50 bb 3d c5 57 ad 3c 1f e5 e8 3c
       0.011386111 0.0914617 0.021160016 0.028429566
0000c0 4a f9 c4 bc 6a 0f 30 bd 4d 98 b9 3c 61 5d 94 3b
       -0.024044652 -0.04298345 0.02265563 0.004527733
0000d0 86 67 1a bd f7 4b 04 bc f7 b8 fd 3b 10 c8 30 bd
       -0.037696384 -0.008074752 0.007742997 -0.043159544
0000e0 f0 e2 2d 3e a3 84 39 3c 16 77 06 be 02 1c 92 bd
       0.16981101 0.011323127 -0.13131365 -0.07134248
0000f0 8f aa 07 3c 28 84 c0 3b 50 06 ac bb ea 90 cc bc
       0.00828041 0.0058751293 -0.005249776 -0.024971444
000100 f4 41 64 3c 4d 74 8d 3d 5e 56 18 b9 81 b7 c2 3c
       0.01393174 0.06906948 -0.00014528024 0.023769142
000110 30 f1 75 bc e4 c3 6c 3d 77 e7 9f 3c df 12 c8 3c
       -0.015011117 0.057804003 0.01951955 0.024423061
000120 f5 88 bc 3d 6c 43 dc 3c c7 0b ce bc cc 4d 5f 3d
       0.0920581 0.026887618 -0.0251521 0.054517552
000130 32 b2 6f bc 73 1e 00 bd 24 13 67 bd ee 1f b5 3d
       -0.014629887 -0.03127904 -0.05641474 0.08843981
000140 4f 09 ac 3c b4 c2 00 bd 22 bb c2 3d 7d d8 c6 3d
       0.021000532 -0.031435683 0.09508349 0.097092606
000150 44 14 3b 3d 68 87 47 3d 8a 79 83 bc ea 68 23 3e
       0.045673624 0.048713118 -0.016049165 0.1595799
000160 7e 0b 14 bc 25 e4 0d 3d 4a b2 c9 bb f2 57 46 bd
       -0.009035943 0.034641404 -0.006155287 -0.048423715
000170 10 4e 3c bd a0 46 f6 3d 3e b5 4a 3b 38 41 c4 bd
       -0.045972884 0.120251894 0.0030930783 -0.09582752
000180 03 1c 47 3e 73 77 24 3d 49 6d ac 3d 2c e5 ed 3b
       0.1944428 0.04015298 0.08419282 0.0072599854
000190 e1 b1 ef bc 91 be 15 3e 10 76 db 3c 33 57 3c bd
       -0.029259624 0.14623477 0.026789695 -0.045981597
0001a0 75 c5 9c bc 96 df ed 3c 45 9d 77 3d 37 59 20 3d
       -0.019137124 0.029037278 0.06045272 0.039147582
0001b0 f4 7d 60 bc 4e 68 5a 3d 2d 18 2f 3e c0 b4 db bc
       -0.013701905 0.05332213 0.17099066 -0.026819587
0001c0 98 55 83 3d 64 b2 44 bd c9 ec 14 3c 64 fa 0c bd
       0.0641281 -0.04802169 0.009089657 -0.03441848
0001d0 9d 42 c6 bc df fa 6d bc 0e 32 ec 3c 5c be 2d bc
       -0.024201686 -0.014525144 0.028832462 -0.010604467
0001e0 eb 0b c3 bd d1 94 1a bd 62 86 61 3d 06 c9 f4 bc
       -0.095237575 -0.03773958 0.055059798 -0.029881012
0001f0 14 5c 03 3c a4 68 9a 3d 5a 6a d8 3d 63 7b b4 bc
       0.008017559 0.0753949 0.1056716 -0.022031492
000200 4b d7 86 bb cb e8 2b 3d ac 95 96 bc 07 df 61 bc
       -0.0041150204 0.041970056 -0.018381916 -0.013786084
000210 ac 81 a0 3d dc fc bb 3b 0b ca 40 3d e8 8d b9 3c
       0.07837233 0.0057369303 0.047067683 0.022650674
000220 29 5d a0 3c c4 99 27 3c 24 32 a2 bc 45 b3 26 bd
       0.019575672 0.010229532 -0.0197993 -0.04069831
000230 68 25 fc bc 21 aa 04 3d e2 b6 52 3b 2b aa c7 bc
       -0.030779555 0.03238881 0.0032152464 -0.024373135
000240 9c f8 d9 bc 5f fc 86 3d 12 2d 2e bd 63 dc 36 3d
       -0.026607804 0.06591105 -0.04252345 0.04464377
000250 fd 5a 54 bd dd 5c 0f 3d 97 5c da 3c e0 06 ce bc
       -0.051844586 0.03500067 0.026655478 -0.025149763
000260 f0 c6 3f 3d 30 a3 8e 3b a7 48 41 b9 3e 37 be 3b
       0.04682058 0.0043529496 -0.0001843298 0.005804925
000270 dc 6f 31 bd 5d fe a9 bc 75 1d 34 3d b3 62 3d 3d
       -0.043319568 -0.020751173 0.043973405 0.046236705
000280 61 83 72 bc 9d 3f 7b 3c 3b 27 47 3a bd db ec bb
       -0.014801831 0.015334991 0.00075970934 -0.0072283433
000290 a3 be f7 3c e2 f6 6e 3d e3 73 b0 3c db 3a c8 bc
       0.03024227 0.058340915 0.021539634 -0.024442127
0002a0 8a 31 c5 3c 76 af 61 bd 66 2a aa bc 7b b0 bf 3c
       0.024071474 -0.055098973 -0.02077217 0.023399582
0002b0 62 87 a1 bc 62 2e 81 3d d5 b3 6b 3c aa 7f 07 bd
       -0.019717876 0.06307675 0.014386137 -0.033080734
0002c0 1f 22 81 bc b0 3d e5 3c 57 45 6a bc 92 1b 1f 3e
       -0.01576334 0.027983516 -0.0142987585 0.15537861
0002d0 97 8e f8 3c 22 ff 0d 3d 6d c7 88 3d 8a 6a 97 3d
       0.03034143 0.03466714 0.066786624 0.073933676
0002e0 57 86 04 bb 64 89 80 3d 7c 31 83 3d 8a 26 4e 3d
       -0.0020221674 0.06276205 0.06405923 0.050329722
0002f0 83 aa 23 3d 55 68 35 bd 31 7d 94 3c 75 45 34 bd
       0.039957535 -0.044288952 0.018126102 -0.044011552
000300 af fa e9 3c 1d 47 24 bc c1 d6 6e 3c 42 41 d5 3d
       0.028561918 -0.01002672 0.0145775685 0.104128376
000310 93 f5 55 3d 2d fb 70 3c ba 2f c1 3d cc 97 d8 bd
       0.05223615 0.0147083225 0.09432931 -0.10575828
000320 88 6e 9a bd e3 62 c2 bc 15 1d 28 bd 08 0d a0 3d
       -0.075406134 -0.023728793 -0.04104336 0.078149855
000330 7f 20 32 3c bc e1 be 3b 8d 4e 1d 3d 14 c3 0c bb
       0.0108720055 0.0058252495 0.03840499 -0.002147858
000340 c3 7a fe bc 0c 40 d1 3a 64 2d de 3d 6d 4c b5 bc
       -0.031064397 0.0015964522 0.10848501 -0.02213117
000350 ef 9b 87 bd 52 86 17 3d 95 b9 4b bc 4f 99 70 3c
       -0.06621539 0.036993332 -0.012434383 0.014684989
000360 24 16 29 3e 30 df cd 3b 66 48 65 3c 3c 1a c4 bc
       0.16512352 0.0062827095 0.013994312 -0.02393829
000370 19 70 0c 3d 72 03 04 bd f1 38 0e bd c6 eb 41 3d
       0.034286592 -0.03222985 -0.034722272 0.04734399
000380 6e 98 61 bb bf 47 0a bd e3 ed 1b bd a5 98 ac 3d
       -0.003442313 -0.03375983 -0.038068663 0.08427552
000390 e7 17 de 3c 9b db 91 bb fe 29 14 3d a5 e4 99 bc
       0.027111007 -0.004451228 0.03617286 -0.018785784
0003a0 4f 5b 61 3d d6 74 4c 3e 43 f2 4f 3d 5b 19 30 bc
       0.05501872 0.19966444 0.05076815 -0.010748233
0003b0 57 66 c1 ba ed a9 fb 3b 5b 8c 2c bd bf 4c fa 3c
       -0.0014755231 0.007680169 -0.04212604 0.030554174
0003c0 18 fe 4e 3c 5b 99 e7 3c aa 5f 1b 3d 28 24 94 bc
       0.012633823 0.028271368 0.03793303 -0.018083647
0003d0 00 4d dd bc c7 98 6e bc 86 11 03 3d 76 7c 49 3d
       -0.027014256 -0.014562792 0.031999134 0.04919096
0003e0 d3 e7 94 bc f3 c2 40 bc 31 9e f8 bc 27 7b 9e 3c
       -0.018176949 -0.0117652295 -0.030348869 0.019345833
0003f0 9a 52 4c bd b8 cb 62 bd d9 59 b2 3d 30 6a d4 3b
       -0.049883462 -0.055370063 0.08708543 0.006482385

layer3.weight f4 [30, 256]
000000 90 57 6e 3d db dd c4 3d 5a 34 32 3d 4b 5f 12 be
       0.058188975 0.09612628 0.043506958 -0.14294164
000010 55 cc 81 bc ad d4 ac 3c 90 02 13 bd c8 c9 05 3d
       -0.015844503 0.021097505 -0.035891116 0.032663137
000020 18 5c 3b 3c 6e 36 b2 3d fb 08 41 3e 15 74 1c 3d
       0.011435531 0.08701788 0.18851082 0.038196642
000030 54 6a d3 bc b2 ec 71 bc 39 b9 1d be 70 28 0e 3e
       -0.025807537 -0.014765905 -0.15402688 0.13882613
000040 c0 11 fe bb 77 90 b0 b8 25 09 04 3d ba 1c 0b 3e
       -0.007753581 -8.419243e-05 0.032235283 0.13585177
000050 b8 02 1a bd b2 8b 4a 3e 22 27 6c 3c dd af b9 bc
       -0.03760025 0.19779852 0.014413627 -0.022666866
000060 0f 2c dc bd 9c 8a 58 bd e3 bf 58 3c ec c8 25 3d
       -0.10750591 -0.052866563 0.013229343 0.040474817
000070 ee 58 32 bd 32 77 b8 3d f4 75 97 bd f7 08 04 be
       -0.04354184 0.0900711 -0.07395545 -0.12894045
000080 f7 9d 0c be 96 6e da 3d 18 fd 80 bc 53 f0 20 3d
       -0.13732134 0.10665624 -0.015745685 0.03929169
000090 2e 90 c0 bc ce fb 35 3d c3 cd 0d bc c0 74 02 3e
       -0.02350625 0.044429593 -0.008655014 0.12739849
0000a0 8c 2d dc bd 26 8c 54 bd d2 73 4f bd 3a 5d 11 3e
       -0.10750875 -0.05189147 -0.050647564 0.1419572
0000b0 3d 41 15 3d 49 cd 1b be 53 dd db 3a b0 d0 8b bd
       0.03643917 -0.15215029 0.0016774334 -0.06826913
0000c0 5f 9c d3 bb 09 f8 d3 3c 50 04 25 3d fe d7 7c 3d
       -0.00645785 0.025875108 0.040287316 0.061729424
0000d0 4b e7 5a bd a3 69 0a be b7 6a 03 be c6 9a 3d 3c
       -0.053443234 -0.1351686 -0.12833677 0.011572545
0000e0 85 4e d2 bd 86 98 10 bc 59 46 c4 bd 81 a0 95 3d
       -0.10268883 -0.008825427 -0.0958373 0.07306004
0000f0 41 78 d5 3d 1b 5a 89 bb 39 f5 60 3d 75 69 9b 3d
       0.10423327 -0.0041916496 0.054921363 0.07588474
000100 24 90 c4 bc 7a 17 24 bc 0a 5a 28 3e 92 6d ba 3d
       -0.023994513 -0.010015363 0.16440597 0.0910293
000110 e1 43 f5 3c eb 45 fe bd 16 f9 55 3d 1c ba 93 bd
       0.029939594 -0.124156795 0.0522395 -0.07213232
000120 f7 37 22 bd 0f e8 a9 bc 62 db 38 bd fa 91 c3 bd
       -0.039604153 -0.020740537 -0.045131095 -0.09549327
000130 4e bd 52 3d 09 e5 21 3e 1c f8 9b 3d fc 35 e8 bd
       0.051450066 0.15810026 0.076156825 -0.11338422
000140 c9 66 c5 3d 2b d1 9d bd 6d c9 c3 bd cb 1a da bd
       0.09638745 -0.07705911 -0.09559903 -0.106496416
000150 67 27 78 bd 5e 1c 03 3d 14 80 09 3e d0 cf 3c be
       -0.060584452 0.032009475 0.13427764 -0.18438649
000160 b8 eb e1 bd 53 7b e0 bc 81 56 26 3d 0e 27 4f 3d
       -0.11031288 -0.027402556 0.04060984 0.050574355
000170 59 fb ef 3d 04 00 10 be 9d ca 22 3d e7 35 07 be
       0.11717863 -0.14062506 0.03974401 -0.13204156
000180 c8 5e 28 be 6d df 08 bd 00 56 cc bd c6 f4 fc 3d
       -0.16442406 -0.0334162 -0.09977341 0.12351374
000190 c8 bb 60 3d 72 ca f6 bd 4a b0 1b 3c 34 38 cf 3c
       0.054866582 -0.12050332 0.00950248 0.025295354
0001a0 c9 f8 2d 3e 25 fc 52 3d 5a 10 ef bd c1 72 b0 bd
       0.16989435 0.051509995 -0.11673041 -0.086156376
0001b0 56 ad 98 bd 28 aa e9 bc f2 b0 3b be 88 34 04 3e
       -0.07454936 -0.02852352 -0.18329218 0.12910664
0001c0 b1 66 01 be a9 80 94 bc e5 8b 1a bd 47 25 82 3d
       -0.1263683 -0.018127756 -0.03773107 0.06354766
0001d0 12 34 c5 3d bb 11 ed 3d c1 86 c3 bd 5e 2a 09 3d
       0.09629072 0.115756474 -0.09547187 0.03348767
0001e0 70 93 93 3c b4 9a 9a bc 64 88 36 bd 55 2a 4e bd
       0.01801464 -0.018872596 -0.044563666 -0.05033334
0001f0 27 93 f2 3d d7 de d5 bc 21 7c d0 bc 01 f5 d4 3d
       0.11844473 -0.026107235 -0.025449814 0.10398293
000200 7e 48 6b bd 94 fa c1 bd 6d 0f a9 3d 8e 1d c5 3d
       -0.05744218 -0.09471622 0.08254895 0.09624778
000210 c9 7a 1e be 46 e5 de 3d 3b 78 95 bd a8 d8 96 bd
       -0.15476526 0.10883574 -0.07298323 -0.07365543
000220 7d bd 6b 3d 74 a8 8e bd d9 b8 b5 bc f5 d8 37 3e
       0.057553757 -0.06965724 -0.022182869 0.17953856
000230 f2 e3 ad bd df 12 ed bc f0 86 b3 3c c4 15 5f bd
       -0.08490743 -0.028939663 0.02191493 -0.054464117
000240 48 c3 ec bd bb 62 19 bc dc 64 76 bd b1 3a 14 bd
       -0.115606844 -0.009361918 -0.06015478 -0.036188785
000250 19 58 0a 3e 6a a8 39 bd b1 ba d6 bd bc d2 1f 3e
       0.13510169 -0.045326628 -0.10484827 0.15607733
000260 13 61 76 bc 55 6e 7c 3d 22 1b ab bd f8 7d 36 3d
       -0.015037793 0.06162866 -0.083547845 0.044553727
000270 bf f6 62 bd d8 57 5b 3d e8 17 f2 bd a7 63 bd bd
       -0.055411097 0.05355057 -0.11820966 -0.09247523
000280 69 7a c5 3c 77 eb ca 3d 55 13 8d bd b2 2a 90 3c
       0.024106221 0.099081926 -0.06888453 0.017598484
000290 c6 9f b3 bd 95 b3 bd bd 55 7c 03 bc 72 88 15 3d
       -0.08770709 -0.09262768 -0.008025249 0.036507078
0002a0 52 0c c5 3d 69 da 53 3e 8e b2 24 bd aa a5 62 3b
       0.096214905 0.20688786 -0.040209346 0.0034583607
0002b0 7b 11 1e bd de 8e 11 be cb ba 58 3d a3 b6 0a 3d
       -0.03859089 -0.14214656 0.052912515 0.033865582
0002c0 4b 4e 78 bd 59 9e da 3d 0b 86 82 3d 2e 13 23 be
       -0.06062154 0.10674734 0.06373223 -0.15925285
0002d0 38 9f bc bc 5f f9 0a 3e 65 1b 5f be 7c eb db bd
       -0.02302514 0.1357169 -0.21787794 -0.107382745
0002e0 00 99 c7 3c 7f a0 6d bd 7e cf 04 3e 2b 4d d2 bd
       0.024364948 -0.05801439 0.12969777 -0.10268625
0002f0 49 da 2e bd 70 e6 91 3b 6e f9 97 3c 40 70 7a bd
       -0.04268864 0.004452519 0.018551555 -0.061142206
000300 b4 1b 18 3e e5 00 aa 3d f1 be 25 bc ca c1 e1 bd
       0.14854318 0.08300952 -0.010116325 -0.110232905
000310 bd 04 fb bd c2 e5 a3 bd 6f 55 64 be d8 cd a4 3c
       -0.12256763 -0.08002807 -0.22298215 0.020117685
000320 7d 1e 33 3d 54 30 3e 3d 88 e1 0b 3c 86 63 e1 bd
       0.043730248 0.046432808 0.008537658 -0.11005311
000330 0d 42 cb bd f6 fb 2b be fa 20 18 bd 1a 86 58 bc
       -0.099247076 -0.16795334 -0.037140824 -0.013215566
000340 14 e6 8d 3d c5 a1 58 bd 1c 13 0c be 19 c5 a5 bd
       0.069286495 -0.05288865 -0.13679165 -0.08094234
000350 0b 52 2b be 64 c6 d1 3c 71 a3 a0 3d 47 5c 7f bc
       -0.16730516 0.025607295 0.07843674 -0.0155859655
000360 6e 52 2b be ec c5 bc 3d 84 56 f8 3d c2 f2 e3 3c
       -0.16730663 0.09217438 0.121258765 0.027825717
000370 f8 90 49 3d f0 c3 82 bb bd 24 a0 bd 96 4f e5 3d
       0.04921052 -0.0039906427 -0.07819507 0.111968204
000380 a2 c7 19 bd b3 f1 1b bd 70 46 bc bc 8d f2 28 bd
       -0.0375439 -0.0380723 -0.022982806 -0.04124694
000390 7c df 52 bd aa 30 06 3d 38 ed 63 3d 18 b1 31 3d
       -0.051482663 0.032761253 0.05564615 0.04338178
0003a0 31 f0 12 bd ab f5 14 be 3c 94 d4 3d 72 94 02 bd
       -0.035873596 -0.1454684 0.10379836 -0.03187985
0003b0 c0 56 83 bb 4c fe 07 3e dc 89 57 3d 63 69 e1 bd
       -0.004008144 0.132806 0.052621707 -0.11006429
0003c0 e3 55 01 3e 63 bd ad bd 93 fe af bd 4f 67 7d 3d
       0.1263042 -0.08483388 -0.08593478 0.0618661
0003d0 6b f4 e2 3d 88 10 cb 3d 22 8e 59 bb c5 4b 13 3e
       0.11081775 0.099152625 -0.003319629 0.14384373
0003e0 d0 59 8f 3e 9c 5d 68 bd b0 ee d6 3c 74 78 80 3d
       0.2799821 -0.056729898 0.026236862 0.062729746
0003f0 b0 73 29 3e 20 db 2a be 85 23 d5 bc c8 68 16 bc
       0.16548038 -0.16685152 -0.026017914 -0.009180255

layer3.bias f4 [30]
000000 33 2c a1 3c bf 0f 99 3c 55 85 1a 3d 57 e6 88 bb
       0.019674396 0.018684266 0.03772481 -0.0041778493
000010 c2 f9 88 bc 25 c1 1d bc 92 6e d0 bc ee 9d 20 bd
       -0.016720656 -0.009628569 -0.025443349 -0.039213113
000020 dd 61 73 3c 6d f0 1a bd 3f 4e ff bb f6 15 46 3d
       0.014854875 -0.037826944 -0.00779131 0.048360787
000030 e7 86 cc 3c f7 e3 0e 3d a9 c0 f2 3b 55 58 c2 3c
       0.02496667 0.034885373 0.007408221 0.02372376
000040 46 d6 78 bc 90 7a 75 3d 07 1d a3 3c 1c 08 a5 3b
       -0.0151878055 0.059931338 0.019911302 0.005036367
000050 57 71 d9 3a 19 56 f7 bc 60 6d d8 3c 89 07 f9 bb
       0.0016589564 -0.030192422 0.026419342 -0.007599775
000060 9f 7f 02 3d 28 39 cb bb 98 b2 43 3c 63 e7 a8 3c
       0.03185999 -0.006201882 0.011944436 0.020618146
000070 d4 28 2f 3c d7 44 3e 3c
       0.0106908865 0.011613092
